MTLBodylr001ep1.pt (torch, 277127 bytes, 64 tensors)

conv1.0.weight f8 [3]
0	0x3fefc14d50535442	0.9923464363915928
1	0x3ff05294af566f79	1.0201613282324316
2	0x3fef3fdd8cc188f7	0.9765460728779364

conv1.0.bias f8 [3]
0	0x3fc2152a39212449	0.14127090253376398
1	0xbf79ebd1d45c8033	-0.006328410765291936
2	0x3faf2ec93428f459	0.060903823487458104

conv1.0.running_mean f8 [3]
0	0xbfc44359eb290824	-0.15830539686618395
1	0xbfc56420445c5904	-0.16711810434271268
2	0xbfc3bc9f408fe3ab	-0.15419378902859412

conv1.0.running_var f8 [3]
0	0x3ff10c0627d9225c	1.0654355579919388
1	0x3ff04d48f9be2ff3	1.018868423040655
2	0x3fee24185d6f714b	0.941906149378647

conv1.2.weight f8 [4, 3, 3, 3]
0	0x3fc1736a34fad409	0.13633468233970827
1	0x3fb40174410c90ab	0.07814718807327618
2	0x3fb10aa04e550a8c	0.06656839287192379
3	0x3fb9127d58069f72	0.097938379278842
4	0xbfc23e95ef5acfd3	-0.14253496348612646
5	0xbf8c2302185e7e99	-0.013738647812544346
6	0xbfcaa099b2ed57e7	-0.20802613484073548
7	0x3fad673c0f61bfd0	0.05742824256674306
8	0x3f88882b4c460eda	0.011978472008883956
9	0x3fa5d24be57a7445	0.04262005974053599
10	0xbfb4bde3f7852bb4	-0.08102249901746356
11	0x3fa190f374d67127	0.034309013378534474
12	0xbfc7844dfae3c8d3	-0.18372511625745477
13	0x3f95256aebd43dbc	0.020650549548973038
14	0x3fbe18bd2a19da69	0.1175649860177629
15	0x3f96b400a1cd3688	0.022171029925905944
16	0xbfca59ef77948a7f	-0.20586961115721533
17	0xbfc7d83431d143b5	-0.1862855189561096
18	0x3fbec987d2a168d0	0.12026261226984336
19	0x3fc111f5ff918648	0.1333606241124008
20	0x3fa2130be65855e3	0.03530156313733437
21	0xbfb4dee9eb384d60	-0.08152639382051552
22	0xbfc26d3a0289c16a	-0.14395833133631736
23	0x3fb4eac471eaeeb5	0.08170726567453353
24	0x3fa0459ed7a9152f	0.03178116209577763
25	0x3fc20b2e6d302640	0.14096622783135793
26	0xbfc4de02dac37579	-0.16302524263202736
27	0xbfb1714297fd53df	-0.068134462458445
28	0xbfbbed4e57e09134	-0.10908975263061366
29	0xbfa92e69238b2479	-0.04918221053009914
30	0xbfc84e522a484132	-0.1898901659446977
31	0xbfb09603ce3e2222	-0.06478904519293185
32	0x3fbf8c010045fde2	0.12323004013705188
33	0xbfc42f6fc6be30c5	-0.15769765094990454
34	0x3fb2810253dbb9ec	0.07228102252313534
35	0x3facc393ddfd7eca	0.05617963871804717
36	0x3fbd14cd40eca3dd	0.11359865984981306
37	0x3fb22992e98d9738	0.07094686700801567
38	0xbfc75b400a14be32	-0.18247223369825033
39	0x3fb7912afb1ee093	0.09205883627771731
40	0xbfbe84fac5ef93a6	-0.11921660740297443
41	0xbfcb06acf4c3126e	-0.21114122344274072
42	0x3f788c25edd4f87c	0.005993030700947807
43	0xbfaed245c7ba3cc2	-0.06019800246314723
44	0x3fc02ba8e5fd2c05	0.12633239011697142
45	0xbfc3fcf88d080a44	-0.15615755926417496
46	0x3fc26c4c427db3f3	0.1439299893058031
47	0xbfc1387ea96744c4	-0.13453658363008547
48	0x3f91cd3a08416788	0.0173844401873349
49	0x3fac068277b676fa	0.05473716460549656
50	0x3fa65781ae969e23	0.04363637214856577
51	0x3f9fa2579f64dc21	0.03089272413600608
52	0xbfa3209feb82c47a	-0.03735828161132644
53	0xbfa9edabc66a2c2b	-0.050641410799549945
54	0xbfb2e976c247f5a5	-0.0738748764342377
55	0xbfbb8a568d670606	-0.10757962181289579
56	0x3fca96fcb74226bb	0.20773276279606087
57	0x3fb9901decec3240	0.09985529932254966
58	0x3fb25f4b3993953e	0.07176656871486828
59	0xbfb61733ee7fe08d	-0.08629154751531783
60	0xbfc1644de38bfa61	-0.1358735428875262
61	0xbfb4e11b6cd01703	-0.0815598621994376
62	0x3fb278dbff3477f7	0.07215666752423987
63	0xbfc46419ff8bc5c1	-0.15930485704261169
64	0xbfa7ea62e84ffff1	-0.04671010099264084
65	0x3fc9c023b672ff4e	0.2011761322846674
66	0xbfa23fa4ef482de1	-0.035641817292425555
67	0xbfc231f2f51218c9	-0.1421493240961296
68	0x3fb484ab436e0de7	0.08014936825025352
69	0x3f8bd3700b4a681c	0.013586879105151488
70	0xbfbe139af433d2df	-0.11748665296529336
71	0xbfc8692949cd46d1	-0.19070926765066656
72	0x3fb63f0d320c6bf4	0.08689959022414923
73	0xbfcc0d0f17b6578f	-0.21914852769685608
74	0x3fc50d4021193bde	0.16446687332287885
75	0xbfa221c29ed483a1	-0.03541382016033557
76	0xbfc3d964183b8987	-0.15507174666624854
77	0xbfb51ed403d07f75	-0.08250165074468703
78	0x3fbb88b98412495f	0.10755500292205998
79	0x3fc1fbe7308b40f5	0.1404999720603041
80	0x3fa8f31ac67fe382	0.0487297408398666
81	0xbfc7a41123f0876f	-0.1846944261060872
82	0xbfc1547505a432ed	-0.13538992667636
83	0xbfc626297dfeae2a	-0.17303961422054331
84	0xbfae2a4220b41176	-0.058916155330765926
85	0xbfb5ec74b1dbdec1	-0.08563927976853859
86	0xbfa17d5ebdf5d22d	-0.03415962284899297
87	0x3fc1338a4a85517c	0.13438538206777284
88	0x3fb567fbf48a9f75	0.08361792297602995
89	0xbfb0c18f43017d0b	-0.06545348535427224
90	0x3fc6d9d50fe42b91	0.17852271343175777
91	0x3fc771a6f5afdf98	0.1831558894771177
92	0xbfc2ad3379f0c833	-0.1459106774723878
93	0x3fa7a1bf94a3e3ab	0.04615591706710317
94	0x3fc948749eeb36a8	0.19752366790492215
95	0x3fa0c79a8cd6fef9	0.032772855465280366
96	0xbfc24740547dce3f	-0.14279941678579353
97	0x3fb868fba59c27f3	0.09535191338741793
98	0xbfb326f7ba1dad41	-0.07481334966512511
99	0xbfcacc785fd1086b	-0.209364935670297
100	0xbfb663dfc726f9c3	-0.08746145832171863
101	0x3f970474b2891351	0.02247793521589198
102	0x3fa119c3696cd7df	0.03339968358925182
103	0xbfb130d439cfcb9e	-0.06715132152002787
104	0xbfc7255726d733d7	-0.1808270396853959
105	0x3fc27a5422a20239	0.1443581742387481
106	0x3fab195c68b68e8d	0.05292786386715163
107	0xbf7795078ba0e2bb	-0.0057573599570381285

conv1.2.bias f8 [4]
0	0xbfb24c6f00000000	-0.07147878408432007
1	0x3fc4fe4760000000	0.1640099734067917
2	0xbfc7e3f620000000	-0.18664433062076569
3	0xbfb4532960000000	-0.07939394563436508

conv1.3.weight f8 [4]
0	0x3ff01e24b6d3f743	1.0073592321127343
1	0x3fefda18b55bd9b4	0.9953731100238685
2	0x3fefa446a749d64a	0.9888032214500495
3	0x3ff023115a87a2dd	1.008561471588272

conv1.3.bias f8 [4]
0	0x3f829317bb0d55ce	0.009069619556309496
1	0xbf925d3540c90307	-0.017933685378241495
2	0x3f83e4dbd67a2f37	0.009713857157542456
3	0xbf7ff0cf196c2760	-0.007798012715974995

conv1.3.running_mean f8 [4]
0	0xbfc375c6f72491a1	-0.1520317751648124
1	0xbfc1e657fa047d04	-0.139842030600427
2	0xbfd70cbb735572b3	-0.36015211356224625
3	0xbfd2174e4adc8972	-0.282672474963099

conv1.3.running_var f8 [4]
0	0x3f9f2b7619d0b7d2	0.03043922932209126
1	0x3fc60ff0b335006d	0.17236145735114708
2	0x3fb27191205d4efc	0.07204539337299914
3	0x3fb58f0dd4a9a3b7	0.08421408121070227

conv1.5.weight f8 [4, 4, 3, 3]
0	0xbf54d312716700ae	-0.0012710266215521337
1	0x3fb10c3cde7a03e3	0.06659298354681158
2	0xbfa046cfbb61a208	-0.03179024851198525
3	0xbfb6bd5aa5b57231	-0.08882681413292272
4	0x3fae0649c7d640bb	0.05864172520080176
5	0x3faa57d12b62ad33	0.05145124106032952
6	0x3fa2944d0a821938	0.036287696392764024
7	0x3fbf7a778b40b32a	0.12296244764065692
8	0x3fba50f56eb52f14	0.10279783203912657
9	0xbfb4fddb88f618df	-0.0819985589388099
10	0xbfb6aef61e8bbc7c	-0.08860719915149845
11	0xbfb41b25d73095bd	-0.0785392427793203
12	0xbf9b09c22a62e5a5	-0.026404413067870575
13	0x3fa75b18e3814c82	0.04561689164315742
14	0xbfa264ad631155ec	-0.035924356787898265
15	0xbfaa73e7e07c5610	-0.051665540841138946
16	0x3fbb451d079f8cb5	0.10652333675493504
17	0x3fb8f39fa8f417f6	0.09746740221825675
18	0x3fbec6c6b05380bc	0.12022058300817923
19	0xbfbf36c2d219a062	-0.12192933682820375
20	0xbfbe93d3b91a63d9	-0.11944316166990578
21	0x3f904e2de8c93838	0.015923230488901846
22	0x3fbb5179adcd5ace	0.10671196454255069
23	0x3f938752a6429d27	0.019070903203695224
24	0xbfbe92b2ae493082	-0.11942593340899246
25	0x3fb1bcc7b4353988	0.06928680562598377
26	0x3fab19b5119d36ee	0.0529305061341868
27	0xbfc3f6e9ba251430	-0.15597268666366082
28	0xbfa5f47e75981234	-0.042880966047992436
29	0xbfc01f78bd6eca37	-0.12596043824813005
30	0x3fba2a1a5621c24c	0.10220493891552812
31	0x3f9ef4d4eee3560b	0.03023083408409914
32	0xbfc633ca5688b8db	-0.173455517056431
33	0xbfb59013c0957b4f	-0.0842296929526871
34	0x3fc15093c324159c	0.13527152088515215
35	0xbf9f87ea66256cbd	-0.030791914448269554
36	0xbfbff67cd107e0ea	-0.12485485175409719
37	0xbfbb7e085797ba30	-0.10739185465329437
38	0xbfba9d4c856cf5f7	-0.1039626909013903
39	0xbfb3a46dea92f575	-0.0767277429285594
40	0xbfbe9fdc32ec630b	-0.11962677233931289
41	0xbfb0d23ce213566f	-0.06570797461912446
42	0xbfbc24c3181e43bb	-0.10993594492744212
43	0x3faf4e7c43e06154	0.06114567116327643
44	0x3fab1528b701c9e1	0.05289580568286901
45	0xbfbbae4fa3eb4c01	-0.10812852622920845
46	0xbfb85f4f64d0c4d7	-0.09520431720081333
47	0x3faf68ac53c86f0b	0.06134546778431912
48	0xbf6f77bc8b89c3fb	-0.003841274501887868
49	0xbfba5d1ac16c86e5	-0.10298316213859555
50	0xbf9ddfccd765125f	-0.029174042364746074
51	0xbfbbf81ae41ba110	-0.10925453251877948
52	0x3faff281b721ebba	0.062397054295579804
53	0xbfbf3bff1ce8772a	-0.12200922446978937
54	0xbf90269292d2ba80	-0.015772142611860662
55	0xbf70601128179c9d	-0.003997866647728857
56	0xbfc41a33b4e80e8e	-0.15704962094615776
57	0x3fc0e96d7d812772	0.13212364795827686
58	0xbfbfef72a4929494	-0.12474743383298154
59	0xbfafc823b22a0341	-0.06207381772856602
60	0x3fbfb68143e2b7e1	0.12387855441440322
61	0x3fa32756f6d28388	0.03740951312034385
62	0xbfaeccc721649c8c	-0.06015608103398859
63	0x3fc6242c0dcdd985	0.17297888444927537
64	0x3fbf8589a29085b3	0.12313137263165323
65	0x3fc47d12c71333a4	0.16006693573436082
66	0x3fa0362fc6d1efa2	0.03166341115954131
67	0x3fc65eac97ff8cfa	0.17476422712125111
68	0x3fc2e9ee796c34cf	0.14776402405587993
69	0xbfb689af1246ec71	-0.08803838916985442
70	0xbfc24e7c9ef92a3f	-0.14302022707336623
71	0xbfa014b4c9fb42b9	-0.03140797582239458
72	0x3fa2b9dccabac00a	0.03657426810002569
73	0x3fc4822bd026f1ab	0.1602225080840872
74	0x3fc406472a7a02bc	0.1564415891080183
75	0x3f71b04fb82dfb91	0.004318534282787293
76	0xbfb2ca8914ec9e7f	-0.07340294609877594
77	0x3fa47c4c4ce8242a	0.04001081885150655
78	0x3fb4ae806d233cee	0.08078768410199519
79	0xbfa443ef11fc4415	-0.03958079428242215
80	0x3fb927645986b758	0.09825732408236598
81	0xbfc29ab00bbda3e0	-0.1453456933334385
82	0x3fb01653b1ca7668	0.06284068194005388
83	0x3f75b0cc09dbb3e9	0.00529555990736428
84	0x3fb2b170a61c881b	0.07302002006011359
85	0x3fc73227ec12f042	0.18121813799905523
86	0x3fa54b9852bf07c8	0.041592369175773636
87	0x3fb990a31e07b2e1	0.09986323817401967
88	0xbfc1891c19f276f4	-0.13699675814580525
89	0x3fc594a64a10e47c	0.168598924794228
90	0xbfa1e4bd0d55f1e7	-0.03494826114453869
91	0xbfaef7120ae5f383	-0.060478748159744654
92	0x3fa5850bc2168ef7	0.04203068489303335
93	0x3fad9c0ff4ad6d8a	0.05783128606591521
94	0x3fadef57424f7d5a	0.05846665081457543
95	0xbfc18fcdc68a54e1	-0.13720104402879144
96	0xbfad2d5ba3f80c5d	-0.05698667885374029
97	0x3fc6049d878923db	0.17201584928468958
98	0x3f735645eeed2511	0.004720948388077476
99	0xbf89d6c0ba1d9910	-0.012616639785573841
100	0xbfa371202112896e	-0.03797245410648285
101	0x3fc250efcf279c99	0.1430949937341424
102	0xbfb2a1b0559f221e	-0.07277967539187855
103	0xbfb219d8ac300ffe	-0.07070688442041725
104	0x3f7b67bb226d6189	0.006690722459858364
105	0x3f7c7baebda1d52f	0.006953890400941006
106	0xbfa71bc890899bee	-0.045133845943205006
107	0x3fbd16660fc31880	0.11362302670304025
108	0xbfc397bbd375b3d9	-0.15306804490265227
109	0xbfc42f58652f4001	-0.15769486370709276
110	0xbfac3f52cfbe4115	-0.055170619830393765
111	0x3fac67daaefd3398	0.055479844914407994
112	0xbfbfa0969a5cdd2c	-0.1235441328870947
113	0xbfbb48d1318f20f2	-0.10657985172213438
114	0x3fb26262165e265f	0.07181370779121597
115	0x3fa84f6a0171f232	0.047480881382373843
116	0xbfb73faa6884dff8	-0.09081521083578525
117	0x3fa399ec6af05376	0.03828371816067648
118	0x3fc5b51e4351be60	0.1695897892673086
119	0x3faa6eb207e8b8dc	0.051625789132559524
120	0x3fb597c5256c8685	0.0843470779768954
121	0x3fc140f36c8969e8	0.13479464339873393
122	0xbfc060bb6cf8418f	-0.12795203038014022
123	0xbfa3f663c9a4042f	-0.038989179958669566
124	0xbfbb872fee29f919	-0.10753154339360939
125	0xbfc476ae8d81096c	-0.15987188252808993
126	0xbf6834fce609eb15	-0.0029549540925563147
127	0xbfb6106313f8accf	-0.08618754613478362
128	0x3fa53a97265c5629	0.04146263449926508
129	0x3f7fe9b5106323ab	0.00779124000673274
130	0xbfc457af97845f09	-0.15892596147818264
131	0xbfb0af4b4ee2e82a	-0.06517477680145647
132	0xbf7ccdf26bcfe929	-0.007032343823988798
133	0x3fbab40aef9c2152	0.10430973386622114
134	0x3facd1facfe57c0c	0.05628951823995729
135	0xbfa20cd0d5190661	-0.035254026425275205
136	0xbfa2f7dcf8c79807	-0.037047295921908634
137	0xbfb1359564956a24	-0.0672238703313402
138	0xbfc1dcc6026cfab1	-0.13954997175638575
139	0xbfc0c572cb56ea0d	-0.13102564743697123
140	0xbfaa87e66f5b9b31	-0.05181808575962633
141	0xbface218b0337e94	-0.05641247893231341
142	0xbfa9e4b1c9a2ea66	-0.050572925437752755
143	0xbfc4b61e20df8e98	-0.16180779080524554

conv1.5.bias f8 [4]
0	0x3fb8a5d640000000	0.09628047049045563
1	0x3fc2e81a60000000	0.1477082222700119
2	0xbfa5df1000000000	-0.04271745681762695
3	0x3f9b063900000000	0.0263909250497818

conv2.0.weight f8 [4]
0	0x3ff000800b333479	1.0001221120358237
1	0x3fef9e6cd200179a	0.9880889989442381
2	0x3fefe08ba6db52bc	0.9961603411598712
3	0x3ff03f82e811abc7	1.015505701560629

conv2.0.bias f8 [4]
0	0x3f92e2a835f005ff	0.018442753116692853
1	0xbf7c9ab5391f3dd5	-0.006983478453505628
2	0x3f852ee38f145861	0.010343339733065617
3	0x3f8db49a6603c7cf	0.014504629362338676

conv2.0.running_mean f8 [4]
0	0x3fb7d29a28f51226	0.09305728435453683
1	0xbf96d9909ca58d7f	-0.022314319191889972
2	0x3fd635361713ab47	0.3469977593764963
3	0xbfdc529a12b17947	-0.4425416166831337

conv2.0.running_var f8 [4]
0	0x3faacd5b8ba4cc12	0.05234800414691433
1	0x3fb5f1928c47ebb8	0.08571735310390138
2	0x3fb3a45132a54637	0.07672603117432507
3	0x3fc1fd7620ca2e02	0.14054752923071595

conv2.2.weight f8 [8, 4, 3, 3]
0	0xbf98f6bb5465eaae	-0.024378706957103695
1	0xbf95ce04dbbb0daf	-0.021293712531372296
2	0x3f94234778cfe96d	0.019665829418934622
3	0x3fc6b65f5b041f4a	0.17744056648393275
4	0x3fb22edd642cf718	0.07102760024733035
5	0xbfc4b60b5a376ccd	-0.1618055525312684
6	0x3fa6fd918f479d81	0.04490332483311033
7	0x3fb69b261b16cb54	0.0883048835883476
8	0xbfb16551c3299666	-0.06795226111133842
9	0xbfaa646639944e20	-0.051547235993123275
10	0xbf7ec5821523750e	-0.007512577185676562
11	0xbfb17943617aaf4b	-0.068256579683916
12	0x3fa130ac5d80a089	0.03357447282206844
13	0x3fc2df3d0ea0bae7	0.14743769850016195
14	0xbfb83d359dee3a76	-0.09468398195006408
15	0x3f73ef45da0a36f2	0.004866860254549842
16	0xbfaba4470a20900b	-0.05398771284697553
17	0xbfc0ff2ff6f474b7	-0.1327877002558233
18	0x3f6af02e6d184b5a	0.0032883555184154813
19	0x3fb9c3c3f5839588	0.10064339393610144
20	0xbfb70a0216c1ac18	-0.08999646239833259
21	0xbf84a73e01857f92	-0.01008461420195753
22	0xbf9b8700c7a26ebc	-0.026882183251116784
23	0xbfa2e66dc65f097b	-0.03691428228877932
24	0x3fb8f471fd132ad5	0.09747993877969503
25	0xbf95e2139a8bb690	-0.021370226199840803
26	0xbfbcb1b2a667aaf4	-0.11208645403500467
27	0x3f94295076e70a1a	0.01968885160182241
28	0x3fbaf9cb82afd914	0.10537406864736837
29	0xbf82ede00bffb3dc	-0.009242773405242426
30	0xbf99f0aaec6011f2	-0.02533213680000474
31	0x3fb9b88df0f670d5	0.10047232754590436
32	0xbfa828f73c9e33ae	-0.04718754401174095
33	0xbf83ad3851a8f53c	-0.009607734672608552
34	0xbfb921e986ed976a	-0.09817370933668959
35	0x3fc318bcca0c5d0a	0.14919242730750454
36	0xbfc0291cbdde85d4	-0.12625464697798228
37	0xbfb91aa9d5d28f3b	-0.09806310148502188
38	0x3fc23eb9b7a33a7d	0.14253922907524333
39	0x3fc0d0e4f01f2725	0.13137494778339334
40	0xbfb89a0656b09af0	-0.09610023132755052
41	0xbfc721c93bd5798a	-0.180718569007649
42	0xbfb76207f7179cb2	-0.09133958609128248
43	0x3fb30141f592ea22	0.07423794026809863
44	0x3faa6c8ed2a57bbc	0.051609481061624746
45	0xbfab47e9ae0622b8	-0.05328302621189124
46	0x3fc39a2065c869c4	0.15314106912485503
47	0x3fb2f89f8fc8948b	0.074106190303228
48	0x3fb226daa806eff3	0.07090536691879361
49	0x3fc06478c1046464	0.12806615280786382
50	0x3fae643ed3a3b1ef	0.059358561835185834
51	0xbfb260b4a348b522	-0.07178811060358162
52	0x3fbd3fd5be348fb2	0.11425529378590119
53	0x3fc462b576d32df8	0.15926235486982399
54	0xbfb54e2488a0f5cf	-0.08322361312544689
55	0x3fbfdce7e971ed71	0.12446450661984955
56	0xbfc38400ee3f82c4	-0.15246593125541186
57	0xbfb61af8ec9010d4	-0.08634906554658822
58	0x3fc01ee2262b7f6a	0.12594248641743927
59	0x3fc13fb38e41d06f	0.1347565121283227
60	0xbfa090c82b0b45b5	-0.03235459828796242
61	0x3fac0a2467b1646a	0.05476487890036526
62	0xbf94d749ccc7321c	-0.02035250961653122
63	0x3fb2cb3f2592e1b0	0.0734137980206302
64	0xbf733931a3ccf50e	-0.004693216233872434
65	0xbfb4018735962afa	-0.07814831789270818
66	0xbf7a0dddd7f56061	-0.0063608804478790535
67	0xbf96ed6a11bfc316	-0.02239003880817155
68	0xbfbab2daf10cebde	-0.10429161438962306
69	0x3fc3517ccd443c70	0.1509243013647139
70	0x3fbee841111461d4	0.12073141734106879
71	0x3fbe3512f047684d	0.11799734464821761
72	0x3fb7298284b3e201	0.09047713985263074
73	0x3fa4096d428574ae	0.03913442074802141
74	0xbfb613554653f4bd	-0.08623249976149601
75	0xbfa1e8b23923d055	-0.03497845599659458
76	0x3f9046fbbcd766e5	0.015895779992070386
77	0x3fba28984c17aac5	0.10218192918515985
78	0xbfbbeb9e50872ca3	-0.10906400171295387
79	0xbfc2b28ee351fd54	-0.14607416247961658
80	0xbf72b0792871d681	-0.004562829278361159
81	0xbfc529ed7f47d24a	-0.16534203257437446
82	0x3f91710801098690	0.017032742560678715
83	0xbfbeb8b1164a06a0	-0.12000567239922555
84	0xbfb2a6814fa71b14	-0.07285316652915369
85	0x3fb1d220208957ff	0.06961251062725181
86	0x3fb12216d245f16d	0.06692640908835808
87	0x3fc4c4450a19a1bf	0.1622396754567159
88	0x3fb323b4d562e85b	0.07476358613613014
89	0x3f94ce1c87a22456	0.02031750276413321
90	0xbfc09153f8105cac	-0.12943505871291927
91	0xbfba0bb98aed9437	-0.10174140588567658
92	0x3f9287a2b3351084	0.018095533550209555
93	0x3fb64c5adc8d6ea0	0.08710258373815316
94	0x3fb8704242e2b43d	0.0954629338545638
95	0x3fbcbc73a16866a6	0.11225054445858493
96	0x3fbb49887c5ed015	0.10659077679048352
97	0xbf9e2253bcced4ce	-0.029427822493478577
98	0xbfae2da981def3ca	-0.058942124465353254
99	0x3fc135d00cc38a50	0.1344547331164727
100	0xbfb2ff82e1486fb8	-0.07421129226753365
101	0x3f602aa30ffdb63b	0.0019734558881541442
102	0x3fb52cc1e6f25880	0.08271419418665182
103	0x3fb79867eaac6bff	0.09216927985509925
104	0x3fb34784e3ac8e2a	0.07531004484604212
105	0x3fba3ac241759c70	0.10245908830766992
106	0x3fc107285b2727f3	0.13303093386485862
107	0x3f8e4f10ea577c29	0.014799244071523958
108	0xbfaf74dc2c6e7722	-0.061438446449058284
109	0xbfa4c8d2831236d5	-0.04059465265264143
110	0x3fbbc6b8a46f7cea	0.10850099577463693
111	0x3f90268cbc02a682	0.015772055602303776
112	0xbfa368f56c757fad	-0.03791014622652198
113	0xbfc1c2f44f3cfd96	-0.1387620341210833
114	0x3fa098828db3a14a	0.03241355876690706
115	0xbfb725c26774d52d	-0.09041991258421396
116	0xbfc07a53080ef2bd	-0.12873304265476362
117	0x3fc0d9315423fd8b	0.13162819488932728
118	0xbfc0e31530fd2c42	-0.13193001644171615
119	0xbfa3fa18840c2feb	-0.03901745426091437
120	0xbfb99de03e61642d	-0.10006524584731898
121	0xbfc397e0a421e6df	-0.15307243360785258
122	0x3fb9f123677c628b	0.10133572842131337
123	0xbfc0b1cacb35ecf7	-0.13042578623194576
124	0xbfc49db238d3478c	-0.16106250548051226
125	0xbfb8844e2ec5430b	-0.09576882020816073
126	0x3f817c1d7a6a778c	0.00853751211007727
127	0x3f8d02d56ced2dd8	0.014165561091110598
128	0x3f84eabbc0c636a8	0.010213343449119464
129	0x3fbce702690475e7	0.11289992393400149
130	0xbfb5be9241c2d9d5	-0.08493913751121991
131	0x3fa48c6d166078a4	0.040133866292522385
132	0x3fc3601bba7f6eec	0.1513704929956171
133	0x3fc7ce3c7c15c5d7	0.1859813314327272
134	0x3fa9e46a30de49a8	0.050570791688318295
135	0x3fb68f14fc09a432	0.088120757610924
136	0xbfa2830c03a5fa35	-0.03615605873618614
137	0x3fbf44e43be688a9	0.12214495146193606
138	0x3fb9d57905b65597	0.10091358556231565
139	0xbf850b83c98d81d6	-0.01027586897697656
140	0xbf8da3dc91d9d0f9	-0.014472697449698023
141	0xbfad40e07725d9e9	-0.05713559584085088
142	0xbfaffb6a4657db33	-0.06246502026254177
143	0xbf4ede2ae939ef36	-0.0009420117880405202
144	0xbf8c5c365d330193	-0.013847756118025944
145	0x3fa5f6f2a03a8d20	0.04289968686978285
146	0x3fbae7b289313112	0.10509792184274527
147	0xbfbfc92cc81aa9b8	-0.12416343579631117
148	0x3fa8086c9d59ffd2	0.04693927212520034
149	0xbfc06774d23d5bee	-0.12815723672494478
150	0xbf97cdf8e4b720c9	-0.02324665924041439
151	0xbfb6ad45ad7c0bf2	-0.08858142362082314
152	0xbfb852ad41c37b78	-0.0950115476184531
153	0x3fb35d52dd5075f2	0.07564275649243493
154	0xbfa03c945a92c9b5	-0.03171218495971876
155	0x3fa781107bbae23f	0.04590655813575894
156	0x3faae52197055e4a	0.05252938240544987
157	0x3f750567aaa371a9	0.0051321076845990765
158	0x3fabb5488d2223c0	0.054117457607453456
159	0xbfba50ced9d6dac9	-0.10279553240148255
160	0x3fc56ee2423cd7b7	0.16744640573750555
161	0x3fbaa00448540da4	0.10400416150883146
162	0x3fbd881ad16032a4	0.11535804378236009
163	0x3fc2ab86e55aaa22	0.1458595867055275
164	0x3fc016ecd41c1a5e	0.12569961888239595
165	0xbfc5eccc5d6e9e16	-0.17128901064028018
166	0x3fb4d4e603878bed	0.08137357317131917
167	0x3fbcb0a631d4ac93	0.11207045284816024
168	0x3fa7e16216620182	0.04664141200283024
169	0x3fbd988155c1d61d	0.1156082949035739
170	0x3fad62bdd541dd2f	0.0573939631294088
171	0x3fc043bb6f75416f	0.12706702177321058
172	0x3fb6b521063da7a9	0.08870130922664878
173	0x3fb3d3d8e9b69840	0.07745128351106789
174	0xbfc014a49d1970fc	-0.12562997504108597
175	0x3f88bd4a24f53b4f	0.012079791310183245
176	0x3fabe547e4eb04bb	0.05448364896211318
177	0xbfb66ffde0f77cb1	-0.08764635794021804
178	0xbf4e5d0d4bda0890	-0.0009266199992483837
179	0xbfbeba50ec9561ae	-0.12003045822110067
180	0xbfbde5c7c776aeb2	-0.11678742046086191
181	0xbfb03ee7081f4172	-0.06345981548589011
182	0x3fa9a4269a3028c5	0.05008049614123559
183	0xbfb201967c9e6c47	-0.07033672850086346
184	0xbfc1f8ae664bc4c6	-0.1404016494266555
185	0x3f8ec509279d974b	0.015024253388854844
186	0xbfc58efa75535c6a	-0.16842585305014107
187	0xbfb5aceac10d7317	-0.08466975415417398
188	0x3fa5e0bc79e568aa	0.04273022640218589
189	0xbfb87e599fc7ad01	-0.09567794943693643
190	0x3fb092e4cf3c013d	0.0647414213126511
191	0x3fbf5ab6e5a89670	0.12247794253252109
192	0x3fb5230d2120771d	0.08256609019050783
193	0x3fb40cdfea0cf676	0.07832145179869507
194	0xbfad87a2e26f767f	-0.05767544759849574
195	0x3f9b513ce6eb1c58	0.026677085489407254
196	0xbfc4a244e112521e	-0.16120205869505438
197	0xbfa1d936a79d48bf	-0.03486033245157349
198	0x3fbe032529149191	0.11723549130380763
199	0xbfb553c131eeb187	-0.08330924481442113
200	0xbfbb0b350d5743dd	-0.1056397588320261
201	0x3f5f625fa7eb8117	0.0019155439510357192
202	0xbfc1f2b833034c26	-0.14021971217025103
203	0x3fb2cf020b5caa24	0.0734711911906421
204	0x3fb51db6f72c03bb	0.08248466047736162
205	0x3fc24bd0b445f664	0.14293869783789426
206	0x3f9a61ded4b34ced	0.025763971073342985
207	0x3fb9b600e2aea4f6	0.1004334023879386
208	0xbf7374c12db1dac9	-0.004750017741676779
209	0x3fc76e6e3ba95685	0.1830575743976405
210	0xbfbb2e1631d90ad8	-0.10617197720516047
211	0xbfc0ba058b79f216	-0.13067693052643453
212	0x3f93ca81c7682239	0.019327190204452036
213	0x3fc5b40578c0fa4f	0.16955631633932675
214	0xbfad5a3cc7f8a107	-0.05732908192686819
215	0xbf9287750e6e6853	-0.01809485340673007
216	0x3fbf814a482f4373	0.1230665613395681
217	0xbf935558f63066e2	-0.018880262399853083
218	0xbf9b9cbd3a658519	-0.026965099992030426
219	0xbfc06b44f6f6b684	-0.12827360209250938
220	0xbf98906a53cdec72	-0.023988400807394013
221	0xbfbee0fe1593d630	-0.12062061335367313
222	0x3fba4296ddcad97a	0.10257857241490412
223	0x3fbbd4446ad645b6	0.10870769127202248
224	0xbf9346643dfb0bd9	-0.018823210032461766
225	0xbfb1d85219af06f3	-0.06970704199832393
226	0xbfc644df634237b3	-0.17397682520498634
227	0xbfb3f398d2a06200	-0.07793574468849584
228	0x3f99ebd880ea57ec	0.025313742512103873
229	0xbfbbbd619c0a7f45	-0.10835847911448322
230	0x3fc4fbcae32c7404	0.16393409817183635
231	0xbfbb0c3cd829f4c0	-0.10565548207701436
232	0x3fa8f017ec9fd3d9	0.048706767687612014
233	0x3fade63312a07b4b	0.058396907829083654
234	0xbfc2dc47b40f652b	-0.1473474148940935
235	0xbfbfb4b4e97fe388	-0.12385111523316372
236	0x3f9af4bbf78b75df	0.026324212058957627
237	0xbfb70571042d64db	-0.08992678024278027
238	0xbfb43b1de10ee203	-0.07902704948981669
239	0x3fb35c5962b0ecd1	0.0756278863854505
240	0xbfb86783b2f65ede	-0.09532950514983038
241	0x3fc385e43542aa4b	0.1525235424099541
242	0x3f72170b47163cd5	0.004416507771920671
243	0x3fbe83ce73326b2b	0.11919870674539072
244	0xbfc1bb3d4fa32b4d	-0.13852659596008224
245	0xbfb49f30e4f91ee5	-0.08055406179584741
246	0xbfbde23d3e7633de	-0.11673338675446085
247	0xbfaa0cd9c80c53e5	-0.05087929312700349
248	0xbf994d55ab829a0b	-0.024709070771360014
249	0x3fc01a478704ef4e	0.1258019837640582
250	0x3fa8feea9039859f	0.04881985674434052
251	0xbfa583de915cb4fb	-0.042021708721543725
252	0xbf8f21b6fe64385f	-0.015201024664318106
253	0xbfb285db5f1a8745	-0.0723549945055569
254	0x3fc17e04a28bd09f	0.13665826737235862
255	0x3f8b46b427f01939	0.013318450421149751

conv2.2.bias f8 [8]
0	0xbfc4d735e0000000	-0.16281770169734955
1	0x3fb9c358c0000000	0.10063700377941132
2	0xbfc228d5e0000000	-0.14187119901180267
3	0xbf9a288300000000	-0.025545164942741394
4	0x3fc2dac8a0000000	0.14730174839496613
5	0xbfabe81d80000000	-0.05450527369976044
6	0xbfb4445160000000	-0.0791674479842186
7	0x3fabc0b680000000	0.054204657673835754

conv2.3.weight f8 [8]
0	0x3ff009c70f14e47b	1.0023871029973452
1	0x3ff01304bb3b83e6	1.004643184067612
2	0x3fefdff6a00150cc	0.9960892796612142
3	0x3fefca578069041d	0.9934499271404352
4	0x3fefffbe658b7619	0.9999687178894333
5	0x3fefcfb7ac0212b8	0.9941061362775008
6	0x3ff010057b1ffadf	1.0039114770476585
7	0x3ff017081861ca2b	1.005622954599526

conv2.3.bias f8 [8]
0	0xbef4abe895495827	-1.9713895499450095e-05
1	0x3f7fe1570f1efe7a	0.007783260416487909
2	0xbf65c8ebd1b11ce3	-0.0026592832414596853
3	0xbf73ad0109e5776f	-0.004803661401039479
4	0x3f3282ed553390a5	0.00028246206529859214
5	0x3f5e8bbc5aeb94ba	0.0018643702894050444
6	0x3f5e848e5e11b810	0.0018626585299688116
7	0x3f72adb49a9ad20a	0.004560189708787474

conv2.3.running_mean f8 [8]
0	0xbfc285693f8fff66	-0.14469638446461913
1	0x3fd9cc2eec220986	0.4030873590455929
2	0x3fc1e11d7843affb	0.13968246814999916
3	0xbfb677227956eda3	-0.08775535070792854
4	0x3fdca0782de5aeb3	0.4472942779745878
5	0xbfbcdaf81bb433e8	-0.11271620441785013
6	0xbfd66d9293e82fbb	-0.35043777889290667
7	0x3fc731437e7ebca9	0.18119090725438028

conv2.3.running_var f8 [8]
0	0x3fb0e3ed3f75730d	0.06597788619314944
1	0x3fcc8dc61312287d	0.22307659083555
2	0x3fc1dcb762787676	0.1395482283414144
3	0x3fc86bf77910c15a	0.19079488192938748
4	0x3fbbb75464f3a09e	0.10826613869324084
5	0x3fb9a57bdfdfefe1	0.10018133369152295
6	0x3fb6368f39882660	0.08677001146875218
7	0x3fd2bdcdbabb0d78	0.29283469424645814

conv2.5.weight f8 [8, 8, 3, 3]
0	0x3fb515e67a452b0a	0.0823654221068574
1	0xbf737515362ba923	-0.004750330789401044
2	0xbfb03259cf1b5923	-0.06326829248732628
3	0xbfac8bec996e5ce1	-0.05575503704965868
4	0x3f9b45184a6e6eae	0.026630763571673093
5	0x3fb18cc61012c3e0	0.06855428593077262
6	0x3fbb85c77ef2311e	0.10751005982655612
7	0x3f8a06b669545cb4	0.012708115662958576
8	0xbfb59f6688207225	-0.08446350882918148
9	0xbfa8285287b304ac	-0.04718263536916231
10	0x3fb9c10cad44a202	0.10060195188692236
11	0x3fb8d6d50cadc2a3	0.09702807960071395
12	0xbfb1eb2dca93154b	-0.06999479480426378
13	0x3f753a6abac17db9	0.005182663833778128
14	0x3fb4be117b70001d	0.08102521194086916
15	0xbfb88f186694cdad	-0.09593346123147369
16	0xbfbd172589840d30	-0.11363443953819252
17	0xbfbb836059de8282	-0.1074733943373847
18	0x3fb670ad5d9a3f06	0.08765681777208209
19	0xbfb179aaa7fc8ca1	-0.06826273537858409
20	0xbfb20abbfc9bd3d7	-0.07047629277424448
21	0xbfb7fcd705a3f3b7	-0.09370178115564341
22	0x3fb5eb70278500af	0.08562375035126267
23	0x3f9c8571ab9ed5bc	0.02785279855716792
24	0xbf9dca6e0d26dcf4	-0.02909252124092361
25	0xbfa3e1b9491d3c76	-0.03883151071078654
26	0xbfb061db565b73b7	-0.06399317606287878
27	0x3fa109d29bcddd14	0.03327806617647347
28	0x3f95e7296bf837b3	0.021389624800626183
29	0xbfb837100836a0a6	-0.09459018898508251
30	0xbf9a0f86f7b6c9de	-0.0254498566334379
31	0x3faaa027841ccca6	0.052003130795492056
32	0x3f9c375b90405569	0.02755492275180896
33	0x3fbfc4d2d6700011	0.12409703955927422
34	0xbfaaea8e05de9fde	-0.052570760933406055
35	0xbfad49a179c48bbb	-0.0572023831503183
36	0x3f82ff4b6d68b56a	0.009275998379133472
37	0xbfb22dfa788758a5	-0.0710140747317803
38	0x3fadab07ce8dc1e8	0.05794548412712058
39	0xbfb69337201fc6e0	-0.08818382772713163
40	0x3fb3aaf268244d54	0.07682719271206412
41	0xbfbeade7d8e53e5b	-0.11984108968067046
42	0xbfbc4f2bafe2c079	-0.11058304828725508
43	0xbfba1acf8053b42f	-0.1019715965555441
44	0x3fb77af31482a305	0.09171981096973177
45	0xbf87f5fbc0c28c85	-0.011699644870821988
46	0xbfb1f48f973b49f8	-0.07013795320680305
47	0x3fb3ebdf8829725a	0.07781788896813549
48	0x3f874501dafdbe87	0.01136208962972708
49	0xbfb716f911876f4e	-0.09019428899722223
50	0xbfb23d996628b87f	-0.07125242942922404
51	0xbf2a069e9912414a	-0.00019856153497644697
52	0xbfa25f398bed4af1	-0.03588275750248283
53	0x3fb2e08bb2baec3a	0.07373879540948361
54	0xbfad0ab347112547	-0.05672226183430467
55	0x3fa30c78567271f0	0.03720451407682279
56	0xbfa144c885cf2ee2	-0.033727899870056324
57	0xbfb971049b2405be	-0.09938076770415358
58	0x3fb90f208f44bd78	0.09788707254187112
59	0xbfa63582e99445e8	-0.04337700940426342
60	0x3fbbd96aaa1f23db	0.10878626492843983
61	0xbfb77c3add6208ec	-0.0917393484578814
62	0x3fa6a9586164a215	0.044260751618200235
63	0x3fa3c159bb93d330	0.03858452238811194
64	0x3fb35d3490e90fb0	0.0756409505639215
65	0x3fbc8658a148defc	0.11142496049512468
66	0xbfaa02bd9d42dd93	-0.05080215973560622
67	0x3fb8af7b0f9d86ab	0.09642762309297363
68	0x3fba588ae1be2437	0.10291355143830648
69	0x3fba0792ede450fe	0.10167806919008979
70	0xbfb0ba74811499cb	-0.06534507895830825
71	0x3fa215bcca0996e2	0.035322093642020894
72	0xbfa6d29d8af22d20	-0.0445756179916208
73	0xbfa3bf149f062c9e	-0.038567203914760415
74	0xbfb4a9e5f17e0f8a	-0.08071744104205272
75	0xbfae987d8e8825e4	-0.05975715985193711
76	0xbfb40df397cc1848	-0.0783378835295433
77	0xbfa464c5b94e071d	-0.03983133208295284
78	0xbfaf08264b3fd6f9	-0.06060905140468082
79	0x3faca4613abdc206	0.05594161836677718
80	0xbfb310cc8aa8c34d	-0.07447508225665196
81	0x3fb4469e4f66508d	0.079202551254925
82	0xbfb2b73ba44e5e5f	-0.07310841332798067
83	0x3fb161e6de01ab80	0.06790011329728252
84	0x3fa4567d9a857c75	0.039722371208648
85	0xbfa1be23171bdf0e	-0.034653755732447875
86	0xbfb6b0c1fff53d30	-0.08863461016629937
87	0xbfc1d9b65c160368	-0.13945655342470364
88	0x3fa4935f1590ee02	0.040186854727348745
89	0xbfa0660967414daa	-0.032028478483563674
90	0xbfb248526635e680	-0.07141604419111935
91	0xbfb4c5c96ec24719	-0.08114298776697772
92	0xbf9b0763a7af603f	-0.026395375356372815
93	0xbf96418b284062a0	-0.021734403926617518
94	0x3f94f6b85a00db64	0.020472412579887758
95	0xbfa08acf3d33705f	-0.03230903265077311
96	0x3f9ea6484a65309e	0.029931191960074537
97	0x3fb6ad3b13514532	0.08858079167955138
98	0x3f8935914c6f4153	0.01230920328626498
99	0xbfa3863afeecdf31	-0.03813347207909457
100	0xbfa351421cbe9b2c	-0.037729326256615486
101	0xbfb615797078fe04	-0.08626517291940422
102	0x3faeb5046a2cefb5	0.0599748019799046
103	0x3f9b6db5faac88f0	0.026785701203274337
104	0x3faebda05b8ab182	0.06004048459485302
105	0xbfbf7a9199655bcb	-0.12296400065439099
106	0xbfb3872d74ebd444	-0.07628139595529243
107	0xbfb493dd52b4753f	-0.08038123387492123
108	0x3fb63ac92065d1cf	0.0868344978424098
109	0xbfb2bbbd93546026	-0.07317719313539381
110	0xbfb690c94f8111c9	-0.0881467646696087
111	0x3fb544547c205c18	0.08307388334684196
112	0x3faede71a8c3717d	0.060290862895018706
113	0xbfb156520e2298c5	-0.06772339673134116
114	0x3f814297935c2688	0.008427795586175138
115	0xbfbac9f46c8e7f90	-0.10464408541019865
116	0x3f7970146548b023	0.006210403128118744
117	0xbfb95fb24f366f5d	-0.09911646303083672
118	0x3fb224b17a62dff3	0.07087239492363988
119	0x3f8863ffbe268091	0.011909482946805635
120	0xbfad04c75ae5d733	-0.05667708382217853
121	0x3fb4f1d1b9ec1568	0.08181486882320643
122	0x3fbbfda8842099fa	0.10933926797643059
123	0x3fb93d652cfbaa19	0.09859306667537061
124	0xbfaa36bd1b94f48d	-0.05119887315456948
125	0x3fa78156959f403b	0.04590864731255847
126	0xbf91800594f6b640	-0.01708992692663558
127	0x3fbdd13278655af9	0.11647334517816067
128	0x3f95c817b98791d9	0.021271105479074712
129	0x3faf3b1a9e6e2182	0.06099780258142841
130	0xbf86efa5548a460e	-0.011199275629482332
131	0xbfad0205feae8d9b	-0.05665606244954376
132	0xbfab1fab2456c0b1	-0.05297598665799919
133	0x3fb6c7680a551d56	0.08898020031221185
134	0x3f9c7f70e491662f	0.027829898787194714
135	0x3fb19e592fc878d7	0.06882245461062851
136	0xbfb25ac99d83d5db	-0.07169780822353948
137	0xbfb6f45dc0aa5a3b	-0.08966623262163236
138	0xbfb93585e3d54303	-0.09847294628458418
139	0xbfa1fcb87de25781	-0.035131230704037904
140	0xbfaad44b31aa5ba3	-0.052400922596624676
141	0xbfaedbab0a0cd63b	-0.06026968476946278
142	0x3f9a00fadbc829f2	0.025394363083288192
143	0x3faddd63afe48dbd	0.058329692097938125
144	0xbfb685bb517bef12	-0.08797808398588483
145	0xbfb1730b447f6a87	-0.06816168234164809
146	0x3f67172ae38bfce5	0.0028186643288560125
147	0xbfaaa8f74ac1cad2	-0.052070358157740096
148	0x3f72fc9d6317de99	0.004635443490307666
149	0x3f8bbe6289394f5d	0.01354672414087304
150	0x3fa0c52072ac3752	0.03275395774663416
151	0xbfa73a216d04455c	-0.04536537605066357
152	0x3f925087abbc292e	0.01788532243430401
153	0x3f8d63a2abd1c199	0.014350195759306671
154	0xbfb13cc32b17284f	-0.06733341028226046
155	0xbfbc368052eb409f	-0.11020662330997986
156	0xbf863cffd3c3de24	-0.010858534479196776
157	0x3fa6a0b33417822a	0.04419479380499454
158	0xbfc09d0bf91b348b	-0.12979268706695665
159	0x3fa645cc7abd054d	0.04350127218504927
160	0xbfa9eebe675ea182	-0.05064959537350246
161	0xbf9be5bac3bc9c58	-0.02724353618318917
162	0xbfb2f90b4d953f5a	-0.07411261219135437
163	0xbfad43e5b91e8dbd	-0.05715864071614927
164	0xbf9c9bfb74df5dd8	-0.027938775070507876
165	0x3faf8740cab89406	0.06157877421018303
166	0xbfad4cef453b9a88	-0.05722758979918746
167	0xbfa52139705bd4ee	-0.04126910683218364
168	0xbfaea4a66abc51b4	-0.05984993031430311
169	0x3f877ec9d2966411	0.011472298373336217
170	0xbfbd670a5b8303f5	-0.11485352262663169
171	0x3fbf12a580b5cc52	0.12137827293717976
172	0x3fb428de4bf698ca	0.07874860148021692
173	0x3fa34c1238d13d92	0.03768975204058757
174	0xbfae179faea67a2c	-0.05877398497544947
175	0x3f7e7c382bce8351	0.007442683618962346
176	0x3fb078de6698bc9d	0.06434431080627907
177	0xbfbbe8f0e6f23f2d	-0.1090231479486163
178	0x3fb278477a578d8c	0.0721478151022465
179	0xbfb9325a1edd4219	-0.09842456105730725
180	0x3f9877b608b0c860	0.023894161491803678
181	0xbfb63c26f1677dfe	-0.08685534852656215
182	0x3fa5daa114ed8ea7	0.04268363361805188
183	0xbfbc2dc28359b72d	-0.11007323939130904
184	0x3f95f0ccb0c04cad	0.021426389968905713
185	0x3fb58fe221836139	0.08422673528855719
186	0xbfa7472a0101902c	-0.0454648138263852
187	0x3fa571d2f57cc4f0	0.041884033648225016
188	0xbfa824a5343a49ec	-0.04715458166642236
189	0xbfb9f415471a278d	-0.10138066278355336
190	0xbf9e58c0a6e0f140	-0.029635439095941907
191	0xbfadb095695f2e83	-0.05798785125042818
192	0xbfb9799626bf81aa	-0.09951151319501741
193	0x3fbd01b17acff77c	0.11330708740567091
194	0x3fa696ff5bce5ccc	0.04412076945953344
195	0x3fbdbb7370765bfe	0.11614152427351596
196	0xbfb26b20dbbc2a3c	-0.07194714893936632
197	0xbfbd6fcf3d2a3a9a	-0.11498732798848224
198	0x3fb55db0a85c0b34	0.08346084699955442
199	0x3fb93339652c7b13	0.09843786926328972
200	0x3fbc4e0a7c113520	0.11056581047997271
201	0x3fb02155c6d1bead	0.06300865272509766
202	0x3fa4863c7ccc0ec1	0.040086641534825336
203	0xbfbe49b823fc6b5f	-0.11831236723484782
204	0xbfac00a17c0d49df	-0.05469231261544726
205	0xbfb25fcdded571ce	-0.07177435579564603
206	0xbfba9b3aa1659e85	-0.10393110695224024
207	0x3f9e5b0ad424ba4b	0.02964417381115884
208	0x3fab31ddef1f569c	0.053114829482791864
209	0xbfbb1bf76c99ddaa	-0.10589548493759673
210	0x3f8da699ad4aeb29	0.014477921105358131
211	0xbfbe3121ec0d6792	-0.11793720257756338
212	0xbfbb99bdd87ba4bc	-0.10781466040829718
213	0x3fb8791135be2da0	0.09559733926851388
214	0xbf7b64e22a79d12e	-0.006688006840353018
215	0x3f9d1ed555e937b1	0.028437932365981747
216	0x3fbd5f2cdf95c20e	0.11473350962274528
217	0x3fb5699d2e0ddf0b	0.08364279150361768
218	0xbfb9184c46374af5	-0.0980270072389365
219	0xbfb05c1faca96ed7	-0.06390569653870713
220	0x3fabeb33af7d6aef	0.05452882306300021
221	0x3fb5847070381cc2	0.0840521120045308
222	0x3ecb8c2d3203c209	3.2839256079930088e-06
223	0xbfa5d76f549e6934	-0.04265926273292778
224	0x3fb987dad0d8db57	0.09972922896200252
225	0xbfb3c4ce3479b862	-0.07722176343097112
226	0x3fb2372c87173f9c	0.07115438745608887
227	0x3fb96bef0a3941e2	0.09930318832017052
228	0x3f9a0dbafa989bcc	0.025443002267049583
229	0xbfb634b7de277842	-0.08674191640554432
230	0x3fba22dfcd349ab9	0.10209463844203527
231	0xbf90e44f4510df27	-0.016495932188461595
232	0xbfa0768ff46f8c88	-0.032154558742854056
233	0xbfb97e71eb882403	-0.0995856475857551
234	0x3f8847bd6f91bb80	0.011855583159755545
235	0x3fa3d0d3774981ac	0.038702591239374
236	0x3f9b0b97652eb7f6	0.026411405134858477
237	0xbfa35bcb22d28841	-0.037809703827648374
238	0xbf721100cd305ec2	-0.004410746699271053
239	0xbfa387ec8333d5db	-0.038146391883781404
240	0xbfb1cc375bb61873	-0.06952234257741612
241	0xbfbad8f0f01be618	-0.10487275945697438
242	0x3f8c1daee9ccf78f	0.013728491315869977
243	0x3fb5f1b134f3e479	0.08571918051520012
244	0x3fb9947d4eb23144	0.09992201968470221
245	0x3fb1034745099910	0.0664562743710102
246	0x3fb8f4969ec813f5	0.09748212219717785
247	0xbfbca41656825653	-0.11187877285041141
248	0x3fba3d35224165d0	0.10249645315470635
249	0xbfadc7f9c38d281c	-0.05816631805517167
250	0x3fa50986678f69c3	0.04108829511797609
251	0x3fb832829db32a4f	0.09452072477430672
252	0x3fbbe018ad27a348	0.10888818957722635
253	0xbfb9cd94cbad717a	-0.10079317066760565
254	0xbf9b888faa9711e2	-0.026888127123827384
255	0xbfba8c796b7038e7	-0.10370596764571226

conv2.5.bias f8 [8]
0	0xbf810a9700000000	-0.00832097977399826
1	0xbf96a81480000000	-0.022125549614429474
2	0xbf9cccf280000000	-0.028125561773777008
3	0xbfbd4fef20000000	-0.11450094729661942
4	0x3fb2c5e020000000	0.07333184033632278
5	0xbfa5821b40000000	-0.042008258402347565
6	0x3fbd9d1760000000	0.11567827314138412
7	0xbfb4284280000000	-0.07873931527137756

conv3.0.weight f8 [8]
0	0x3ff001cb4357c9e7	1.000437987383174
1	0x3fefe184505d2e00	0.9962789125069662
2	0x3fefedeb37868f8a	0.9977928242192189
3	0x3ff026c7d0542360	1.0094679010237186
4	0x3fefe5569a1d41ba	0.9967453966183293
5	0x3fefd541aac29b4a	0.9947822890434079
6	0x3fefe2f541fae1fe	0.996454838626107
7	0x3ff02051eaad62cd	1.0078906218606563

conv3.0.bias f8 [8]
0	0x3f6b771b0c9f147c	0.0033526924425780185
1	0x3f78d00cbfc6f430	0.006057786752021108
2	0xbf78ff2e9791aa0e	-0.006102735519656578
3	0x3f8aa02b59d8b939	0.01300081127109519
4	0xbf720f832ecc8e20	-0.004409325058790908
5	0xbf84b672160196bc	-0.01011361245782482
6	0x3f71a1b110256dc3	0.004304591801282456
7	0x3f8c6eb2e71418e7	0.013883016278225259

conv3.0.running_mean f8 [8]
0	0x3fbbe1c4a014cd3e	0.10891369732126052
1	0xbfcff251f8c375f5	-0.24958252569824393
2	0xbfd5130c1ff5120a	-0.3292875587542602
3	0x3fb63aa340457d42	0.08683224028708472
4	0x3fe352452f552231	0.6037927555526662
5	0x3fca212eb6bb983b	0.2041376487970313
6	0x3fd61a58102e24b2	0.34535790996649063
7	0xbf8a46cd19bdfd87	-0.012830355022514407

conv3.0.running_var f8 [8]
0	0x3fc378c59d587133	0.152123166874739
1	0x3fb77be49acd27a6	0.09173420695620269
2	0x3fc9c192eb5d91bc	0.20121990673500345
3	0x3fbea7c15fa4151e	0.11974724373802245
4	0x3fcb00075c013d69	0.21093837730812062
5	0x3fc01f8e002dde34	0.12596297272442458
6	0x3fc0b23e5de54962	0.13043956360577186
7	0x3fab6f8ba2fa0a61	0.05358539928876805

conv3.2.weight f8 [16, 8, 3, 3]
0	0x3fc02bd7d2f9389b	0.12633798409882932
1	0xbf7e4c73ee4405d5	-0.00739712987365367
2	0x3fb3ef7c5438b348	0.07787301117123235
3	0xbfb7fa0039c11043	-0.09365846071256194
4	0x3fb493ba879f250b	0.08037916003299388
5	0x3fa711cd32f9f2c3	0.04505769011755014
6	0xbfb847d70f15b86c	-0.09484619253427845
7	0xbfb787d6c620ce10	-0.09191648804772279
8	0xbf963579573f2974	-0.02168836207401044
9	0x3fa78a0d2cdbb013	0.04597512409768014
10	0xbfb875279cbfdeab	-0.09553763939754371
11	0x3f912c55a470f7b6	0.01677068535013123
12	0xbfa23e907d85396b	-0.03563357860785995
13	0xbfa9ed3fc143e2f6	-0.050638191549245024
14	0xbf8b5eb52ec0e9df	-0.013364234437280352
15	0xbfa9375a315fb749	-0.04925042965611099
16	0xbfb890befe3b932d	-0.09595864970067387
17	0x3fb41049920d52be	0.07837352576945997
18	0xbfac07bb822b2adf	-0.05474649394962738
19	0x3faaa876b36ec2df	0.052066525844002724
20	0x3f9ddfc8d34258b5	0.029173982519375048
21	0x3fbc43eae278a636	0.11041133908352027
22	0x3f90d68e65b487de	0.016443467099754965
23	0x3fb2af29a30dfa55	0.072985269840481
24	0xbfa32a6043219f15	-0.03743267840837753
25	0x3fb24279c0452eed	0.07132683700654825
26	0x3fa4a7fe0418459a	0.040344179153304086
27	0x3fa4a0be92089730	0.04028888256679719
28	0x3fa47de51b79306f	0.040023002246557186
29	0x3f744b93e222919e	0.004954888982102194
30	0x3fb8a9928f67f570	0.09633747101903167
31	0xbf783031b4b997e1	-0.005905336536306622
32	0xbf8377a8211bdf02	-0.009505570898439956
33	0x3faa27df11c307e8	0.051085444372361455
34	0x3fb6566542bcc99d	0.08725579146702107
35	0xbfb938ed409b7d7d	-0.09852488353089046
36	0x3fb9e292e4e24185	0.10111349189742753
37	0x3fb16aa3ff608f8d	0.068033456657359
38	0xbfbc4b0d41295c54	-0.11052019921167872
39	0xbf9550a74811b3e0	-0.020815480970146072
40	0xbf987a5e75380128	-0.02390430059858875
41	0xbfbc98f07c8b3fc4	-0.11170867004989221
42	0xbfa2b1ba0aa168a1	-0.03651219730154876
43	0xbfacb96c9be253ed	-0.05610217478639599
44	0xbfb575fc0bb7d889	-0.0838315514191398
45	0xbfb9a36b73ac43a2	-0.10014983724637586
46	0x3fa1f9e9dafef47b	0.03510981367387785
47	0xbfbcbcfcd5b58cbd	-0.11225872247227904
48	0x3fb5f71fc13c5f07	0.08580206363364705
49	0x3f820f2b1215349b	0.008817993630737589
50	0x3f6965343d4b8152	0.0031000156690056757
51	0xbfa120ff5a234c5e	-0.03345487571063964
52	0xbfbbb33e3acb4fcb	-0.10820378241925181
53	0x3fa630250424ab80	0.04333606410576518
54	0xbf8e763ee3cecd29	-0.014873973204748996
55	0xbfb1ed5cd2fc8e13	-0.07002811575926442
56	0x3f774960a3131540	0.005685212601013234
57	0x3fb79fd59a15453c	0.09228262912553914
58	0x3fbbd906d2ba45d8	0.10878031391828047
59	0x3fa1198a1d326881	0.03339797598273809
60	0x3fbcf819844c26c2	0.11316070060652364
61	0x3fac94abba0031db	0.05582176824109172
62	0xbfb07e14f46cd434	-0.06442385642442688
63	0x3fb46fdcd7a251ad	0.07983188881400478
64	0x3f9574ef27fc390c	0.02095388108778544
65	0xbf6574425f30a7e0	-0.002618913300030265
66	0x3fa9cc0b6c9c00cc	0.050384861953718024
67	0x3fb0331ab6df5605	0.06327979054125173
68	0xbfb9eb977b2e6332	-0.10125109441140692
69	0xbfb5baa512d0f9f4	-0.08487922391302744
70	0x3f951d93f59685f1	0.02062064348650056
71	0xbfa77d81b567465f	-0.045879414934131495
72	0xbfbca451ff007de3	-0.11188232875473818
73	0x3fa32fe6c8dbea22	0.03747483446018786
74	0x3f95e90df99af8d0	0.02139684520693025
75	0xbfa73c829fdd4b7c	-0.04538353158445482
76	0x3fb22b121390d8b6	0.07096970536881284
77	0x3fa3b7a87ce44793	0.03851057552868933
78	0x3fb94c2f01145975	0.0988187196383928
79	0x3f93dd235f6ae1c5	0.01939826269037483
80	0xbfae1a3e8c6ff166	-0.05879397835085136
81	0xbfa9fd1cdd02e9de	-0.050759222010544156
82	0xbfb07be5b74fa185	-0.06439052319877277
83	0x3f8b785a68d57c96	0.013413149189260214
84	0xbfb2e7ba59cb8f23	-0.07384838764442896
85	0x3faf36afb6e5eedf	0.06096409900325538
86	0xbf930047a04703b7	-0.01855575481181734
87	0xbf949e2015167d86	-0.02013445023260154
88	0xbf9ee14f7a666d5b	-0.030156366201123812
89	0xbfa31c6da76eea15	-0.037326265991812026
90	0x3fb02412d8f8fb5b	0.06305043980772267
91	0xbfbb9e1624f6a628	-0.10788095858028923
92	0xbfa61eb76d1532d4	-0.04320309835984451
93	0x3f9ceb5467f4c2f0	0.02824146160600355
94	0xbfb2ab9794ec826a	-0.07293078790508792
95	0xbf9c40b6ea31784a	-0.027590616268178082
96	0x3fa4f65d754d1062	0.04094211632630686
97	0x3fa210568c8dfb83	0.03528089967493655
98	0x3fb43f814fbc6980	0.07909401127509419
99	0xbfae22b48ae0fbdf	-0.05885852999971752
100	0xbf982474579744ec	-0.023576562734722126
101	0xbf825b13182d39e6	-0.00896277349025083
102	0xbfb80a3197a1b7b8	-0.09390554382272753
103	0xbfa6c2becc5bf7ce	-0.04445453877086401
104	0xbfb010a1796a703f	-0.06275376524212194
105	0x3fb286da6f4dd817	0.07237019746193628
106	0xbfa08d86a5242e3e	-0.03232975736508735
107	0xbfaf5afd580294fa	-0.06124107074109904
108	0xbfbe9f17b65d8cc4	-0.11961506082802759
109	0xbfb67a58eec445a7	-0.08780437306656684
110	0xbfb469886e624c6c	-0.07973530478402474
111	0x3fb7f8ba41d4854f	0.09363903147870654
112	0xbfae8aa2fff7046b	-0.059651464219776816
113	0xbf81457ff03c4189	-0.008433341521169495
114	0x3fb84dcad5fe6266	0.09493701672034546
115	0xbfad4fc72e0966f2	-0.0572492831895043
116	0xbfa232754bc9543d	-0.03554121542098485
117	0xbfa9059f37854768	-0.048871017005366835
118	0xbfa24ad2b32130f4	-0.035727104536450144
119	0x3fab37b69173b907	0.053159432654739595
120	0xbfa2c5d3f74d0911	-0.036665557802296196
121	0xbfb3cd42a9358db5	-0.07735077506145312
122	0x3fbaec266c829380	0.10516586445971932
123	0x3f9c190934055902	0.02743925457010566
124	0x3fb016add14e62b4	0.06284605369581692
125	0xbfaeb1a31e4057a0	-0.05994901413229958
126	0x3faffbda870d721c	0.06246836565580713
127	0x3fb38aeb9eecd98a	0.07633850698480252
128	0x3f97b881e2252254	0.02316477721004369
129	0xbfb1769fe1199967	-0.06821631665807147
130	0x3fa75a7a70b25ef5	0.04561216951077355
131	0xbfa662bc56740b62	-0.043722043565159976
132	0xbf9517ee8f2493c1	-0.020599105345485706
133	0xbfa1c6e7c595272f	-0.03472065245530442
134	0x3f86636cf3065a64	0.010931826750305969
135	0x3fbdb9364df1bd7b	0.11610736277520133
136	0xbfa074dc49a8d4a4	-0.03214157485164407
137	0x3fab758396ef6d0a	0.05363093583556562
138	0xbfbe5b3e97dc091e	-0.11857978065021199
139	0xbfba8c90b3a36fe4	-0.10370735536292802
140	0x3faeb8008b02bdde	0.0599975747767265
141	0xbf94b87ae7b6af72	-0.020234985726048156
142	0x3fa883093080e0a4	0.04787472455103739
143	0xbfb581ef12d9b767	-0.08401388368812733
144	0xbf9c415d7afbeefc	-0.027593098288874338
145	0x3fad62cd2d6b1f55	0.05739442042755508
146	0xbfa685d7a101b837	-0.0439898857156184
147	0x3f86c127eb622a63	0.011110603209336383
148	0x3fae7587a67e76d8	0.05949043185613129
149	0xbf9b19c2bd34b26f	-0.026465456770142056
150	0xbf94bf00226b0899	-0.020259859181131466
151	0x3faa8872c0a9ed24	0.05182226755001754
152	0x3fb354449fc48d27	0.0755045785959295
153	0x3fb63ee1198ef48f	0.08689696191773265
154	0x3f7a7343c3c5e7a9	0.006457581239709778
155	0x3fbcc959648e28f2	0.11244734482730559
156	0x3fbba22d0f8057c5	0.10794335964632669
157	0x3fbc6c1c524aee27	0.11102463730906519
158	0xbf69dcf15e4e3d62	-0.003157111570949376
159	0xbfad1f96ae79e5fc	-0.056881626890525866
160	0xbfa3495b0a3e7952	-0.03766903400468159
161	0xbf7623f9391b05b9	-0.005405400779353747
162	0x3fb960bfa987093f	0.09913251770834551
163	0xbfb91c340c692708	-0.09808659842488165
164	0x3fb569266686a018	0.08363571169923067
165	0xbf957a99f5b6f053	-0.020975499746541292
166	0xbfb6494e43c430d5	-0.08705605654194255
167	0x3fb4fd6582a6a1b2	0.08199152412146907
168	0xbf80beb2f1689f91	-0.00817622946949806
169	0xbfb3ca5dd63e2765	-0.07730661850487548
170	0xbfbc4e630aa7df02	-0.1105710888876921
171	0xbf798ae3b85af46c	-0.006235971004284396
172	0x3fa9db451f1510b0	0.050501022381042815
173	0x3fa55c82f6cdf65c	0.0417214323306154
174	0x3fb8c7fe551c255d	0.09680165841941375
175	0xbfbf990653159d38	-0.12342872169903252
176	0x3fb099bbc18a14f0	0.06484578585703438
177	0x3f69594e6525db4e	0.003094342341849388
178	0x3f90ea1a95dc02f8	0.01651803531331361
179	0xbfb99732b96657f7	-0.09996335054742632
180	0xbfb44270ac4e19f1	-0.0791387959162433
181	0x3faaab72a708c035	0.0520892933749341
182	0x3fb1e86efc5391fc	0.0699529043227542
183	0xbfb084be8b74eea6	-0.06452551750856603
184	0xbf7397dbe5b82968	-0.004783495878209677
185	0x3fa7319165eeb2c3	0.045300048535272384
186	0xbfa635fb2c81b4dd	-0.04338059347433341
187	0xbfb7c48550174467	-0.09284241872161801
188	0x3fb097113ea26ba7	0.06480510501061919
189	0xbfb4db53b6b3a9dd	-0.08147166452878403
190	0xbfb51974de6ec8a5	-0.08241968565451659
191	0x3f9afaccb73d4b96	0.02634734981922867
192	0xbf90937588422644	-0.01618751186518909
193	0xbfb00d65df8727e4	-0.06270443637109185
194	0x3f83a28acfb65fa0	0.009587368453864376
195	0x3fb7e8387e626a7e	0.09338715634877734
196	0xbfb1d5af6eb59802	-0.06966682865967758
197	0xbfbdfbfc37437abc	-0.11712623929222848
198	0xbfa21e6eab7023b5	-0.03538843004941531
199	0xbf850cfafbd74628	-0.010278664408278251
200	0xbfbf5e3b69d6f52b	-0.12253161748863721
201	0x3fb6e51227b2526d	0.08943284482149645
202	0x3fb8c79b3ae65ef2	0.09679575145707611
203	0x3fb8cc1e3e2e95e0	0.09686459558596239
204	0x3fb43e996b890d16	0.07908018947005177
205	0x3f98e8d2f5e0a9ae	0.02432565332143504
206	0x3fb019ec7d52b0f5	0.06289556560176719
207	0x3fab9a6019b9b192	0.05391216577558845
208	0xbfbdd0a4865172b7	-0.11646488456012603
209	0xbf71dada18ae388a	-0.004359104098410902
210	0xbfbf5bc76c0e8ca9	-0.12249418628793997
211	0xbfbc71b61b87b4e6	-0.11111009761926346
212	0x3fb000ed6aabd636	0.06251415113714462
213	0xbfa9b94a1b68b818	-0.05024177155097237
214	0xbf9235c1a78671b8	-0.017783189630436985
215	0x3fb43512f60190c7	0.07893484598168064
216	0xbf89a62abf4d4da0	-0.012523969615051922
217	0xbf828b999b4fd265	-0.009055328418960682
218	0x3fbdaabe2e38789b	0.11588657978470211
219	0xbfb8910b17f5d860	-0.09596318564385475
220	0x3fc0fe8d606ac75f	0.13276831825128974
221	0x3f7657338697c30c	0.005454255363915871
222	0xbfa9ed135ccf983b	-0.05063686855264434
223	0x3fbd33e8ae712eb7	0.11407331713524625
224	0xbfb87e827be5bf5c	-0.0956803848728191
225	0x3fbe5b334ed956e3	0.11857910800003028
226	0x3fb1a47058850485	0.06891538773654034
227	0x3fb8157aeaf83054	0.0940777610450721
228	0x3f9fb31b51e0427e	0.030956675407710403
229	0x3f92888e5d3b076a	0.018099045219748623
230	0xbfa5dd11e2190a3a	-0.042702254152136424
231	0xbfb83ec085c4d3e1	-0.09470752015916119
232	0x3fb242712d4cbf80	0.07132632595016553
233	0x3f867d88c782c9d9	0.010981625164593932
234	0xbf8a0af0ffee802c	-0.01271618157426254
235	0xbf86dd90632cbdf5	-0.011164787317823313
236	0x3f9726ebd5b228f8	0.02260941020771498
237	0x3fb498811f19c46e	0.0804520321778612
238	0xbfa1294bf4510bcc	-0.033518193792154344
239	0x3fb2f5001250e2f9	0.07405090758483003
240	0x3fb220badb8ae71e	0.07081191883017054
241	0xbfb568b67e7d4614	-0.08362904155844603
242	0x3fbc3868e1f6cbe3	0.11023574368191151
243	0x3f985eead7e68a5f	0.02379958098175405
244	0x3fa916661ec62db5	0.04899901509915187
245	0xbfbc3fad69d9899d	-0.11034663995955048
246	0x3fb3a7080e5dd93e	0.07676744795557952
247	0x3faa31ded8047cde	0.05116173159535163
248	0x3f91dd184cfd973d	0.017444972705013873
249	0x3fafefee9494aeb4	0.062377410542777595
250	0x3fb246b65edc837a	0.07139148536636056
251	0xbfbb3ca1ee4c7afb	-0.10639392917481054
252	0x3fb7dd3466cd592d	0.0932190657598297
253	0x3fafd84ef24ab87e	0.06219717700638315
254	0xbf9448826f548f9a	-0.019807851834357494
255	0x3f91326857f59f5e	0.016793852203960007
