Coursework2/networks/Weights/MTLk4lr001ep8v2.pt (torch, 336621 bytes, 100 tensors)

conv1.0.weight f8 [3]
0	0x3fee1d9bc6aa838c	0.9411143188664126
1	0x3ff0817c42eccf77	1.031612645555439
2	0x3febe0de65cfc769	0.871199797488072

conv1.0.bias f8 [3]
0	0x3fc920178f6ccf29	0.19629187110114657
1	0x3fc01a31af7592cc	0.12579937999102808
2	0x3fd4adc9973e2f8f	0.3231071450215887

conv1.0.running_mean f8 [3]
0	0x4057533ffa5d9b21	93.30077990666588
1	0x4055edcc28360949	87.71558575894336
2	0x40535c2a66b00921	77.44008795920355

conv1.0.running_var f8 [3]
0	0x40b895b5687c013e	6293.708625555328
1	0x40b72bb00b33f8a4	5931.687670944408
2	0x40b5e8f3352ba13e	5608.950030066362

conv1.2.weight f8 [4, 3, 3, 3]
0	0x3fa02f6fc906e666	0.031611913003371225
1	0x3f9b9f7fc0663f9d	0.026975628011825504
2	0xbfc4865ce90bffee	-0.160350431244296
3	0x3fbbc5ac0c0e5190	0.10848498625120429
4	0x3f9f2517d4a28e20	0.030414936402520465
5	0xbfc0143f4d29f319	-0.1256178976799667
6	0xbfafedb343944d34	-0.06236038398687996
7	0x3fd2cffd47e29932	0.29394466419252574
8	0x3fc061decd856ce5	0.1279867652436685
9	0x3fb6370e7eedddd6	0.08677759741646382
10	0xbfc373ba0c8a0c84	-0.15196920025127636
11	0x3fcace3f7c9e219f	0.20941918930863054
12	0xbfb7175290b1a217	-0.09019962341847819
13	0x3fbc766a971dc99f	0.11118189038624003
14	0xbfc051d2d5e718b1	-0.12749705738514686
15	0x3fc4fe7297bb216b	0.16401512535800164
16	0x3fbffffe4761e0cd	0.12499989741070579
17	0x3fc181b7e271d06a	0.1367711883245904
18	0xbfc3892d202d0a32	-0.15262378760424294
19	0x3fc3266c709a7b97	0.1496100950070882
20	0x3fb6f4d5e7bad808	0.08967339427439935
21	0x3f09be9f0f8e0140	4.910395541113605e-05
22	0xbf9e34f1cb242e35	-0.029498842262041875
23	0xbfc20b59d75ea303	-0.14097140327546506
24	0xbfc703494d762756	-0.17978779108335158
25	0xbfb9e7837e224262	-0.10118886784972284
26	0x3fc92bc4f95d569c	0.1966482369995689
27	0x3fb8a5c3069c8b02	0.09627932464040259
28	0x3fbb97a2a725f2ba	0.10778252201812225
29	0xbfc289c7aa1847b1	-0.1448297100583296
30	0xbfc217d342a7fbaa	-0.1413520884961746
31	0x3fbbb4d4ebdc33c7	0.10822802313141643
32	0xbfca449f9fa9254e	-0.20521922393735753
33	0xbfc47acc13441787	-0.15999747219774127
34	0xbfc0834bc1112904	-0.129006833334934
35	0x3fc10db5e8914cea	0.13323091369475232
36	0x3fc4b5cb0444cddb	0.16179788311420293
37	0x3fc1e1323b07b465	0.1396849430306332
38	0xbf95bf89e8ea6da5	-0.021238474694298088
39	0xbfc79c9f3a073937	-0.1844672234860327
40	0x3f9580148ed2cb48	0.02099640008664075
41	0x3fbe3125a8be0505	0.11793742532428915
42	0xbf94153321ccde37	-0.019612120569233418
43	0x3fd1950a7cc36e8e	0.2747217386620172
44	0xbf8a27bbc29b6c10	-0.01277109801906387
45	0x3fa2e0254ba3f590	0.03686634586663751
46	0x3f9316db9f1d6d18	0.01864188345585402
47	0x3f9887d42355a44f	0.0239556452337733
48	0xbfc1aaebfce39691	-0.13802862022491927
49	0xbf9e9cf1f91d4cac	-0.02989557345365472
50	0xbfb46d2c645d364f	-0.07979085398002293
51	0x3fc532b9f918f20b	0.165610548619853
52	0xbfc12eeac3dc07d2	-0.13424429477168914
53	0xbfc9aed18c7fa50b	-0.2006475387600307
54	0xbfc2ef7bfe5ee1b9	-0.14793348236504558
55	0xbfb6d46c14a120fb	-0.08917880538604443
56	0xbf87aed0d94c8742	-0.01156390345710501
57	0x3fa305b4b1cb8e25	0.03715290708876421
58	0x3fba9db51654414a	0.10396892352242051
59	0xbfa2a643139eb26a	-0.0364247285318456
60	0xbf81853ddffb953d	-0.008554919622336338
61	0x3f9fc21b447d1f57	0.03101389508745397
62	0xbfabca719939f36d	-0.05427889819563956
63	0x3f98ff6b199524fa	0.02441184371608516
64	0x3fa4ebb385eba587	0.040860757920948614
65	0xbfc9ed6ae0273733	-0.20255790657977854
66	0x3fa785996a4a87b3	0.045941156601898035
67	0xbfb438c96dfa9d11	-0.0789914983275717
68	0x3fa07ddd9316853a	0.03221027775294734
69	0x3fa4b50422047783	0.04044354357959803
70	0xbfc0dd233547b097	-0.1317485819012105
71	0x3f85c24092e6b67c	0.010624412997312087
72	0x3fadf40077898cdf	0.05850221118159892
73	0x3fbc4abb6c479edf	0.11051532167004606
74	0x3fb80dea47c7cdb7	0.09396232845738593
75	0x3fa5bbf8fba8d87e	0.0424497420503238
76	0x3fd1912f94ad284b	0.27448644179515175
77	0x3fd449de046634d9	0.3170084994279257
78	0x3fcf7fbc55c55024	0.24608568370843031
79	0xbf8abecb076101b7	-0.013059221422850749
80	0x3fc11728aee517c3	0.13351925411023843
81	0x3fc40aaedd8d4694	0.15657602136575532
82	0x3fbb507c71fb9097	0.10669687063961174
83	0x3fcc9bf91de822af	0.22350992164890246
84	0x3fd00e56efaa600a	0.25087521939121926
85	0x3fc7249cc7edb626	0.18080482256066083
86	0x3fcf0a1d9e08b603	0.24249620644097555
87	0xbfc39c4a6678ceaf	-0.15320711139212537
88	0x3fbd57c7d9a33307	0.1146206766454264
89	0xbfc1ebd47e63ad39	-0.14000946208339274
90	0xbfc28b633086bfc4	-0.14487876767588947
91	0x3f97c896875eb81d	0.02322612000687495
92	0x3f975ab410fd822f	0.022806943451884883
93	0x3fa9bd39ea874044	0.05027180660147271
94	0x3fba9fb18acea84f	0.10399922980164543
95	0xbfb0ffe41c1a264a	-0.0664045876129872
96	0xbfc70a9507958155	-0.18001044149697046
97	0xbfb81fec65bdfb5c	-0.09423711284578701
98	0xbf3e8d3429a5fe4c	-0.0004661800718608097
99	0x3f93b8d58f08b842	0.019259774069887443
100	0xbfc3575d1d1a150c	-0.15110362931242383
101	0xbfb8a37fbdab423b	-0.09624479656782452
102	0x3fc122af4f5c1fd4	0.13387099623673626
103	0x3fc11d4f0b520f4b	0.13370693257103947
104	0x3fc2eb9ea6355c8f	0.14781554332396182
105	0x3fc4e82ecfe7f2a4	0.16333565856611643
106	0xbf995a3f0ade6072	-0.024758324659700688
107	0xbf94c29442119469	-0.020273510487090727

conv1.2.bias f8 [4]
0	0xbfbcabcd771e5da1	-0.11199649961633053
1	0x3fb9412e7bf60f4e	0.09865084196468141
2	0xbfa54f42002f8c90	-0.04162031414286915
3	0xbfa18794016ff53a	-0.03423750417276002

conv1.3.weight f8 [4]
0	0x3fee7039825e9525	0.9511992975500659
1	0x3ff12f7a57e41944	1.0740912850611304
2	0x3fed1a51be2fdbb3	0.909462806185607
3	0x3ff03101dd24fad4	1.0119646681265992

conv1.3.bias f8 [4]
0	0x3fb8d1e2ef1098d3	0.09695261322540043
1	0x3f9ebda472202a86	0.030020303216625986
2	0xbfae224144839d0f	-0.05885509454111048
3	0x3fb33aa820161867	0.07511378081662344

conv1.3.running_mean f8 [4]
0	0x3fc639c2da05726f	0.17363773007936653
1	0xbf7f54b0592945c3	-0.00764912496613718
2	0x3fdb0932abba5fd0	0.422436397269391
3	0x3fdf0079f1e43aed	0.4844040739271083

conv1.3.running_var f8 [4]
0	0x3fc1e563205dc882	0.13981284218204243
1	0x3f9b14094aeda83a	0.02644361991716713
2	0x3fd98a3c9731ec64	0.39906229748857514
3	0x3fd90b8ad7295110	0.39132948886732866

conv1.5.weight f8 [4, 4, 3, 3]
0	0x3fbf7d9be3842381	0.12301039032548823
1	0x3fb0322b7da70c7f	0.06326553170861081
2	0x3fa72b8f94f51f72	0.04525421803788178
3	0x3fc0495bbaf3bd0f	0.12723871830483133
4	0xbfa203b827acdcc1	-0.03518462642971932
5	0x3fa4970d27208225	0.04021493055939044
6	0x3fb09d961fd01a36	0.06490457798654678
7	0x3fc3372261b62c1e	0.15012006541323414
8	0xbfafde4673fa22e9	-0.0622427002500155
9	0x3f7ced6daac0f31e	0.007062366854424322
10	0xbfc21a768ca935d3	-0.14143258922778887
11	0xbfc3f87768073ede	-0.15602009372241005
12	0xbf9c66e5bfeca298	-0.027736272658474975
13	0xbfc2f70066ff4ce5	-0.14816288975871497
14	0xbfc1af51f112c7c8	-0.1381628443828602
15	0xbfa0f7515a325675	-0.033136884937602064
16	0x3fb63b8932961b2d	0.08684594616907466
17	0xbfc7db35c6278a1c	-0.186377259974578
18	0xbf96920068b5cb83	-0.022041326895713375
19	0xbfc08b4e27080bf2	-0.12925125985938696
20	0xbfd0bd11298d0043	-0.261539736344279
21	0x3fc2e8888ebd4992	0.14772135705659345
22	0x3fb6a4547d2e362a	0.08844497734227078
23	0x3f8f589ba16eeeb2	0.015305724968008281
24	0x3fb23fb8bc24d81c	0.07128481477124676
25	0x3fc2a6f8d67becee	0.14572058174949326
26	0xbfbe116db17555aa	-0.11745343763808216
27	0x3fb397ab004eb1a6	0.07653301961426581
28	0xbfc6960208285f90	-0.176452878936058
29	0xbfcc03b72871b861	-0.21886338686767018
30	0xbfafe195ec8374c0	-0.06226795684936226
31	0xbf91f365715c7f86	-0.01753004555132478
32	0x3fb677cdbd96715c	0.08776555899243504
33	0x3fb0e8a7910185b7	0.06605002680000537
34	0x3fbf7131d009c2c4	0.12282096222930777
35	0x3fb26a6ddf6923b8	0.0719364805637629
36	0xbfa5804a9524ee6a	-0.041994410234534055
37	0x3fc11216b955e402	0.13336452531419246
38	0x3fb4dde1682cda21	0.08151062768306662
39	0x3fc15b9d606189a5	0.13560836034873805
40	0xbf99fac67b7a8b9d	-0.025370694433728514
41	0xbfc252fc4594a118	-0.1431575145482007
42	0x3f98a5562b440079	0.024068209067082045
43	0x3fc7d735f4197b55	0.18625521105692636
44	0x3fc1f321253a8064	0.14023222272681146
45	0xbfc92a5e9b02d60d	-0.1966055161371262
46	0x3fc310dd9318032b	0.1489521949988782
47	0x3fc6c2115480ed59	0.1777974760642376
48	0xbfb8f01948c7890e	-0.09741361643640209
49	0x3f7d1507312a01c2	0.007100132078108281
50	0xbfa7162cfebf557f	-0.04509106263837292
51	0x3fc366ff5f123556	0.15158073560852853
52	0x3fb47077461e1851	0.07984109365324456
53	0x3fd189649b1f3e8e	0.2740108027328255
54	0xbfc8030ca671b05a	-0.18759306075242216
55	0xbf94820dbcf3f2b9	-0.020027365358134406
56	0x3fbac7b5c126b77f	0.10460983243566878
57	0xbfc4c224b21af195	-0.16217478462739324
58	0x3fc375ea73bd5640	0.15203600550982976
59	0x3fbfa951731b5bdc	0.12367734012819603
60	0xbfa5b740f1e37064	-0.04241373970737142
61	0x3fb4a8f4c0d27ec8	0.08070306499075308
62	0xbf956eef86bd085c	-0.02093099841955169
63	0xbf799fbcaba53d07	-0.0062558526936549235
64	0xbfbe5e398d292565	-0.11862525650317009
65	0xbfc5844c9349d068	-0.16809994880498214
66	0xbfa9b853f4e4c337	-0.05023443569587587
67	0xbfb0fb317d7127ce	-0.06633290588902627
68	0x3fc49fa288415c43	0.16112167027560717
69	0xbfbdb94a9fb8a8e1	-0.11610857390829522
70	0x3f85b6402d6f3c0a	0.01060152186064835
71	0x3fb79e6e6db8d7d2	0.09226122072945422
72	0xbfa6613439b045fa	-0.04371035770612859
73	0xbfb89b7a2aec5f23	-0.09612239406521587
74	0x3fa18f57df4baaff	0.03429674721504305
75	0x3fb1517f560e81cb	0.06764980174057837
76	0xbfcc2eeba0f370b5	-0.22018189772541566
77	0x3f93c17c206d0b46	0.019292773703692555
78	0xbfc0818bf1d5d0a8	-0.12895345028267013
79	0x3f871703ba1baa1e	0.011274365536754035
80	0xbf70a683e9933042	-0.004065051348515482
81	0x3fb1147807a87f83	0.06671858012168567
82	0xbfb26ead76f1f1ec	-0.0720013060944848
83	0x3f51b435e7e3013f	0.0010805632041837735
84	0x3fc470be28f26645	0.15969063758238825
85	0x3fbc8d3894732cc3	0.1115298616816061
86	0xbfcea95845393acb	-0.23954299335533444
87	0xbf95cbb78bbea2cc	-0.021284931091630807
88	0xbfb397f8a6d55621	-0.076537647944257
89	0xbf84803160ef37fa	-0.010010133524612986
90	0x3fc1ed4ca4a3d76f	0.140054302588108
91	0xbf9b3dd99e1ac344	-0.02660312678807776
92	0xbfc5c77a063108b3	-0.1701500444633602
93	0xbfbf93e00a503ffc	-0.12335014583391052
94	0x3fb78a31e0371cad	0.09195243572240726
95	0xbf800ac8b7dbceb6	-0.007833068953437699
96	0xbfb32c8d6b96985f	-0.07489856602350774
97	0x3fa1b43fa2af5d80	0.03457831250096444
98	0xbfd0f76501a5d4b2	-0.2650997654048509
99	0x3fbfa55fd014e6dc	0.12361716108435011
100	0xbfb0f1e627258ab2	-0.06619108634689999
101	0xbfb3c7b3ea624a7e	-0.07726597282661804
102	0x3fc4de2a6fe34124	0.16302996123568747
103	0xbfa4f856a992876e	-0.040957172584298415
104	0xbfca299c0a3d49df	-0.20439482212039103
105	0xbfbfd2c3718c71f9	-0.1243097450464531
106	0xbfac84c0ea9f20a7	-0.055700329437571576
107	0xbfb8742c60744eda	-0.09552266459314343
108	0xbfc43b2667b94e62	-0.1580551153625605
109	0x3fad0b18dfa64774	0.05672528963181281
110	0x3fc149822c41ce86	0.135055801019565
111	0x3fa487d8dcaeaf79	0.040098931254163035
112	0xbfa71c88d45175d3	-0.04513957587981179
113	0xbfc2381e14567100	-0.14233757012414827
114	0x3f8696556105a83d	0.011028925917987315
115	0xbfb65db1f556edbd	-0.0873671745275066
116	0xbfbe27da08686e0c	-0.1177955885436221
117	0x3fc3e98e16bb0bf4	0.15556503400702548
118	0xbfcb16e421ef84d7	-0.2116360822392724
119	0xbfc1f04a437ee277	-0.1401455716675348
120	0x3fb7a9a600828643	0.09243237984130652
121	0xbfc633ad43ab1e33	-0.1734520512020353
122	0x3fa02c8369301e8f	0.031589609709098736
123	0xbfcad2e8e8171a5e	-0.20956145603686854
124	0xbfd22805caca5c5d	-0.28369278720623986
125	0xbfa2a220088ad49c	-0.036393166582834285
126	0x3fa60dd5d1762679	0.04307430440810562
127	0xbf8e42836c0029f8	-0.01477530167905615
128	0xbfc040a84474665e	-0.1269731840373422
129	0x3f9d1f0185dd04cf	0.028438590808268324
130	0x3fb62fb1f78cc39b	0.08666527074525592
131	0xbf92a0ebc1bcce16	-0.018191989612388403
132	0xbf99b2bdc483d854	-0.025095906371426516
133	0xbfc40cba9079ebd5	-0.15663845114235522
134	0x3fb5a75ab8f3d33b	0.08458487525406337
135	0xbfc9e2b5ebe9d722	-0.20223115939341435
136	0x3fae48f4cde99762	0.059150362144278615
137	0xbfc5446eba48668f	-0.16615089507904598
138	0xbfc5eebf00339fd9	-0.17134845266195844
139	0xbfa569e36d18430c	-0.04182348925326637
140	0xbfaf22d6a91ad1d6	-0.06081267179743903
141	0x3fc10c602d375331	0.13319017608469033
142	0xbfc1fd700a5da136	-0.14054680353297905
143	0x3fbdc8b12bd9f561	0.11634356804457503

conv1.5.bias f8 [4]
0	0xbfaf54324ad65d6e	-0.0611892429689601
1	0x3fc0c3e0d963c83e	0.13097773184523648
2	0x3fade47725ed0bde	0.058383677844652246
3	0x3fbfb770a34c51f3	0.12389282213946

conv2.0.weight f8 [4]
0	0x3ff15542c0e05757	1.0833156141502138
1	0x3fec1a7f6b513c7c	0.8782345863381944
2	0x3ff169a4ae5f2b63	1.0882918177983008
3	0x3fef92e8ce0c941a	0.9866832756421247

conv2.0.bias f8 [4]
0	0xbf8935a5edd3881d	-0.012309356994993742
1	0x3fbaa76e0fa4ccee	0.10411727792670764
2	0x3f9d76a92a981768	0.028772967552888856
3	0x3fb1f8ee92b432d4	0.07020464975012014

conv2.0.running_mean f8 [4]
0	0xbfbedd7b64089eb3	-0.12056704704502401
1	0x3fe1a716b98c6025	0.5516465782156997
2	0xbfd85a302054a377	-0.38050463826453246
3	0xbfe0be67915c96a0	-0.5232427443595107

conv2.0.running_var f8 [4]
0	0x3fd4745b7fbc6f86	0.3196018931791901
1	0x3fbfc44f74172b85	0.12408920845261491
2	0x3fdff792b8d54212	0.49948566484548096
3	0x3fd071ab183e482f	0.25693776481159863

conv2.2.weight f8 [8, 4, 3, 3]
0	0xbfc064d01d9fc7e2	-0.12807656713954346
1	0xbfab6652298df8ca	-0.0535150218702128
2	0xbfc538545324671b	-0.16578153667142534
3	0x3fc3688a0cee8d3d	0.1516277850288165
4	0x3f9a3e01a77415c6	0.025627160878704
5	0xbfa7dd936c90521f	-0.04661236477128149
6	0xbf9382254eaf7cab	-0.019051154067594094
7	0x3fd13b971ea0b679	0.2692621039485413
8	0x3f9670b8f0e45f71	0.021914376929174254
9	0xbfbc16e8a98bde64	-0.10972456111255152
10	0x3fb8e27a810bfd0d	0.09720578814084409
11	0xbfc367a56d7902f0	-0.15160053105684979
12	0xbfc1448397f8a6fa	-0.13490338249658135
13	0xbfb718506d20b9cf	-0.09021475471738614
14	0x3fb127a27ede08e5	0.06701102826449164
15	0x3fb7e8524360a99c	0.09338869233093877
16	0xbf993a79b06f56c3	-0.024637128251774564
17	0xbf94ab614a46b762	-0.02018501296850362
18	0x3fc813de9cc11c3e	0.18810637144108172
19	0x3fb5ba1183ba4974	0.08487042871482747
20	0xbf9a2707c557c67e	-0.025539513988354738
21	0x3fc6250be346ef82	0.17300556752695334
22	0x3fd25f58aad8efe1	0.28706947979276093
23	0xbfc183f8294f0a2a	-0.13683988587406876
24	0xbfa93f7f8b6a303c	-0.04931257798043062
25	0xbf8f0d064e25dc76	-0.015161561260113237
26	0x3fac782f7a307fd9	0.05560444227762646
27	0xbfa6aa2a1ed238b0	-0.04426700235591008
28	0x3fc8d326816210a5	0.19394379918606322
29	0xbfb09a8c1375a7b8	-0.06485820269668252
30	0x3fc2fd9a46a8f96a	0.14836433839986835
31	0x3fbae0345f0041e6	0.10498359031067359
32	0x3fa09a64cc3533bc	0.03242793076297043
33	0x3f9660eeb85cee54	0.0218541431452038
34	0x3fbbac19ed8c994f	0.10809480714360585
35	0x3fa65b0f3b3c3f84	0.04366347883308122
36	0x3fba845944912eb3	0.10358198093416142
37	0xbfc6b88798be8ba0	-0.1775063987562051
38	0xbfb286626ba85fca	-0.07236304405557728
39	0xbfae4fd483337cf5	-0.059202805534136184
40	0xbfbb7aed1ede1669	-0.10734445575334352
41	0x3fc2ef27d7f709a9	0.14792345090070327
42	0x3fbae153f1ada41c	0.1050007309946896
43	0xbf4ac790291b6b7b	-0.000817246809869373
44	0xbfc135dc0214ea94	-0.1344561586536953
45	0xbfaba6496fa5bc0b	-0.05400304305918987
46	0x3fc04d021a4d6938	0.12735010418220738
47	0x3fc0d44d69f60b56	0.13147895501978252
48	0x3fbddd830d8d9176	0.11666125374683198
49	0xbfba22a1e5eb1c37	-0.10209094870798273
50	0x3fb48d4ef4d792b3	0.08028119542684457
51	0xbf933484358ce738	-0.018755021828133794
52	0x3fc6254bd8a0b642	0.1730131919625127
53	0x3fb7157e147fa39e	0.09017169952825418
54	0xbfaef3d1ab93e435	-0.06045394153074605
55	0x3fc26661948a4ce2	0.14374942543927377
56	0x3f9c7ad112b366e1	0.027812258497624923
57	0x3fc9ca41d46176ad	0.20148489828254892
58	0x3fb455a3d953b72e	0.0794317632277994
59	0xbfc0bfbf44ead1f0	-0.13085165848828195
60	0xbfc436d11be09a4b	-0.15792287694167081
61	0xbfbf7ee8f822ec28	-0.12303024347322433
62	0xbfb39d3803b957b9	-0.07661771860998003
63	0x3fc9775154495f4e	0.19895378699834015
64	0x3fbaf59868f7a918	0.10530998766595123
65	0x3fb0977816fe0381	0.06481123505910881
66	0x3fcd26d86712c442	0.22774796517254187
67	0xbfb096e028f02645	-0.06480217933144512
68	0xbfc36f207245c660	-0.15182881908144719
69	0x3fa75fb15bd81a11	0.04565195318359739
70	0x3fc018564c13fa20	0.12574270930049725
71	0xbfa1ab560f0637f4	-0.034510316213626796
72	0xbf94ad92b8c7b095	-0.020193378952101233
73	0x3f856739db34820a	0.010450794221982047
74	0xbfc30782c3b2c29b	-0.1486667113836305
75	0xbfbe075f3ce68b93	-0.11729998814420943
76	0x3fc752e4013414a9	0.1822171216846631
77	0x3f9d5e0e1fd90c68	0.02867910451301406
78	0xbfc1d45cae5fcb94	-0.13929327501645317
79	0xbfc516f5536513cb	-0.16476313182843536
80	0xbfc2cd5dbc5fe37b	-0.14689227769829558
81	0xbfa7c23ad9f93a97	-0.04640373144922199
82	0x3fb822e28c189990	0.09428230209650779
83	0x3fa0363f632e0507	0.031663876397042094
84	0xbfbebf91f33cc231	-0.12011062801753593
85	0xbfbe4685c0861645	-0.11826358747756512
86	0x3f99fcf75647c8a8	0.02537905181993297
87	0xbfba24890720b61c	-0.10211998390214955
88	0x3fb8541b111c5c0c	0.09503335159057275
89	0x3fa94dc22b621911	0.04942137507991807
90	0xbfc1a189690bded5	-0.13774221066682082
91	0x3fb8ffa79ebbc087	0.09765098214461619
92	0x3fb57f80c89c1de3	0.08397679231358483
93	0xbfaf6cc5f1d0702c	-0.06137674881776464
94	0xbfbc1720890af5b1	-0.10972789140483631
95	0x3fc34bf8d7d8437b	0.15075598277374155
96	0xbfbde6c7a72ab319	-0.11680267173023785
97	0xbfbd8d0f37ca94bd	-0.11543364631741589
98	0x3fa35098a902338f	0.0377242761906934
99	0xbf918be5b1172cbc	-0.017135228093860574
100	0x3f75f31ee5879444	0.005358811082691043
101	0x3faace89408515f1	0.052356995702705585
102	0xbf9168023b49bcdd	-0.016998324268965404
103	0xbfb6c6e63b0b3768	-0.0889724630498826
104	0xbf8df19f179af8ce	-0.014621012599829088
105	0xbfb1cbc5d40960e3	-0.06951557566333437
106	0x3f8c3506dfd0dcbe	0.013773015694921727
107	0x3fc90527e9cf8e32	0.1954698459295386
108	0x3fa5ba28a52c933d	0.04243590370450654
109	0x3fb3419016c105fe	0.07521915965573808
110	0xbf99db4971fca71f	-0.02525057562085131
111	0x3fba2bdb5fe66e13	0.1022317036753793
112	0xbf9c2126b4ffa17a	-0.027470211789393663
113	0x3fc490f857f58582	0.16067413611294162
114	0xbfc8b6d8c1a2fb9c	-0.1930800385943855
115	0xbfc088d8338711ae	-0.1291761638259578
116	0xbfb3bfea1e3a710d	-0.07714713323588658
117	0xbfb2d0ebb8b38e28	-0.07350037822066524
118	0xbf9306171a7e9ac2	-0.018577919952486928
119	0xbfc2e224b5cb06df	-0.1475263488446705
120	0x3faf9d6d991b72c3	0.061747956218572785
121	0x3f9d81e9c527d973	0.0288158918937937
122	0x3fb3550a893db655	0.07551637507068538
123	0xbfc3f0367ab69abe	-0.15576821319446837
124	0x3fba829c2ca6bf91	0.10355545129891498
125	0xbf9e9d44d2652f48	-0.029896807996279834
126	0xbfd00c3503945e58	-0.2507450613934217
127	0xbfb0275bafb0476e	-0.06310055770179954
128	0xbfa931957466462f	-0.04920641942875325
129	0xbfb55d3e48377bad	-0.08345402968505651
130	0xbfb950c9345ce43b	-0.09888894585027767
131	0x3fbd745f21410a14	0.11505693971506786
132	0xbfaca985baa6a028	-0.05598085311368123
133	0x3fcbc6474cb87760	0.2169884800541082
134	0x3fc0f8bf03835c7e	0.13259112998523287
135	0xbfc3b4fc12e754ed	-0.15396071360615995
136	0xbfcbce6286b0ded4	-0.2172358663244639
137	0xbfc4d1d4f7b25495	-0.16265356154022884
138	0x3f75526a0dd56311	0.005205549501021493
139	0x3f966e3f8f5cce28	0.021904938817170955
140	0xbfa2d833c21d1ac4	-0.036805741734999425
141	0x3fb623366d3f9ba6	0.08647480170439667
142	0x3fbcd2d275065796	0.11259188992548128
143	0xbf9273cd70f45812	-0.018019876498407035
144	0x3fc77d2b26aa496f	0.18350734126995458
145	0xbfbd96981a973766	-0.11557913445650811
146	0x3fbf98ee310dad24	0.12342728326409663
147	0x3fcb3dafd36cf265	0.21282003234400118
148	0xbfb23885d38e521c	-0.0711749688619609
149	0xbfa5451f77b74a2a	-0.04154299103142407
150	0x3f924aa15f9f07d0	0.0178628172504956
151	0x3fc172f20762e5c8	0.13632035599384396
152	0xbfc3a468cffae1de	-0.153454877426852
153	0x3fba9d59c582ab6c	0.10396348068267763
154	0x3faf71e1e337c191	0.06141572855620148
155	0xbfae6a4252978498	-0.05940444238854886
156	0x3facaeaa59de7483	0.05602009150536793
157	0xbfadb8c065426be8	-0.05805016742780095
158	0xbf8dd6099595574f	-0.014568400266096097
159	0x3f92b7961c722d58	0.01827845142956383
160	0xbfcdac154433c156	-0.2318140585916903
161	0xbfccd9d46c833912	-0.22539763735262192
162	0xbfc16ea39ebdf329	-0.13618893862794693
163	0x3fa3367bf4514160	0.03752505643263038
164	0xbf924c622690183a	-0.01786950455063894
165	0xbfb72f2430ef7ece	-0.09056307024684004
166	0x3fb56fb07aa3a00f	0.08373549455757277
167	0xbfbb8f7416859d20	-0.10765767621852662
168	0x3f64dc4d88f29742	0.0025464548449062605
169	0x3f9f38621812a47c	0.030488522261894677
170	0x3fc2462ac325dd9a	0.14276632813173934
171	0x3fb6acae644abc12	0.08857240627797605
172	0x3f8b25fd8b34a824	0.013256054697723903
173	0xbf9f9b2674162e33	-0.03086528857742916
174	0x3f8a6632f0c4247b	0.012890241596794852
175	0x3f7dc449a7c00460	0.007267272678292164
176	0x3fbe873f549c916d	0.11925121131623025
177	0xbfb9180c564efede	-0.09802319628851872
178	0x3f6d332ab7189ccf	0.0035644373208644007
179	0x3fcb0927a5b5e05f	0.21121688453036122
180	0xbfc04fd76424e997	-0.12743656530240052
181	0xbfc318a751a6c015	-0.14918986784823632
182	0x3fcb6f1b25ff1520	0.2143281875161529
183	0xbfc1d3309e3b7df3	-0.13925750471297213
184	0x3f7d01aefb03cc9f	0.007081683652575026
185	0xbfb2f14bbd7e58bb	-0.07399438263232387
186	0xbfbf8df751e7a8ec	-0.12325998067504756
187	0x3f9287e9240943ad	0.018096583198999806
188	0x3fc359eeb16c38a8	0.15118201888293936
189	0xbfca0d90652d91d4	-0.20353894176800102
190	0xbf91de341fc98380	-0.017449202003607223
191	0xbfb602429d0dd143	-0.08597198805165811
192	0x3fbff589195f4573	0.12484032506406155
193	0xbfc1995f10db0f64	-0.13749302218468096
194	0x3fc1ea26ba973e6c	0.1399582301223633
195	0xbfab00eff5a9c2f0	-0.05274152635400309
196	0xbfc8404342e10190	-0.18946114316532858
197	0x3fbf387dff716f5d	0.1219557522430796
198	0xbf92adccd4192eb5	-0.01824111980958661
199	0x3f6d28c83b173afa	0.0035594855077997175
200	0xbfc3d24b0328f538	-0.15485513357445213
201	0x3fbba16c383b7a43	0.10793186543330884
202	0x3fc92239899e4458	0.1963569566692367
203	0xbfb7899873848f4f	-0.09194329090365481
204	0x3fbefe9bf09ef96b	0.12107252716575594
205	0x3fc494d59516289a	0.16079206256501238
206	0x3fc7f552d97e7922	0.18717418308092088
207	0x3faa236ce04bfe05	0.05105152357100099
208	0x3fc503f2e55291e2	0.16418300816907477
209	0xbfb03c1ddd50eef0	-0.06341730740762919
210	0xbfc849d9b20cc331	-0.18975373452988145
211	0x3fb6022e987ce72f	0.08597079489564118
212	0xbfb162c93543468c	-0.06791360426293575
213	0x3f8054eb7e22e2b8	0.0079744718426452
214	0xbfc0d633e391c557	-0.13153694736278496
215	0x3fc5f7fce76962ba	0.17163049029729455
216	0xbfc13d78ccdad01a	-0.13468847277329205
217	0xbfc5bb9f71195481	-0.1697882940522142
218	0xbfd079f50290ca8a	-0.25744366884752223
219	0xbfa120409f96163d	-0.03344919155192059
220	0x3fc55443933144af	0.16663403212672764
221	0x3fc257c4308ed614	0.14330341692918636
222	0xbfb3f8d652800f07	-0.07801570429006342
223	0x3fbda1c7d002ef66	0.11574982479481619
224	0xbf81bdf9e4627160	-0.0086631319830352
225	0x3fb25c616fe833ae	0.07172211629968103
226	0x3f95e21b7e700284	0.021370343773016845
227	0xbfa157ce590f4d0e	-0.033873031970552345
228	0x3f9358e8bb5fd68f	0.01889384883539563
229	0x3f9f9452b40a3da5	0.030839245070237848
230	0xbfb7b15af072033e	-0.09254997606514068
231	0xbf881bbe3c968d06	-0.011771665786744833
232	0x3fc117980576e771	0.1335325266534784
233	0xbfc79725a59b6f73	-0.18430014215743604
234	0x3fb5d83e6c2b3464	0.08533086911047999
235	0xbfbae77ffb574395	-0.10509490858318167
236	0x3fa9630571db36d9	0.049583597324824154
237	0xbfc4524d723076a9	-0.15876167369508679
238	0xbfb2c849d07ada1a	-0.07336865749207569
239	0xbfb3d9d29d10f72c	-0.07754246077180643
240	0x3f89ad2293db4db6	0.012537260186411863
241	0x3fa5cec8eabda7e3	0.04259326806534582
242	0x3fae8cbc2c176a76	0.05966747320390635
243	0xbfb3182ca28d86dd	-0.07458762138915227
244	0xbfc2e2cf6ef811df	-0.14754670065316497
245	0xbfc03d8d0a435823	-0.12687838555456307
246	0x3f8bbf767150f792	0.013548779805315356
247	0x3f9d45a5c0f7d8a3	0.028585996535149715
248	0x3fcc584a2f8a9e48	0.22144439050065245
249	0x3fc20f61e86b5ea4	0.1410944352016844
250	0xbfa872e2d89addfb	-0.04775151151755704
251	0x3fba0ebdc640d335	0.10178743448416301
252	0x3fc32fbb3d7b16a2	0.14989414693825603
253	0xbfbcf90a6be0e688	-0.11317505964043495
254	0xbfd0cd9a6926379b	-0.26254902142033537
255	0x3fa842ebfaa44e26	0.04738557276337145

conv2.2.bias f8 [8]
0	0xbfb37e67017ea5ce	-0.0761474970483029
1	0x3fb87f8b5e9066a6	0.0956961732739737
2	0xbfa5961254457678	-0.04216058043196552
3	0xbfb86d9f977935b0	-0.09542272041399857
4	0xbfa14e5796ddccdf	-0.03380082813864659
5	0x3fc0f2cf9d7060de	0.13241000354242421
6	0xbfbbdd648bce93db	-0.1088469353986307
7	0x3fc15adc51b15b0c	0.1355853461161235

conv2.3.weight f8 [8]
0	0x3ff0055142b6d8bf	1.0012981992745578
1	0x3feda1ec6adfd812	0.9260160529509014
2	0x3fedaf5c0d92e70e	0.9276561989892984
3	0x3ff3b5d7115e31e2	1.231894557803678
4	0x3feb66edfed2f7e6	0.8563146569283588
5	0x3feea41b63bbfcbc	0.9575325916229285
6	0x3ff19461bf3a6edc	1.0987260312894511
7	0x3ff197e6bc6de8df	1.0995852814217455

conv2.3.bias f8 [8]
0	0xbf5b420884493465	-0.0016636927768048035
1	0x3fb4e643613156b4	0.08163853762502066
2	0xbfb55f5e2ff3b896	-0.08348644896224963
3	0x3fbf7352d069895d	0.12285344684781792
4	0xbfa4683582e048b8	-0.039857551790320966
5	0xbfbcc7383068e045	-0.11241484815480003
6	0x3fc3bc6d167ef078	0.15418780897551065
7	0x3fbe2e67e89ba1cc	0.11789559773354269

conv2.3.running_mean f8 [8]
0	0x3fd479c5ce2a7693	0.31993241437326353
1	0x3fd5885c165600bb	0.33644773656125054
2	0xbfd6384328bc6a2a	-0.3471839807331515
3	0xbfd7adb086086c8d	-0.3699761685290433
4	0x3fb789b2a5a6549a	0.09194485229666541
5	0x3fc5f71afda09920	0.17160355934283533
6	0xbfd0d03ac23190b2	-0.26270932163448457
7	0xbfb8217782bdf7f8	-0.09426066343254991

conv2.3.running_var f8 [8]
0	0x3fcaf27b5ba8e913	0.2105249593312882
1	0x3fc4ec5b81318928	0.16346305664326022
2	0x3fbff3ed9606e905	0.12481579697388064
3	0x3fb645622f4992bc	0.08699620871045516
4	0x3fc20eaca7747c3f	0.1410728280688733
5	0x3fc666dab3dc7564	0.17501386434825428
6	0x3fb3ce8ac1d8dd0c	0.0773703311214044
7	0x3fbb0aa85fb91618	0.10563137375819343

conv2.5.weight f8 [8, 8, 3, 3]
0	0x3fb7cdbd71a6c9e4	0.09298309349723116
1	0x3fc4ec45db9d0e0b	0.16346047614398204
2	0x3fbd1a52b6d21829	0.11368290866275345
3	0x3fa48efdfa30e988	0.04015344313707475
4	0xbf86dec9e5807724	-0.011167123142566356
5	0xbf90dd07d71089d2	-0.016468164922238966
6	0xbfbf5952df8e4eca	-0.12245672185809578
7	0xbfbe1495be70ec40	-0.11750160121384656
8	0xbfb303406fc284f5	-0.0742683670855689
9	0xbfb883a495a9963e	-0.09575871137493494
10	0x3fbd881cb6e4d93b	0.1153581568258674
11	0x3fbad06b7a6a1785	0.10474273432381949
12	0x3f9432a5f27c2402	0.019724457669358493
13	0x3fb130c263714cbb	0.06715025832936565
14	0xbfc040779c95bf72	-0.12696738382100708
15	0x3f985f4e231b47e4	0.023801060574278568
16	0xbfb24e1e16d06e17	-0.07150447899805844
17	0xbfc91e651831345a	-0.19624007874736799
18	0xbfac35a71d891adb	-0.05509683833638742
19	0xbfb02d8f57999ed4	-0.06319518936799834
20	0xbfc3265a450644ac	-0.14960792894684027
21	0xbf9776531ba383e7	-0.022912310182508746
22	0xbfa4196123d8332d	-0.039256129861405455
23	0xbfb374497e3ffcc1	-0.07599315006517583
24	0xbf99088e8ccfcf34	-0.02444670423933744
25	0x3f8afb48b813a938	0.013174598805978918
26	0x3fbab1e2e62e04d5	0.1042768299066837
27	0x3fa5419a565fbc8a	0.04151613525743254
28	0x3fa23d13b5f9d3da	0.03562223049531328
29	0xbfb51dd18dcb909d	-0.0824862452678325
30	0x3fa036dacf4399d2	0.03166850833968095
31	0xbfb9f93fc62d4d38	-0.10145948971085239
32	0xbfc8df4ffbd32e57	-0.19431495472086865
33	0xbfa434ab8f481590	-0.03946434139292443
34	0x3fa98698915739f3	0.04985501074007805
35	0xbf875bd0775a1f20	-0.01140559066995156
36	0x3fa004d9afc232bd	0.031287005143075565
37	0x3fb9613dfcde533d	0.09914004729791955
38	0x3f94f6543a957e76	0.020470920634919364
39	0xbfc54ab14e302ef0	-0.1663419372347259
40	0xbfc330371865e6e6	-0.14990891162215475
41	0x3fa2eeae4ee9101e	0.036977240688912824
42	0xbfbf2756d07722cf	-0.1216940173100156
43	0xbfaede864afbd1ac	-0.060291477826385304
44	0x3fb92ae9fe5b95b3	0.09831106624513701
45	0x3fa498a99ee4567a	0.04022722305869038
46	0xbfb61bb2d3af5d8e	-0.08636014621821728
47	0x3faa8554860db498	0.051798478473622456
48	0x3f7b4e5ba770b178	0.0066665249096725596
49	0x3faf7a1507c18314	0.061478287884488975
50	0x3f90e50e8ccbfb81	0.016498782485537603
51	0xbfb118351466fc8a	-0.06677562473395163
52	0xbf800e835b4230ee	-0.007840181562891204
53	0xbf917d24daee0882	-0.017078948843398674
54	0xbf9b56287ab7fb5c	-0.02669585465445877
55	0xbf98d16247ea8f3a	-0.024236236228389198
56	0x3fb84ea9981659d6	0.09495029414242792
57	0x3f8c0699cc2c7097	0.013684464972861838
58	0x3fbc9913e075f94a	0.11171077947617394
59	0xbfc4cf9bb9141d2a	-0.16258570229568053
60	0xbfc093e497e5a515	-0.1295133344349685
61	0xbfaf742bcc60edd1	-0.061433190058291516
62	0x3f81c6ce538fc124	0.008679973530860759
63	0xbfb7e05a003620e2	-0.09326708321725932
64	0xbf86c8721ec03f03	-0.011124507487721319
65	0xbfbdf15e6fa4f665	-0.11696424699490533
66	0xbfb552c6ab462a3b	-0.08329431230064525
67	0x3f7c9afea5a6a0e3	0.006983751979000116
68	0xbf79fe7382811a0f	-0.0063461792088390775
69	0xbfb41ad1d85d0e62	-0.07853423626243619
70	0x3fbf3ed51eb14bc7	0.12205249785738125
71	0x3fbd69f8371e07b1	0.11489821763646436
72	0xbfb8ad315cd61dbb	-0.0963927127505632
73	0x3f812b2e59b248f2	0.008383142578427958
74	0x3fb8dc572c9a01f5	0.09711212958246292
75	0xbfb31fbd1e93ad25	-0.07470304485803021
76	0xbf9086532fa93f2f	-0.016137409004215172
77	0x3f8ad3a96722fc90	0.013099025211316367
78	0xbf82e02478828688	-0.009216580321950177
79	0xbfab4a6227507a4f	-0.0533018753997011
80	0x3fb10642a1a11d12	0.06650177427319573
81	0x3fb2e0c0408a0639	0.07374192786849045
82	0x3fac5b7755029c3a	0.05538533127519725
83	0x3fb420d64a8dc2b8	0.0786260540023801
84	0x3fb3319d22ac6354	0.0749757966663201
85	0xbfad2d8d8d0a849a	-0.056988166300706314
86	0xbfb4cecb23e112a1	-0.08128041864353942
87	0xbfb850de88f02439	-0.09498396723951509
88	0xbf9a0e8badd7c217	-0.02544611214210776
89	0x3f93e2fc19f85fac	0.019420565686317268
90	0x3fbe97a4480d0873	0.11950136908584046
91	0x3fb4350062d3e09e	0.07893373883041696
92	0xbfb637a48e785ab4	-0.08678654173159367
93	0x3fab9c9b1a4312ff	0.05392918296414528
94	0x3fb1ece6b785e0b7	0.07002107601681727
95	0x3f8a0ba5b014016d	0.01271752780530796
96	0x3fb327b1a2fbd811	0.07482443074317781
97	0xbfb58faccf51d4f2	-0.08422355710520771
98	0xbfa13274b2654b73	-0.033588072563950265
99	0x3f7d45f19019a0ff	0.007146781544726587
100	0xbf9435796e8179d3	-0.019735238427864687
101	0x3fc6fdffacd4371e	0.17962642611421925
102	0xbfa080d81c321461	-0.03223300308403832
103	0xbfc592211f5662a1	-0.16852201490543897
104	0xbfce07e31626ec08	-0.23461569387095005
105	0x3fa49e21c70efa45	0.04026895098603637
106	0x3fbb805c5e9ff838	0.10742738065889135
107	0xbf6ee9cfb9994f31	-0.003773599350816691
108	0x3fa9467184319846	0.0493655656689929
109	0xbfa18940816ca6a7	-0.034250274466399326
110	0x3fb2f3f0a6b5015a	0.07403472967144378
111	0x3fab3e261cc3ea5e	0.0532085332979093
112	0xbfa9531eea3d29fe	-0.04946228608476487
113	0x3f9cef02faa6acc6	0.028255507038619475
114	0xbfb0b31f5f8935e2	-0.06523319322987889
115	0xbf8d34bcaf7bcfc8	-0.014260744195304556
116	0xbfa54e351e152d99	-0.041612300798614395
117	0xbfa4af8bb8204670	-0.04040180800087689
118	0xbfc18fccb4eb4990	-0.13720091661396028
119	0xbfb39241cf91956a	-0.0764504558333862
120	0x3fbd5ec7333115fa	0.11472744941519145
121	0xbfaaa2664ef8bff3	-0.05202026094445946
122	0x3f663ab216b1b516	0.002713535146134159
123	0x3fb06da0ed5af40f	0.0641728000145607
124	0xbfb40d2ec545fe06	-0.07832615200276657
125	0xbfaa63682e4a29c6	-0.05153966488895238
126	0x3fb15a89f1996d9a	0.06778776310368642
127	0x3fc1ab40f92ed181	0.13803875128872892
128	0x3fc7a614171c5742	0.18475581291630233
129	0xbfd32f7501c9e4eb	-0.2997715489833143
130	0xbfc671b709f9d5c9	-0.17534530627351178
131	0xbfccb75a4075f508	-0.22434547564981977
132	0x3fb5257e328cdc2f	0.08260334715019789
133	0x3fc7ec64354126cf	0.18690159416501337
134	0xbfb190645b4534a9	-0.06860949734000833
135	0xbf95ad21fdeb551c	-0.02116826164531914
136	0xbfc66af9478e8641	-0.17513957971554997
137	0x3fbdbb8c26bc8e2e	0.11614299722401064
138	0xbf9a663fcdf5a7a5	-0.0257806748826749
139	0xbfcc31e04f211e35	-0.22027210105646736
140	0x3fb4315727b8c448	0.07887787551659742
141	0x3fc387f9fb525eb7	0.15258717319078638
142	0xbf94d2fc0987e311	-0.02033609207316817
143	0x3fc6ef0c7cad7988	0.17917018974089793
144	0xbfbee1f01ac0185c	-0.12063503888211485
145	0xbfa45f811d1707a6	-0.03979114036657387
146	0x3fc86ac6f2914a6d	0.19075857967489487
147	0xbfbbd18be04b93d5	-0.10866617418248777
148	0xbfb433ebf353a184	-0.078917261987618
149	0x3fc2663242133f98	0.14374378420188516
150	0xbfbbad57a952a170	-0.10811374553543884
151	0xbfb4bfe176b6725f	-0.08105286739596228
152	0x3fb44d739d5da701	0.07930681793154905
153	0xbfc4a6ebbdaf2ad5	-0.16134402048040522
154	0x3fac6c6e06a16f91	0.05551475363674208
155	0x3f90e848be37e14a	0.01651109372139218
156	0xbfb01f72bd7e9289	-0.06297986151055047
157	0xbfb9565af4510bc9	-0.09897392716179278
158	0xbf96e46ec73fd126	-0.022355776702128648
159	0xbfc184d8d8399b89	-0.13686667020666857
160	0xbfc0d6540a070f84	-0.1315407799685283
161	0x3fb0c81bd73b93a4	0.06555341725068203
162	0x3fad9e6d12601c64	0.05784931992825973
163	0x3fb50600687e8ea6	0.08212282706386506
164	0x3f535adb9baed44a	0.0011813301668841696
165	0xbfa85cf423b869d3	-0.047584180221935356
166	0x3fbf3e5b5dea060e	0.12204524081064269
167	0xbfb5ead317206e47	-0.08561438860527303
168	0x3fc02f1a9aa86d8f	0.12643749763161025
169	0xbf82058619c68035	-0.008799598371126741
170	0xbf88e7cb01e0acef	-0.012160860056687343
171	0x3fc1fa6848b9f7db	0.14045432616325013
172	0xbfc4581b8ee53cd1	-0.15893883206670137
173	0x3f8819080bec3e55	0.011766493667464998
174	0x3fc56f17091e8cc3	0.1674526972320561
175	0xbfc2a82b505924fa	-0.14575711653950646
176	0xbfb078cba8b4ac8d	-0.06434319371025961
177	0x3fc601f80663339c	0.17193508445634798
178	0xbfbd912fd077c3cf	-0.11549662437006634
179	0xbfc09505ed65a090	-0.12954782573365664
180	0xbf92c7e52146aa82	-0.018340664058693175
181	0x3fb1e557458df5eb	0.0699057144938348
182	0x3fa1bee39aef43c5	0.03465949312488407
183	0x3fb063f9ac531139	0.06402550179615653
184	0x3f9f2e14cf722df9	0.030449223672389867
185	0xbfa43c8df9de8d44	-0.03952449488795165
186	0x3f8c1d664b18bdcc	0.013727950255172504
187	0x3fb6fd9e1c1cc346	0.08980739771210464
188	0x3faf269cedcf92ea	0.06084146883930493
189	0xbf7dbdc1ef378bb0	-0.007261045032893529
190	0xbfb8a02155f83230	-0.09619339321961529
191	0x3fbf0d00b5ab580e	0.12129215655599543
192	0xbfc5022db6c14386	-0.1641289846761788
193	0x3fb16b5fcbb69858	0.0680446503016311
194	0x3fbf6fc3ecba2a09	0.12279915360901596
195	0x3f9ed592b3aa61a8	0.03011159154502399
196	0x3f8b63f4ba531e6f	0.013374244629076075
197	0x3fb0fd1fa32dfe89	0.066362359370027
198	0xbfa64e8fdf31199b	-0.04356813048848381
199	0x3f9beff1bfa28fb0	0.027282502480957482
200	0xbf9dd3987f43150c	-0.029127486007174005
201	0xbf9db5b2f1b9c5df	-0.029013439182056785
202	0xbf9bb0072032712b	-0.027038680400992703
203	0xbf82cd794e8a1de6	-0.009180972775779627
204	0x3fbd58e6de265935	0.11463778422907896
205	0xbfb780291c6600cf	-0.09179932540246515
206	0x3fa27eb825557fee	0.03612304168450452
207	0x3fa69d2592c299a2	0.044167684712465474
208	0x3fb870a1324dc22c	0.09546859243506195
209	0xbfbe2f0ba23af475	-0.11790535650921348
210	0x3fc21418f03fd26b	0.14123832446024961
211	0x3fb7e1815f0ef238	0.09328468867074313
212	0xbfb04d13a90f0d8f	-0.0636760986081326
213	0xbf93395c27d3820e	-0.018773498469160592
214	0x3f8d3279ba286860	0.014256430619799143
215	0x3fbb9e8705236a9c	0.10788768649528396
216	0x3fbc1ff1cb054f5f	0.10986243444977849
217	0x3fbab85a48aa5805	0.10437549852426294
218	0x3fb6f457d7ab1a3c	0.08966588034955064
219	0xbfb3c4108e3e4a54	-0.07721045944917054
220	0x3fb3fdacaba54abb	0.07808951559608605
221	0xbfc16cc6d6bc5219	-0.13613210187089989
222	0xbfaef00df8977f16	-0.06042522105758345
223	0x3fa495b551ccc269	0.04020468352826329
224	0xbfb33874f2d26bd0	-0.07508021286268662
225	0xbfaad4ec377717eb	-0.05240572144570862
226	0x3fb2fd0584f2046e	0.0741733026097948
227	0x3fb3df9fd26317aa	0.077630986084016
228	0x3fa5a24a4d5b889a	0.04225380129152363
229	0xbfb2076291b4f71b	-0.07042518670365576
230	0x3fbab4e57ac9932e	0.10432276008357341
231	0x3fab6328456fbf31	0.053490885234963044
232	0x3fc309196c184a97	0.14871518877096854
233	0x3fb87c9ffd1a16c0	0.09565162591214982
234	0xbfa0f6cc4c51f7b1	-0.03313291961329357
235	0xbfa732272618446a	-0.045304511451953314
236	0xbfbdb3e73d049a36	-0.11602635612198572
237	0x3fb64958066763fa	0.08705663830131974
238	0xbfc2ab8f79494d0c	-0.1458606092661302
239	0xbfb74abfd8a01541	-0.09098433531479079
240	0x3fbae3e433e6e2be	0.10503984706054845
241	0x3f951a07fd13a4ac	0.020607113668039176
242	0xbfbaf292ca3c60b6	-0.1052638763179655
243	0xbfc05acb61a1c00f	-0.12777082698039563
244	0x3fba9e9e9b52507f	0.10398284236936382
245	0x3fa7b55b6be1dcfe	0.04630551998064368
246	0xbfb16b3c2fbaae46	-0.06804252782119943
247	0xbf8e0823545fe65b	-0.014663959515007699
248	0xbfb39c871351000f	-0.07660717221824619
249	0xbfb747d86b303f4c	-0.09094002358346848
250	0xbfb5c9da8aa9045b	-0.08511129269847244
251	0xbfbb3c742b0eca2a	-0.10639120150771278
252	0xbfb66056e11de5ff	-0.08740752216353796
253	0xbfc8fbed84a227fa	-0.1951882264732488
254	0xbfc03cc26de21b68	-0.1268542324580395
255	0x3f9089c0cdae5edf	0.016150486520557613

conv2.5.bias f8 [8]
0	0x3fb9ee76b847a9a9	0.1012949180509738
1	0x3f7f8c500dbf9a48	0.007702172002587
2	0xbf980f3a06ec8496	-0.02349558512935753
3	0xbfa5c077f2bfa10d	-0.042484043486014846
4	0x3f9cae3a711f670e	0.02800837817617379
5	0xbfb10aba56356594	-0.06656994442655267
6	0x3fb0ec018f51b17a	0.06610116719247641
7	0xbf9a523a52cda7e2	-0.0257042992629194

conv3.0.weight f8 [8]
0	0x3ff006c3e269f031	1.001651653698911
1	0x3ff0a2ad90369e81	1.0397163041433546
2	0x3ff14f5247dc79e2	1.081865578372906
3	0x3fee7fd34706079c	0.9531036746195585
4	0x3ff04e8a49460db3	1.0191748487712686
5	0x3feb7d0c41e14a1e	0.8590146338195301
6	0x3fed0c7b18c969a2	0.9077735408894123
7	0x3ff0360b60f45579	1.013194445350875

conv3.0.bias f8 [8]
0	0x3fc35114e289804e	0.15091191350348016
1	0x3fb2ae02610e2bd9	0.07296767110362569
2	0x3fc0cce194603229	0.13125247712049884
3	0x3fb8fa08bd433240	0.09756521816888952
4	0x3fc24c93797f6aa5	0.14296191627984914
5	0xbfbc6005464c74a8	-0.11084015814090498
6	0x3fa2301e251457e2	0.0355233593237896
7	0xbf87af6eb6da83bd	-0.011565079646347226

conv3.0.running_mean f8 [8]
0	0xbfc59f9035c1e280	-0.16893198609229287
1	0x3fc73419f7e4b9c0	0.18127750972912615
2	0x3fcad2f111de2994	0.2095624291653847
3	0xbfe60ca9c7393578	-0.6890458003123703
4	0x3fc3f0bafd689496	0.1557840096803928
5	0x3fdd35d8ef9d71a1	0.4564115848532087
6	0xbfdebe387734e5e9	-0.4803601421477582
7	0xbfaf202c9b21e7ff	-0.06079234498697871

conv3.0.running_var f8 [8]
0	0x3fc27ae5e2855701	0.14437554894055185
1	0x3fc641591f43d2f9	0.17386926676376627
2	0x3fd078e5956c8ffd	0.2573789557666258
3	0x3fe3e0d4867834a3	0.6211950899466
4	0x3fc34a31ee66f625	0.15070175305111025
5	0x3fd1561bc48931af	0.2708806437774695
6	0x3fc0eed702964ace	0.13228881479570592
7	0x3fc28f8068aa1a7c	0.14500432119912776

conv3.2.weight f8 [16, 8, 3, 3]
0	0xbfa57b40f000fdc6	-0.04195597581610459
1	0xbfcd97de37b025b3	-0.23119714469093608
2	0x3fa249e76b278b34	0.035720092611674664
3	0x3f901a092352d2a2	0.015724318295456848
4	0x3fad792e558ba33d	0.05756516260391329
5	0x3fc1f1e9a75d8067	0.14019509002810368
6	0x3fb4bfa4e6d8b16f	0.08104925762080993
7	0xbfbcc400c1a45220	-0.11236576774201312
8	0x3fa01b63e266d464	0.031458970438884376
9	0xbfc084e9cf3ec855	-0.1290561925830526
10	0xbfb6b5e494ba31b5	-0.08871296530759916
11	0xbf690e7478422db8	-0.003058650474547977
12	0x3fbd13bdc5c78056	0.11358247831913224
13	0x3fa63ebc2e187515	0.04344738066377311
14	0x3fc180178b8257b7	0.13672155677767048
15	0xbfb5b18e4d9281be	-0.08474053758482733
16	0xbfb126c9f3a58b7e	-0.06699812124638346
17	0x3fbb5d7a1e34062d	0.10689509618171007
18	0xbfa1d7de8fff922e	-0.03485007770340008
19	0xbfa61d3ee58b2cbd	-0.04319187690779234
20	0x3fbddf6d6a73c3f6	0.11669048165255433
21	0x3fa3fec55930c7e2	0.039053122651594455
22	0xbfc2d1bf71242897	-0.1470259954879267
23	0x3f8b8aac6fcecba8	0.013448092615225907
24	0x3fbb7bc688365f9e	0.10735741448877298
25	0xbfb38e7c5756a4b0	-0.07639290935789478
26	0x3fb437755c44ef4d	0.07897122862499124
27	0xbfa99d9477b1b64e	-0.050030364619357046
28	0xbfc266a2b1eda5bd	-0.1437571877279832
29	0xbfb1e41f12db484b	-0.0698871060406258
30	0x3faf9b59c7da2092	0.06173210682487808
31	0xbfa42c7b377cf9eb	-0.039401865504704
32	0x3faf9a664b3bca91	0.061724850353035106
33	0x3fb5ae448b0167d0	0.0846903647774575
34	0xbfb9cd05fcf9952e	-0.10078465868135275
35	0x3fbd5ceeeab355fd	0.1146992991446822
36	0x3fa1eb88381cb0d9	0.03500009236299357
37	0xbfbbe03952bdcfe3	-0.10889013547949804
38	0xbf9522510c37c22c	-0.020638719912257894
39	0xbfa087e8e6181573	-0.03228690918698875
40	0xbfa16d755a3552fa	-0.03403822637725358
41	0x3fc52ee63bfc2b96	0.16549375466305766
42	0x3f435b501d17312a	0.0005907193355425878
43	0xbfc2f49f38685929	-0.14809026960637908
44	0x3fc38db024e84f52	0.15276147653696143
45	0x3f9fa8fc8c0d0910	0.030918069885282284
46	0x3fa2ce410d15db64	0.036729843947731294
47	0x3fbb988a77ba6f29	0.10779633925488653
48	0xbfa434d1c0439a2f	-0.03946547958348778
49	0xbfa0a2a97bfb6eca	-0.03249101293996899
50	0xbfa2c843b4f34a4d	-0.036684146727243495
51	0xbfb61dd74d947a81	-0.08639283794443921
52	0xbfaa260cea118fcc	-0.0510715518692276
53	0xbfaaeb6e109f2c8b	-0.0525774379053355
54	0xbfb6d4eac0d31186	-0.08918635566357666
55	0xbfbea198c424e33a	-0.1196532706134236
56	0x3f9005d81464a8ec	0.015647293324186615
57	0x3fb645d9c89992f9	0.08700333735903233
58	0xbf801cd385cb9186	-0.007867481728177205
59	0x3fac43c6741c39ba	0.055204583810439314
60	0x3fb87d70f224b0df	0.09566408073141329
61	0xbfac5ca3900b1849	-0.0553942788442759
62	0x3facd62a3007e095	0.0563214477187454
63	0xbfb56c2fcdb34b6b	-0.08368204853040388
64	0xbfb3056ad491cf7f	-0.07430141153036905
65	0xbfc3c8e8f4f9bae6	-0.15456878625578624
66	0x3fc4ec531692180f	0.16346205331882444
67	0x3fbe7cfe687caac1	0.11909475375129387
68	0x3f9cb49c18fc132c	0.028032721543257796
69	0x3f91c5a2c7cb547f	0.017355483478997954
70	0xbfa7092d1f2f7c01	-0.044991884285757074
71	0x3f99c98fbab70e8c	0.025182958384688578
72	0xbfc026a824b83495	-0.12617971222826854
73	0x3fca683476ba0e6b	0.20630508229452302
74	0x3fa1834a924918d6	0.0342047980853281
75	0x3faad44714f4dd53	0.05240080004517247
76	0xbf8dad0ed05f9d8c	-0.014490237936071869
77	0xbfb70dbaeeb54fa4	-0.0900532563003354
78	0x3fbb443dc7603a2b	0.10651002996039753
79	0xbfacbe9556350e9e	-0.05614153554281852
80	0xbf7abd102f54ca88	-0.0065279609892053905
81	0xbfc49c8c4478c189	-0.16102746337265852
82	0x3fa3ae7932a627c8	0.03844050162577123
83	0x3fb49310aa740555	0.08036903535323366
84	0xbfc331dddd81587a	-0.14995930972753851
85	0xbf85e6589beb3060	-0.010693256624471015
86	0xbfb07851be223840	-0.06433592693267176
87	0xbfb38d22d448d412	-0.07637231524206836
88	0xbfc30daeff8e3047	-0.14885508993427463
89	0xbfb17cf788adf03e	-0.06831309401417315
90	0x3fb50df76a396d01	0.0822443613373487
91	0xbfb8b8202731c506	-0.09655953366179312
92	0x3fbb7287c82e89cc	0.10721634518862472
93	0xbf91343c4d0cb85b	-0.016800825312366246
94	0xbfa483bb76a62936	-0.04006753753044949
95	0x3fbd0bfbfd98cf55	0.11346411649065875
96	0xbfbc562beefa2de6	-0.11068987450033027
97	0xbfc919bc72a9ba9d	-0.19609790419368248
98	0x3fbe5915d2c20e6d	0.11854683299503117
99	0x3fc26197986320ce	0.14360327664167588
100	0x3fbc0c3f0987f77e	0.1095618627805077
101	0xbfb475fecd8001fc	-0.07992546574678977
102	0x3fc24cfebff81df9	0.14297470448967411
103	0xbfa09537dc32ab7f	-0.03238844454730038
104	0xbfc46ab6f0a0a6d3	-0.15950667142288086
105	0x3fae546044808b31	0.05923748813827102
106	0xbfadf5a0ae34a99a	-0.058514615311952414
107	0xbfbdbf579bd49467	-0.11620090059712283
108	0x3fc2570bdd1edbf2	0.14328144356633704
109	0xbfaff647a2a88788	-0.06242584095549747
110	0xbfb89e1bfd895565	-0.09616255702834094
111	0x3fb0febe4a679145	0.06638707462804401
112	0xbfa387576a10f5cf	-0.038141948411503195
113	0xbfb5371881af8365	-0.08287194410469352
114	0x3fbb3176e6037860	0.10622351756635018
115	0xbfb43292727cb7cb	-0.07889666838738589
116	0xbfb08bcc528791b5	-0.0646331502426339
117	0x3f92fa7b52b132d4	0.018533636972551573
118	0xbfa8952a62971c0e	-0.04801304296011476
119	0xbfa0085c594dd542	-0.03131378736626768
120	0xbfa492157af415ed	-0.040177031763999206
121	0x3fb6be06eda7248c	0.08883708288262165
122	0xbfaf84421ce5cc18	-0.061555925395531286
123	0xbfbfd40c4d903cd1	-0.12432934659613017
124	0xbfba953aa67ee938	-0.10383955540502121
125	0x3f8a6d9c2562aa36	0.012904376879608308
126	0xbfb30261304eed5c	-0.07425506047632296
127	0x3f993902a80fa683	0.024631539828908543
128	0xbfaa59139cd37a5a	-0.05146085061436585
129	0xbf9e2ea92a6657b3	-0.029474871838452276
130	0x3fbaac7a3d8e9ef9	0.10419429781779489
131	0x3efc77c6d6cb50b0	2.714908389374386e-05
132	0x3f84df3d2bde05c8	0.010191419507239355
133	0xbf73fde8d0706388	-0.004880818777586955
134	0xbfa59596b121197e	-0.04215689575407831
135	0x3fb7cb697f488079	0.0929475723028207
136	0xbfb27bb59993db7b	-0.0722001552529558
137	0xbf9dd4fca273a9fa	-0.02913279286887336
138	0xbf69104d67e2d58c	-0.00305953138657839
139	0xbf8f48f4ce3ced41	-0.015275871795543796
140	0xbf93392dfbf76169	-0.018772810462765053
141	0x3fb7061b99a72f22	0.08993694783492548
142	0xbf9a97c4c9da5fd4	-0.025969576664095786
143	0xbfbe173d546494e6	-0.11754210768102133
144	0xbfc14dcf51a82e2d	-0.1351870678630446
145	0xbfafcb1f2ada1146	-0.06209657095044689
146	0xbfb8dbc8619cf4d9	-0.09710361846096606
147	0x3f6b07a0bc68f1d7	0.0032995356916940377
148	0xbf6c42ee8543b7a9	-0.003449884281613931
149	0xbfc1c13c4d1d66b0	-0.1387095810448975
150	0xbfb387c7a472ec6a	-0.07629058613649567
151	0x3fc9cca317e1adc7	0.20155752817241376
152	0x3fb1963ebf151ea9	0.06869880833721233
153	0xbfa474d21abe7ddb	-0.039953771366750344
154	0xbf919927842c5c79	-0.017185800020425
155	0xbfb1cc71279029b5	-0.06952578750512013
156	0xbf924f5c73e9418b	-0.017880863737731494
157	0xbfb3e76b6dacbf15	-0.07774993350608057
158	0xbf76111620abe467	-0.0053873886451977
159	0x3fa55145717d6084	0.04163567552922223
160	0x3fc337539e9a095d	0.150125935022582
161	0xbf96194d7d25a343	-0.021580897105567997
162	0x3f72c0f5aac6a8e4	0.00457855189999121
163	0x3fac2296aa1e1f6f	0.05495138956672362
164	0x3fb17c40a35863f6	0.0683021925728012
165	0x3fa21b1a8ab95f3d	0.03536303466233768
166	0x3fb30b1c79606049	0.07438829386990266
167	0x3fb656ac51eb5513	0.087260026931592
168	0xbfa49ee1986c6ec1	-0.0402746676029131
169	0x3facac77c2bce737	0.05600332500621479
170	0xbfb4f3e55402b220	-0.08184655476606695
171	0x3fb58a3e2169ce6d	0.08414066615824263
172	0xbfae4093c9d2a87b	-0.059086435686666904
173	0xbfc3018460fda588	-0.14848379836920977
174	0x3fb4323336a4b9ac	0.07889099201268007
175	0x3f9149e874fb6877	0.01688349927903984
176	0xbfa7101ec34be849	-0.04504486211767806
177	0x3fbc99111bc4502d	0.11171061447049686
178	0x3fb04cff0015834c	0.06367486717273357
179	0xbfb8444389a96de6	-0.09479162321934317
180	0xbf49a8d254e12464	-0.000783064557034707
181	0xbfb2855c4ff28e96	-0.07234742118685697
182	0xbfbff59abcf99dac	-0.12484137643479326
183	0xbfb9d008a282f84a	-0.10083059279983889
184	0xbf784ce68039d12d	-0.005932712930747192
185	0x3fb2f5a8bc7c5e7f	0.07406096078590883
186	0x3f5c999dc1d853b4	0.0017456093404508545
187	0x3fbf3012c8692cb3	0.12182729142039044
188	0x3fa17a9e5da80382	0.03413863080277847
189	0xbfbb9ce7304166b2	-0.10786290100204601
190	0x3fb2c96abccd9017	0.07338587865302802
191	0xbfbc3f822f2aac62	-0.11034406329660976
192	0xbfba91dca2ea2e51	-0.10378817536746367
193	0x3fabad08c8040985	0.054054521957385616
194	0x3f949796dbaae860	0.020109517247626107
195	0x3f793915249460fd	0.006157953824434734
196	0x3fc091ab8da0b2ad	0.12944549956718757
197	0x3fb527773c183d4f	0.08263344971805008
198	0x3fa5d519cd9701d4	0.042641455027027014
199	0x3f92cd909d33d5f7	0.0183622928570539
200	0xbfc127ca31f3f2c8	-0.13402678908450683
201	0x3f76e89a22906734	0.005592920389085699
202	0x3fc18b098bda6ed7	0.13705558136722715
203	0xbf9e1227cce59dea	-0.029366132622639464
204	0x3fc20143267b2f44	0.14066352251972536
205	0x3fc0a8086aa87493	0.1301279564658314
206	0x3faae1dc27c3543f	0.05250442490947948
207	0x3fc59bcf5f235fda	0.16881744523448
208	0x3fc63c4c3a787667	0.17371514182098055
209	0x3fc20a2a67e2a4dc	0.14093523094678673
210	0xbface4a087efcbd7	-0.05643178614982219
211	0x3fb986efdf27a4f4	0.09971522520176618
212	0xbfc235cf3bb18bba	-0.1422671357605319
213	0x3fb116edc28daaea	0.0667561149581776
214	0x3fa4939f4d5b94fc	0.04018876857097983
215	0x3fc5f6330f8a1f8a	0.17157591112868104
216	0x3fc67064e0d59f75	0.1753049943756612
217	0x3fc4d623dcf11d6b	0.16278503692795296
218	0x3fa124ba0a636bd4	0.03348332764445386
219	0x3fbc65a77e4783d5	0.11092612107269358
220	0x3fb630e23f0cff28	0.08668340720487022
221	0xbf8f3d4f243274d5	-0.015253656665942842
222	0xbf83482afa19f8c6	-0.009414993054857834
223	0xbfa5291fedbf4fa6	-0.04132938172520477
224	0x3f6a516320e7d7d8	0.003212636576104249
225	0xbf87e10da2064261	-0.011659723765462706
226	0xbfc3e69bd65ea9ee	-0.15547512023233828
227	0xbfa2a5c60af3af53	-0.03642100223245728
228	0xbfb527c73d3d8c7f	-0.08263821835639538
229	0xbf9b51dc9f0c9a55	-0.026679465491861915
230	0x3f943fbf61863034	0.019774427726176394
231	0xbfb0f8e3ef0679fd	-0.0662977655942782
232	0x3f6393c2ce14abbb	0.002389793852349579
233	0x3fa32b307da6bd84	0.037438884104058295
234	0x3fae8dc4b23c56fb	0.05967535663346087
235	0xbfa998cf637ab58a	-0.04999397363040277
236	0x3fb1109cecb91dd4	0.06665974406597935
237	0xbfc347ec61e55b17	-0.15063242702554966
238	0x3f6312502f054cd9	0.002328068360080243
239	0x3fb0b2ade53bb205	0.06522642942918118
240	0xbfbc4b691f49282e	-0.11052567495167473
241	0x3fbfffafcc2ddc1c	0.12499521956293375
242	0x3fc9b99ba80e7709	0.20097680765041329
243	0x3fbc99c4781eecfd	0.11172130520474251
244	0xbf98bc83bb78470f	-0.02415662605023444
245	0xbfa9a7cf1aaa4c5c	-0.05010840607169406
246	0xbfa511bf16712025	-0.04115101956318793
247	0xbfb204cf02e8ff99	-0.07038587399529063
248	0x3faaa66aa76b7545	0.05205090802858562
249	0xbfa54f0d837ab7b3	-0.04161874990437244
250	0xbfc13b08476ed88b	-0.13461402404727027
251	0x3fa0a048121f02eb	0.03247285100179006
252	0x3fae13b50097c051	0.058744102785454395
253	0xbfacebfdb9bbbbd9	-0.056487969324613814
254	0x3fc7cd7c786b31e6	0.1859584415418702
255	0xbfc55b2a992d0088	-0.1668446777275714

conv3.2.bias f8 [16]
0	0x3fb581a69f1704d9	0.08400956520110316
1	0x3f9bd872e67dc469	0.027192874258109265
2	0x3fb1f1fe6c8e1a4d	0.07009878301878665
3	0xbf66efb5f23a02e6	-0.0027998498570130812
4	0x3f92c2325e487134	0.018318926815582517
5	0x3fb346bf3bc83c45	0.07529826364064814
6	0x3fa4d3f2382911e7	0.04067952094604604
7	0xbfa4998dc0d35b42	-0.0402340219385935
8	0x3fbb395053c6d90e	0.10634328885393904
9	0xbfa930a225fbd033	-0.049199168335605135
10	0x3f87719156251e19	0.011447081986843565
11	0xbf9a41aeb55cb468	-0.02564118368097859
12	0x3fb49f1b484f0356	0.08055277362201471
13	0xbfb87347b9eb3359	-0.09550903595954931
14	0xbf8c398e7f60d462	-0.013781655561709797
15	0x3fb9074019fc18f7	0.09776688227075057
