Coursework2/networks/Weights/MTLSeglr001ep10.pt (torch, 309293 bytes, 92 tensors)

body.conv1.0.weight f8 [3]
0.9031987042865599 0.9677358430554832 0.8299143272046116
00000000: 4469 16f8 00e7 ec3f a6e3 a228 b1f7 ee3f
00000010: b96b ba7d a88e ea3f

body.conv1.0.bias f8 [3]
0.3828447752830567 0.2908704198310982 0.5948248320375547
00000000: ae40 525f 8780 d83f 4618 23f7 9e9d d23f
00000010: 5266 0e16 ce08 e33f

body.conv1.0.running_mean f8 [3]
94.51023638064352 88.48623523972682 75.91133171052047
00000000: f905 7eb6 a7a0 5740 8632 697a 1e1f 5640
00000010: 901f 3d42 53fa 5240

body.conv1.0.running_var f8 [3]
6583.472062308052 6134.616171259728 5483.951471506755
00000000: c24e 13d9 78b7 b940 4451 66bd 9df6 b740
00000010: 97fc a293 f36b b540

body.conv1.2.weight f8 [4, 3, 3, 3]
0.1337271971474727 -0.006591504180679657 -0.1299339464445275 0.1850356210693414 -0.03640831885426739 -0.07268075702564113 0.16215767380055213 -0.09893800777874043
0.06053046253294782 -0.11108296795286682 0.07405231906577439 0.13226219924273963 -0.10164723288895203 0.18320387877969435 0.049378185038805894 -0.035460265092421894
-0.00978113093192246 -0.08254301925043642 -0.12041564488183934 -0.09511531900459698 0.12195076843516903 0.22436534651906054 0.1268211746520624 0.258990888362824
0.0855178155870533 0.2028476247969298 -0.005140233501318209 0.031271213416331024 0.07229465572770746 -0.11750469109378334 -0.15056901818624363 0.181770187983812
-0.08979242077867536 0.19645245714295217 0.06218635376228719 -0.12852230071771265 0.14628267335655087 0.030631217067330414 0.17894511040483835 -0.17230264501386833
0.15925034110946107 0.13240147081151143 0.09732848684137627 -0.006572846350775095 0.12700508079190087 0.016448976817379158 0.0762056361099757 0.172066612912265
0.19035867050063882 0.20832558981494215 -0.01930068176829335 -0.04618524195493514 -0.08782417840240211 -0.07629915833841108 -0.046885185834123405 0.16917174290543716
0.16882747167779752 0.04296635053905905 0.01438511749355142 0.0019699656512503026 -0.2961667347797942 -0.10159468549560244 -0.18601242355751577 0.026876703484220395
0.21349553070917038 0.021296358157845086 -0.08518389445012195 -0.06929347324686323 0.08009142648959269 -0.07006506190749127 -0.08621192393554797 -0.028518139352043247
-0.11881485387308591 0.08522034834160533 0.06673076430080671 0.04516423050991966 -0.0862696763709814 -0.1592123127640152 -0.09764413961371252 -0.17943957781921227
-0.20643916359518968 -0.0058638450243898976 -0.05516655585835903 -0.2936175661794741 0.06122867266804333 -0.006525894700321398 0.02093275244891577 -0.2457300613236777
-0.1025880401881215 -0.1582184750124304 0.167226298828019 0.19628175420120347 -0.08919910964155696 0.21128949586231782 0.16509250451213045 0.11680521282705984
0.2356136201555376 0.07580404427854313 0.08354286025844981 -0.1388402628883545 -0.09189412064579938 -0.049896656743602774 -0.09254608415094281 -0.08440382174794378
-0.0423487503139189 -0.11790737462431107 0.1419699147862976 0.14722473259637642
00000000: 17c5 2a09 f91d c13f f80f 336e b1ff 7abf
00000010: 804a 4ff1 aca1 c0bf 523f 8b4a 3faf c73f
00000020: 1a16 9075 1ca4 a2bf 2f41 79c2 349b b2bf
00000030: 4868 e228 95c1 c43f aab7 bd53 0054 b9bf
00000040: 7245 fb49 d9fd ae3f bc0b 80f2 ee6f bcbf
00000050: ea98 94c0 17f5 b23f 244f 1fbe f7ed c03f
00000060: 66a8 fc94 8d05 babf 28f8 ed85 3973 c73f
00000070: b448 c1f3 1848 a93f 4846 c20d d927 a2bf
00000080: 0396 c32b 2108 84bf d297 3110 8a21 b5bf
00000090: 5aba b148 8fd3 bebf 8d2d 7940 7a59 b8bf
000000a0: ceaf 2662 2a38 bf3f 6ad9 d3f0 00b8 cc3f
000000b0: a713 c91e ad3b c03f 80bd de84 4e93 d03f
000000c0: 01f8 2bdd 7ee4 b53f da7b 4935 e9f6 c93f
000000d0: 07ee 82ec ec0d 75bf 75d7 dbcd c702 a03f
000000e0: 5aad 060e e781 b23f 7ed7 5f95 c914 bebf
000000f0: a24b 7378 d845 c3bf 869d 63da 3e44 c73f
00000100: 124f acd6 a2fc b6bf ceeb 52a7 5a25 c93f
00000110: ce40 55c7 e3d6 af3f 0cd3 3133 6b73 c0bf
00000120: d4d7 0401 64b9 c23f 82d7 292e ca5d 9f3f
00000130: d2e3 7b62 ace7 c63f 82a7 ac58 030e c6bf
00000140: ca92 78af 5062 c43f 64f3 8909 88f2 c03f
00000150: c6ef f30b 85ea b83f 3e32 e401 21ec 7abf
00000160: a4a9 36d6 b341 c03f ade7 ee25 00d8 903f
00000170: 23fc dc6a 3682 b33f a088 985d 4706 c63f
00000180: 60b7 2744 ac5d c83f 4269 96b5 69aa ca3f
00000190: 9df8 f0d3 8ec3 93bf c332 828f 97a5 a7bf
000001a0: a250 0936 a57b b6bf ea9a c675 5788 b3bf
000001b0: 541d a6c7 5501 a8bf 81d4 976f 6ba7 c53f
000001c0: 7fe1 c27a 239c c53f 0e97 c97c afff a53f
000001d0: 7dab 78c9 f175 8d3f 14cf 7b41 5123 603f
000001e0: 67b5 0252 65f4 d2bf 1ea9 a6fb 1b02 babf
000001f0: 3724 ea4d 41cf c7bf 92c0 f409 9185 9b3f
00000200: 7078 1e51 d253 cb3f f054 3f67 b6ce 953f
00000210: 0e27 cf98 9cce b5bf 4be9 6b91 37bd b1bf
00000220: 5279 7629 df80 b43f c721 7cad c8ef b1bf
00000230: 3613 d411 fc11 b6bf 766e 70ef db33 9dbf
00000240: daf6 a977 a66a bebf 5ab7 1431 00d1 b53f
00000250: d81d 4f72 4415 b13f ac6c fa19 c41f a73f
00000260: d25d a6fe c415 b6bf 6e92 38ae 1161 c4bf
00000270: c675 49d2 34ff b8bf 5cb8 2b47 e0f7 c6bf
00000280: a9a1 2038 996c cabf aeb0 bce9 af04 78bf
00000290: 6c3d 7d72 ca3e acbf be67 1155 a1ca d2bf
000002a0: c09b 5f55 5d59 af3f 8b52 0a85 e5ba 7abf
000002b0: fac1 bb3c 656f 953f 20bf 8328 1574 cfbf
000002c0: 5797 91b5 3543 babf ad93 e6c3 8040 c4bf
000002d0: edac 3fde ab67 c53f 3a3f 8cb1 c21f c93f
000002e0: 7f28 beba c0d5 b6bf 14c6 5bc1 880b cb3f
000002f0: e5df d84d c021 c53f e333 1849 f2e6 bd3f
00000300: a6b4 874c 9628 ce3f 77b4 14d3 e467 b33f
00000310: c0d4 9f9c 1063 b53f 789c 3c8a 84c5 c1bf
00000320: 984e de82 5f86 b7bf 607a c9f9 0d8c a9bf
00000330: 0a19 cda4 19b1 b7bf d698 1026 7d9b b5bf
00000340: 6bdf 3f43 bcae a5bf 8df8 f77d 2d2f bebf
00000350: 78f3 82f6 112c c23f cef6 d491 42d8 c23f

body.conv1.2.bias f8 [4]
-0.03807106614112854 -0.1295025646686554 -0.12469522655010232 0.016002237796783454
00000000: 0000 0000 0d7e a3bf 0000 0040 8a93 c0bf
00000010: 0600 00c0 06ec bfbf 0200 0000 e462 903f

body.conv1.3.weight f8 [4]
0.9872719808325551 0.9696339088533064 1.0800262679397694 0.9651941955702081
00000000: d5da bd68 bb97 ef3f 58c3 f3b0 3d07 ef3f
00000010: b5f4 b99f c947 f13f 166b 08f0 dee2 ee3f

body.conv1.3.bias f8 [4]
-0.005430981229569164 -0.011133698614739087 0.004880811609417554 0.008973151484018324
00000000: d84f 42ec cb3e 76bf 2e79 78bb 43cd 86bf
00000010: 7d9e d8e3 e6fd 733f f8c9 5301 8460 823f

body.conv1.3.running_mean f8 [4]
0.6745910449414873 0.5921797819288748 -0.7008855211195656 -0.014229601988788972
00000000: 4757 86f5 3f96 e53f ec94 9703 23f3 e23f
00000010: b759 ee78 a76d e6bf 3e62 6ad9 6824 8dbf

body.conv1.3.running_var f8 [4]
0.6072834072441893 0.6768659371201432 0.425116290435122 0.05695013615318623
00000000: 408d b09c dd6e e33f 15a3 f6c0 e2a8 e53f
00000010: 9c9a 1af5 1a35 db3f 91b5 8f78 9128 ad3f

body.conv1.5.weight f8 [4, 4, 3, 3]
-0.1336994123827557 0.06521988625642278 0.032850435826027084 -0.09018963547400806 -0.05784273677370688 0.08695068161313338 -0.05919888523540354 0.058845168866458394
-0.14001965174562536 0.012151356035404069 -0.021072251033730106 -0.06434832198440343 -0.2001389454388573 -0.21754380416512353 -0.18351705885158126 -0.0010539152396656485
0.00309584339581026 -0.03633159217679543 -0.08252090100130038 0.16181179300902915 -0.1806141097256193 -0.12146373707424125 -0.05706996963072467 -0.22680128011984943
-0.0635182127330294 0.05772541771960607 -0.17713205892049513 -0.018287622180632294 0.0001532011347844616 -0.04839878786080643 -0.04399313533381652 -0.11242678912014364
0.16774768656707195 0.0033397154535498236 0.11009116689516307 0.13226352845723413 -0.1788496373831987 -0.1071927101359895 -0.09329668479293107 -0.12734665815568239
0.06448880872583637 0.061875810645248386 0.05154571040291359 -0.09716779869993031 -0.20010318060195548 0.06946888782963037 0.01266595328866247 0.017669789038164258
-0.0825524289086558 -0.13005154134123925 0.10336675184558966 -0.05954072276792519 -0.15129107036487754 0.0864067826307379 0.06394171923099282 -0.022938068768214713
-0.06568267813721014 0.14418568358419817 0.11860399569491133 0.08285834587667197 -0.09769613377406308 -0.12864902851496063 -0.23765462357459805 0.07348763332266518
-0.08095612941289537 0.0074059143782510386 -0.02055234387207562 0.04640966822203642 -0.0614389999753643 0.05858923176566001 -0.16929747819103297 -0.14120463064348493
0.11471563388152273 0.06816648440836694 0.01681381103182773 0.1619506452207482 0.15637678662030768 0.1726371915076454 0.07578956086559463 0.1531397596047382
0.09728319597266047 0.026329874772709233 -0.006590050688344107 0.01563548691565968 -0.03726905901161827 -0.07375577383362766 0.13337429157723182 0.03658951735530696
-0.0254660715594262 -0.0026434613271464086 -0.1424163939797531 0.11849808544369178 -0.05647590096685384 0.11726716695908379 -0.05947576098671965 -0.011021944717381361
0.0027504202356895264 -0.07045393706828854 0.13107317963061163 0.10027374766165717 0.06763035826892308 -0.01257392100731091 0.04153341220925216 0.06332610063144531
-0.12025834774943572 0.10036696756918759 -0.03916900276432831 -0.0295137310161736 -0.01424615234665079 -0.09148576492981576 -0.03547465049591879 -0.1099840501466674
0.05719064078067425 -0.004631242901763014 -0.23209499119613958 -0.13300436552922415 0.04102295142180146 0.099623283835104 0.14556139825151976 0.115790553371156
0.04453000182198455 -0.06993400218399012 -0.028763133730283823 -0.11070449934989271 -0.10933435032980357 -0.04659365257134691 -0.2679354401184726 0.06183719220935108
0.17334401875708336 -0.23953595466527325 -0.06746408972237185 0.022431658061711917 -0.16130154059127613 0.10616335961864914 -0.04713409155930247 -0.10520989592062846
0.08223501221938326 0.008526483080985602 -0.01602898189299165 -0.081714870503066 0.027769910434900343 -0.26009740969963047 -0.09960389031497036 -0.08004162466173204
00000000: 47d4 d6f5 0f1d c1bf 3c2a 851e 40b2 b03f
00000010: bf73 10b7 c5d1 a03f f98c ccfe aa16 b7bf
00000020: 8027 822d 909d adbf 62b0 e45d 6642 b63f
00000030: 0468 17f8 504f aebf fe39 9e37 f420 ae3f
00000040: 08bb 85f8 29ec c1bf ff61 3166 cfe2 883f
00000050: 1d01 2cd4 f693 95bf c0b9 79b2 2179 b0bf
00000060: ce6c a828 279e c9bf d416 2bb2 79d8 cbbf
00000070: 7648 03ab 7c7d c7bf 35f9 2cdf 7044 51bf
00000080: fff0 6e44 745c 693f 1701 6cf0 0d9a a2bf
00000090: 607b 09fb 1620 b5bf fc5a 8ab3 3fb6 c43f
000000a0: 48dd 3bf7 5c1e c7bf 4d41 625a 3f18 bfbf
000000b0: 259c 4b6a 4638 adbf cb20 6708 d307 cdbf
000000c0: f283 63c6 ba42 b0bf 04de 819a 2f8e ad3f
000000d0: 757e 1168 43ac c6bf 01eb bf8c fdb9 92bf
000000e0: 3b01 2bba 9314 243f f170 0ed6 b9c7 a8bf
000000f0: 7cb5 03ab 4486 a6bf 441e 7786 00c8 bcbf
00000100: 8082 e495 c178 c53f f284 d414 e45b 6b3f
00000110: f8a8 6449 ef2e bc3f 95b4 96e4 02ee c03f
00000120: 902c bb7f 8be4 c6bf be57 6740 fb70 bbbf
00000130: b0c7 02a2 4ae2 b7bf 494b 0432 e54c c0bf
00000140: be7a 6fac 5682 b03f 8008 45ae 2fae af3f
00000150: a5f4 db08 3364 aa3f 98f8 a325 fddf b8bf
00000160: ce67 4124 fb9c c9bf 6258 5189 b6c8 b13f
00000170: 3404 2e79 9bf0 893f f53d 2f78 0718 923f
00000180: fa37 5eee 2722 b5bf 1e71 6d66 87a5 c0bf
00000190: 82a9 ab52 3e76 ba3f bd0a 2322 1f7c aebf
000001a0: 106e b27b 815d c3bf aa35 8d41 c11e b63f
000001b0: 0277 f208 7c5e b03f a682 c5bc 137d 97bf
000001c0: bd54 837a 94d0 b0bf 19d4 c52d ad74 c23f
000001d0: e93f afda d45c be3f b9af bd5d 3436 b53f
000001e0: 8a57 8123 9d02 b9bf 8824 1145 9277 c0bf
000001f0: da7f ff79 776b cebf 6902 c8e5 15d0 b23f
00000200: 9437 3d78 8ab9 b4bf 2d35 d300 aa55 7e3f
00000210: 8497 2573 ac0b 95bf f2b5 760e 02c3 a73f
00000220: 52af 2fbf ee74 afbf c29c a964 68ff ad3f
00000230: e618 102e 8aab c5bf da29 544b fe12 c2bf
00000240: c06d dcf7 005e bd3f 619c 37d5 5b73 b13f
00000250: 53e4 02c2 a337 913f e804 657a ccba c43f
00000260: 2aa3 3190 2704 c43f c69f ccb9 f918 c63f
00000270: 18c2 4bd5 f166 b33f 921d 9c69 159a c33f
00000280: ca26 2731 8de7 b83f 48eb 39fc 37f6 9a3f
00000290: 337b f742 2bfe 7abf 4dd4 d6c3 bf02 903f
000002a0: a216 371b ee14 a3bf c2b0 818c a8e1 b2bf
000002b0: c9c6 39a6 6812 c13f 57be d578 dcbb a23f
000002c0: 8e75 0522 c713 9abf c4c1 587e bda7 65bf
000002d0: 4e55 474d b33a c2bf 7888 9ef9 e355 be3f
000002e0: 005d 54c7 68ea acbf b8dc fb96 3805 be3f
000002f0: ea72 af60 9b73 aebf 74b8 cb60 ac92 86bf
00000300: 3f27 cd9e 0c88 663f 8a2e 95eb 4409 b2bf
00000310: 05b7 f285 01c7 c03f 26ab da52 8aab b93f
00000320: 7256 fb20 3950 b13f bc33 121c 5bc0 89bf
00000330: a892 420e de43 a53f bafc 31ab 2336 b03f
00000340: 64a2 a746 40c9 bebf 3ef0 4e4b a6b1 b93f
00000350: dd89 c7a3 f50d a4bf 1e58 fdf5 d838 9ebf
00000360: e8af 6133 162d 8dbf 7150 6c70 9c6b b7bf
00000370: ce1a 6fbf bb29 a2bf d428 762a ea27 bcbf
00000380: 8e9f 9477 1748 ad3f 2ab2 d8cc 35f8 72bf
00000390: a65c 60e6 49b5 cdbf f92c 167c 4906 c1bf
000003a0: e0eb 7bd5 f500 a53f f9ec fd59 e980 b93f
000003b0: 8670 8682 c1a1 c23f 1b34 ea1f 73a4 bd3f
000003c0: 2451 08eb a2cc a63f 9635 42dc 31e7 b1bf
000003d0: 7ee4 ce3a 1574 9dbf e253 3a4c 2157 bcbf
000003e0: 2af4 fe02 56fd bbbf 8980 fd8b 1fdb a7bf
000003f0: 9ce2 2fb0 da25 d1bf e866 6edc 1fa9 af3f
00000400: c76a c205 2330 c63f 4572 c039 1da9 cebf
00000410: 3912 039b 5345 b1bf 0b97 1417 53f8 963f
00000420: 3125 d164 87a5 c4bf 4478 989d 852d bb3f
00000430: 2e39 8cab f521 a8bf 70d5 3126 09ef babf
00000440: 6a83 1190 5a0d b53f cca1 dc2f 5576 813f
00000450: 6805 13c4 e669 90bf c654 6808 44eb b4bf
00000460: 4fe2 8524 b76f 9c3f 5cca 1b9b 6fa5 d0bf
00000470: 0409 75fb a37f b9bf 18a8 3da0 9b7d b4bf

body.conv1.5.bias f8 [4]
0.15663303434848785 0.09121878445148468 0.09520788490772247 0.10148553550243378
00000000: 0000 0020 8d0c c43f 0000 0040 1d5a b73f
00000010: 0000 0040 8b5f b83f 0000 00c0 f4fa b93f

body.conv2.0.weight f8 [4]
1.011915067864545 1.0362059534739763 0.9209096491492395 1.0140891459707588
00000000: ebec acda cd30 f03f a975 a1b1 4c94 f03f
00000010: 9256 3583 1778 ed3f 86c4 528a b539 f03f

body.conv2.0.bias f8 [4]
0.10886242644388874 0.05589345506371201 -0.03905768228947125 0.12281324388398607
00000000: 16f7 5671 68de bb3f df40 1e23 119e ac3f
00000010: 3e82 2e58 5eff a3bf 1855 ff51 b070 bf3f

body.conv2.0.running_mean f8 [4]
-0.4300727390114653 -0.3267710662168521 0.6672218821296243 -0.40560062165377064
00000000: 0f25 3dcf 4f86 dbbf 2b8c ab30 d1e9 d4bf
00000010: 8283 5db4 e159 e53f ac5f 4f4f 5cf5 d9bf

body.conv2.0.running_var f8 [4]
0.21390211569611806 0.2903970393564915 0.5953702830806028 0.18188152200776725
00000000: 70e2 baff 2461 cb3f fa0b b976 dd95 d23f
00000010: 2bed dafa 450d e33f 7a91 62ca e447 c73f

body.conv2.2.weight f8 [8, 4, 3, 3]
0.10816339899755859 0.07951587954159314 -0.07415186653080216 0.06467210504424802 0.13773618788114245 0.10930271072437708 -0.08694278011188991 -0.14185041906021334
-0.05551583274314311 -0.12520419456834478 -0.15865557652496187 -0.18070183369929244 0.10734216386608582 -0.07398479877305664 0.12774159349962627 -0.018164399180326377
-0.12225755961418606 0.07983056639736921 0.12968046205759273 0.201164054982656 0.040343343452913225 0.058541731569321825 -0.0209073497133402 -0.13927852732684035
-0.09637617285315292 -0.1424100586853476 0.019251370123204804 -0.0691493558877246 -0.010696868619141722 -0.11328673111680268 0.07565033133671444 0.047518075637605434
-0.09239084338169082 -0.1392439527864583 -0.03819500623168745 0.07284570483550404 -0.21509250146849296 0.0856785490959408 0.04056206588201018 0.019731400585772687
-0.14627717056370762 0.03971023798006766 0.05228335693539901 0.11409918415036974 0.12447592375293981 -0.14633129845319331 -0.17032272229623657 -0.10300247386895839
0.09091610503932424 0.20462723239945824 -0.0810858597330276 -0.21069515512146145 -0.0156847904635368 0.08378384662119359 0.025473076511084575 -0.09400738872305908
-0.11533202551585395 -0.15309631796949819 0.11617178356702228 -0.13902760144306114 -0.16939276589953567 0.12045252696385766 0.07243041103078732 -0.14522347847310663
0.041017090114948015 -0.0516831167238056 0.03764961551039034 0.0244607145201391 0.10027445749066301 -0.12654177076842296 -0.11288164993590015 0.18127247221607168
-0.0353576163416342 0.0722131663765625 -0.1811330950618712 -0.033655031099763186 0.14609919708516067 -0.1837049737850099 0.06040399772810341 0.07854247830299807
0.03451901036801742 -0.0812163541225858 -0.09903479699291998 -0.17748908181385614 -0.08641312472229334 0.04903332787248666 -0.04948553655677667 0.11151766968535681
0.15154064258561625 0.11861724356934095 0.15067570141144948 0.07348976468161925 -0.11074058638981958 0.010054656198523953 0.0017041424123111363 -0.11371033609628947
-0.10703945842207016 -0.09608501747912321 -0.03870692007757951 -0.049497988557702516 0.12037200422782385 0.06448814747200211 -0.08070151277564985 0.020186292940261637
0.05467488103188688 0.060264316172749736 -0.09685822076104689 -0.0704537584824434 0.03815866118735172 -0.15505397569665308 0.06815712603231477 -0.18990128712386098
0.12077439205889126 0.015990973989885318 -0.20501762895903747 0.20774932549172465 -0.011086893343365777 -0.02218922177976932 -0.1032743365685199 -0.10329753159461344
-0.022639055698127186 0.014470542371535394 0.0211942825894915 0.10490639854109302 -0.01051099071868664 0.08295583454814162 -0.012218460243817678 -0.1120617069498517
-0.04586867635495961 -0.020744034936655765 -0.08507413055890942 0.06960033761154663 0.14443303529982593 -0.0628325181196001 -0.047908208797981786 0.05432907726515093
0.14303853095362462 0.16572713252342725 -0.2565076586257733 -0.056134169289973994 0.1534309170268372 -0.22531069232497153 -0.01657942691383634 0.21830880007236925
-0.0179493182805269 0.06629032878294007 -0.03983585874967214 0.04845803592276125 0.036000043813013825 -0.0065564193550573776 0.039571341371000164 0.014103313705973472
0.022827967233566206 0.05885408652600372 0.21993474789804618 -0.11591098244510556 0.08666358360304088 0.15268565001763584 -0.07402871792970434 -0.04746113121901226
-0.015787680243333324 -0.09084294495979972 -0.031312249486891756 0.06475620310548932 0.054104795561746605 -0.03951885196690071 -0.11896370971561304 -0.13559206072901325
0.10700978122794533 0.03434665797311999 0.0004266524502712245 -0.14469090362806028 0.11098088726067115 0.09648384213729821 -0.2064049033876335 -0.05713123444499925
0.15972070386812298 -0.0015421869571321622 -0.1613733248457942 0.11461109869391264 0.12337485982979426 -0.14492352893061494 0.12894506260505267 -0.09709679350906922
-0.007571170064751044 -0.08798922295835793 -0.17458001175412757 0.04913759276519266 -0.08701292923614598 -0.06997223427682762 -0.13560303253919673 -0.05431702033274741
0.1669281132310075 -0.10216414250582613 0.1383266610775753 -0.09799689499324166 -0.10579965594159185 -0.002231942270342135 0.15686079744222337 0.04393829095357019
-0.10704310250839075 -0.09877968682811153 -0.14586862237035875 0.024012799250325876 0.03908446435773606 -0.11929042865717951 -0.09979976445569833 0.06972835377519478
0.12633465943691763 0.01607811387077305 -0.07028240507730285 0.11960827045153707 0.15982612415490544 0.134506279884549 -0.11834750223674602 0.056857708617848016
0.10767263859670897 0.1525441255276731 0.06933802675226117 -0.06495090965282513 -0.11566439479944107 -0.092585840439453 0.07108133682623954 0.1605661693156985
0.05791526019069122 0.08718862309765502 -0.1585165117837451 -0.06307100327509897 0.15905369307899314 0.07885261881750497 -0.15824462791703625 0.08324810894480902
-0.09758144604981525 -0.13802984908644622 -0.18442813115648538 0.1223378082466817 0.13950300668415144 0.12563716147019413 0.06543134493143657 0.08909055990897952
0.058134486310412806 0.18140147944267265 0.15353647892931804 0.11438425449548953 0.15303858718470248 0.015772815654321117 0.11271355031781774 0.14867035421725128
-0.15027342836775293 -0.009189360742576782 -0.058178602046822514 -0.00322556100240116 -0.09538048500193282 0.09303363060248902 0.015582625678657133 -0.007487221706018024
00000000: 3297 51b5 98b0 bb3f 42d1 2416 275b b43f
00000010: 36e9 afe1 9dfb b2bf cfe6 20e0 598e b03f
00000020: 8e6d 36e3 56a1 c13f 9ce3 ec2f 43fb bb3f
00000030: e631 34cd e141 b6bf 2ccd 648f 2728 c2bf
00000040: c381 153c 926c acbf a51c 7fe8 b006 c0bf
00000050: ac59 4070 d34e c4bf 9668 08d9 3c21 c7bf
00000060: ed65 49ab c67a bb3f b0a4 21f3 aaf0 b2bf
00000070: b2bc 3527 d659 c03f b455 b931 b099 92bf
00000080: a950 3b7c 454c bfbf fad9 e5a7 c66f b43f
00000090: 03d8 bb8f 5e99 c03f 1c00 a466 bebf c93f
000000a0: 7ead 7bf9 e1a7 a43f ac38 158d 2ef9 ad3f
000000b0: e52f 0f7d bc68 95bf 6db0 f3f7 e0d3 c1bf
000000c0: 6097 84de 1bac b8bf af66 5628 7e3a c2bf
000000d0: 2a55 5494 a1b6 933f 25c6 13ae c5b3 b1bf
000000e0: e84e 1c67 3de8 85bf 62a8 37f5 5b00 bdbf
000000f0: 1bd3 05f3 d15d b33f 5c2c aa09 4a54 a83f
00000100: 4a33 c622 eda6 b7bf 041a b1ef bed2 c1bf
00000110: 2c6f 45bd 4b8e a3bf d22c ec1f 04a6 b23f
00000120: 6604 b6ad 2688 cbbf bcf6 5586 07ef b53f
00000130: d2c5 d714 8dc4 a43f f773 e1e0 7734 943f
00000140: 217c dcd7 35b9 c2bf 4eac e17a e654 a43f
00000150: b444 5358 e2c4 aa3f 2c16 6da8 9a35 bd3f
00000160: 2084 a875 a7dd bf3f 526c 9ee6 fbba c2bf
00000170: 5c96 038d 22cd c5bf 049d acc0 5e5e babf
00000180: 58d7 d221 4746 b73f c069 83a3 3931 ca3f
00000190: 76ad b8fb 0ac2 b4bf b50e 5610 0ff8 cabf
000001a0: 298e 5778 ac0f 90bf a4cd 2bb1 db72 b53f
000001b0: 28a9 2c3a 9d15 9a3f a4dc 2544 de10 b8bf
000001c0: c6a3 c54d 6686 bdbf d893 68ff a898 c3bf
000001d0: f76a 231b 6fbd bd3f 003a b80c a8cb c1bf
000001e0: b4d6 db82 a9ae c5bf 80c3 0710 fad5 be3f
000001f0: 1af2 9ca6 cc8a b23f 12a1 53d5 ae96 c2bf
00000200: bed7 3d29 3100 a53f 980e 2ba0 3576 aabf
00000210: 8cf0 a576 cf46 a33f a268 9ac3 3a0c 993f
00000220: 09ea 8b3b 96ab b93f 839f 834f 8532 c0bf
00000230: eb0f cbd2 cfe5 bcbf e8a2 eab5 ef33 c73f
00000240: 9823 b4bb 641a a2bf a88d ede3 8f7c b23f
00000250: 9eca c187 5e2f c7bf 7eb4 d673 3b3b a1bf
00000260: 92ef b9e4 60b3 c23f ab73 4203 a583 c7bf
00000270: da68 94d5 45ed ae3f 967d a81f 5c1b b43f
00000280: 31e9 3dc9 79ac a13f 3a5b db50 98ca b4bf
00000290: b226 402e 585a b9bf 70cf e454 f6b7 c6bf
000002a0: 889e a0a8 2b1f b6bf 49b4 4077 e51a a93f
000002b0: 0fd2 4512 2b56 a9bf 7088 3908 6c8c bc3f
000002c0: 17c4 f50b af65 c33f 743a df1d b35d be3f
000002d0: c098 ee64 5749 c33f 5ef6 e5a7 39d0 b23f
000002e0: db56 e2bc 7e59 bcbf 7689 5c1c 8997 843f
000002f0: c43a 6efb b0eb 5b3f f22f c0de 1e1c bdbf
00000300: 6ee9 4d1d f066 bbbf 2e5b b517 0799 b8bf
00000310: d563 b9b7 64d1 a3bf 446f 25e4 cc57 a9bf
00000320: b431 831d b3d0 be3f 2533 5f94 4b82 b03f
00000330: c0f0 1bb6 daa8 b4bf 7f0a 0630 b7ab 943f
00000340: 7ea8 e393 58fe ab3f afd0 27e6 f6da ae3f
00000350: 4077 844a b3cb b8bf f0f7 8fec 4109 b2bf
00000360: 47b7 b733 8889 a33f 06af 5d05 cfd8 c3bf
00000370: 0c53 4cd3 be72 b13f 2f28 d574 af4e c8bf
00000380: 0e54 1610 12eb be3f b45e 4519 f05f 903f
00000390: 7ec3 bd85 043e cabf d862 60a7 8797 ca3f
000003a0: 468b 97a2 b9b4 86bf 9aa0 7877 c5b8 96bf
000003b0: 97f0 13da 2f70 babf 12d6 f4ff b471 babf
000003c0: 60d6 574f b12e 97bf e3d3 ed51 bba2 8d3f
000003d0: ba10 563a f4b3 953f f408 e04e 25db ba3f
000003e0: f221 154b c986 85bf 328b 65f4 973c b53f
000003f0: 42c5 3cf9 fd05 89bf ddc9 7b76 13b0 bcbf
00000400: bff1 b561 197c a7bf dd60 8f9e ec3d 95bf
00000410: 5674 7c10 6bc7 b5bf e207 d5e5 53d1 b13f
00000420: ee91 891d c87c c23f 4ff2 72ba ca15 b0bf
00000430: 569a febb 6c87 a8bf 94bf 2654 05d1 ab3f
00000440: f8c0 412a 164f c23f bebd 1ff3 8b36 c53f
00000450: 9c28 3e19 9f6a d0bf e7be 932a 9ebd acbf
00000460: ccab 69d1 9fa3 c33f 92c8 7c13 fbd6 ccbf
00000470: 6e80 8681 32fa 90bf b2b2 5ef2 8af1 cb3f
00000480: d85d 005c 4e61 92bf c9ef 292a 67f8 b03f
00000490: e569 139d 5d65 a4bf b686 08df 7dcf a83f
000004a0: 53b5 a905 996e a23f 1d61 576b e7da 7abf
000004b0: 6137 18e2 b142 a43f ab1f 0fb9 32e2 8c3f
000004c0: aa2e cff2 3660 973f a9f3 ba71 1f22 ae3f
000004d0: 46f1 bc62 d226 cc3f 5855 d996 57ac bdbf
000004e0: ec47 54a9 952f b63f b676 b210 348b c33f
000004f0: 400f 79ca 8bf3 b2bf bb69 d54c d34c a8bf
00000500: 209e 4c49 a52a 90bf 08b7 acb5 7b41 b7bf
00000510: 3752 05bf 2808 a0bf 1e1c 8dce dc93 b03f
00000520: dc2a fdae 9fb3 ab3f 7bee 8ba1 d03b a4bf
00000530: 6caf a3da 6774 bebf 6ed4 36a5 145b c1bf
00000540: 4ee4 b936 fe64 bb3f a261 7199 e295 a13f
00000550: 22a3 1752 0af6 3b3f 053c 8e45 3b85 c2bf
00000560: 5a01 4451 3e69 bc3f a076 9242 2ab3 b83f
00000570: ac57 e4d2 796b cabf 62f2 0a1f 4e40 adbf
00000580: c0c8 cd5f ba71 c43f 2e90 e4a2 6644 59bf
00000590: 8669 5490 e1a7 c4bf c223 a628 2757 bd3f
000005a0: ca17 1eac 7e95 bf3f 76c5 96ac da8c c2bf
000005b0: a447 6f95 4581 c03f a2fc aae0 55db b8bf
000005c0: 7503 217d f202 7fbf 84b0 0133 7686 b6bf
000005d0: 8e77 8248 a358 c6bf 9b80 dc03 9028 a93f
000005e0: 26fe 65b5 7a46 b6bf 9fd6 d849 b3e9 b1bf
000005f0: 5d44 ffae 705b c1bf 9c00 e4c3 70cf abbf
00000600: cb19 8e81 e65d c53f 8deb e2e2 6d27 babf
00000610: a81c bf22 b0b4 c13f 4c03 1b13 5316 b9bf
00000620: fc7a 32ae af15 bbbf 9982 d8e1 b848 62bf
00000630: 60f8 84bd 0314 c43f 651c 6065 147f a63f
00000640: a631 8940 2d67 bbbf 9694 6f24 a049 b9bf
00000650: 1af0 4bb1 d2ab c2bf 89bc dcad cf96 983f
00000660: 7274 6500 e102 a43f c6f3 ce49 d189 bebf
00000670: a458 7c34 7a8c b9bf 5581 11a7 b7d9 b13f
00000680: 8601 51ef bb2b c03f 7a7c 06f5 c776 903f
00000690: b68e 4a17 07fe b1bf 3ea4 ebc9 a59e be3f
000006a0: 3658 25b4 2e75 c43f 34fa 9a74 8037 c13f
000006b0: 658c ab9b 054c bebf 120c 141e 741c ad3f
000006c0: 8a67 721d 6f90 bb3f 964c 2bdf 9086 c33f
000006d0: 8e27 450d 23c0 b13f e0e8 cd70 9fa0 b0bf
000006e0: cca8 f988 2e9c bdbf 8c97 c2a4 b4b3 b7bf
000006f0: 1250 06f1 6232 b23f be07 07a7 6e8d c43f
00000700: caac eaa8 11a7 ad3f 9ca6 c95c fe51 b63f
00000710: 0a5c fee0 444a c4bf 3178 64d8 6b25 b0bf
00000720: b688 0a15 df5b c43f 726f 066b af2f b43f
00000730: 1aef d526 5c41 c4bf 462e 5f81 bf4f b53f
00000740: e2f7 7aff 18fb b8bf 685b d94b f6aa c1bf
00000750: c4c6 e34b 579b c7bf 6edb 7bd5 8751 bf3f
00000760: 0278 b309 3cdb c13f e99f d6e5 e014 c03f
00000770: 0223 9dce 1bc0 b03f 50ff 3091 a3ce b63f
00000780: ca2a f2aa cdc3 ad3f 6a7e d3e6 2938 c73f
00000790: f648 df55 15a7 c33f aa47 3c58 4948 bd3f
000007a0: eafe 7db7 c496 c33f 07c6 9abd bf26 903f
000007b0: 1a5b 6e94 cbda bc3f e4b8 9f52 a107 c33f
000007c0: d80d 26e2 283c c3bf ee54 e21e dfd1 82bf
000007d0: c877 3cf2 95c9 adbf 56b5 87e0 7d6c 6abf
000007e0: 1d8a c2ff da6a b8bf 5fa7 dd50 0dd1 b73f
000007f0: 18b7 679d c8e9 8f3f 100f d8c5 ebaa 7ebf

body.conv2.2.bias f8 [8]
-0.009689196944236755 0.04775978624820709 -0.03811727464199066 -0.10871773958206177 0.026579737663269043 0.1153961569070816 -0.04320555925369263 -0.002619788050651448
00000000: 0000 0000 eed7 83bf 0000 0080 f873 a83f
00000010: 0000 0080 1b84 a3bf 0000 0000 edd4 bbbf
00000020: 0000 0000 b837 9b3f 0000 0040 9a8a bd3f
00000030: 0000 0000 0a1f a6bf 14ff ffff 1776 65bf

body.conv2.3.weight f8 [8]
1.006333616393152 0.9893640584169813 1.0409279617552796 1.0069009033945155 0.9805684244764643 1.0134907711149743 0.9770997979946789 0.9830139025167737
00000000: 4b62 3447 f119 f03f fda3 57d0 dea8 ef3f
00000010: 9fb1 1314 a4a7 f03f dc46 261f 441c f03f
00000020: aebb 5308 d160 ef3f 43c9 4b19 4237 f03f
00000030: 5e17 aacb 6644 ef3f fe54 5a92 d974 ef3f

body.conv2.3.bias f8 [8]
0.013254889939371526 0.032625148890414464 0.0445727336597689 0.024911962279984674 0.010680119106551419 0.022778054236724625 0.023348761009626105 0.014093723749679118
00000000: 45d7 6936 6125 8b3f 31de 0557 3eb4 a03f
00000010: 735b b9c2 3cd2 a63f b53d 167d 8582 993f
00000020: be7c 3d52 75df 853f 7e90 0d58 2153 973f
00000030: b9fc c0d3 bce8 973f cb7a ab94 2bdd 8c3f

body.conv2.3.running_mean f8 [8]
-0.19896652374009138 -0.1951975354022879 -0.15204067156340392 -0.1593121534134873 0.10272847884818895 -0.019762244331018784 0.4189159210954005 -0.16711257265355234
00000000: 3433 3b2c bc77 c9bf 3804 689b 3bfc c8bf
00000010: cf6a 0398 1176 c3bf e614 6234 5764 c4bf
00000020: 1a53 05e1 694c ba3f 399f 63c4 8d3c 94bf
00000030: b738 38b9 84cf da3f 3a12 26dd f163 c5bf

body.conv2.3.running_var f8 [8]
0.05157848974647639 0.060867427633015815 0.0499128882966176 0.06252001223229564 0.0375065345548683 0.06933931822389082 0.2680994721376185 0.03659136549007522
00000000: 81c0 46ed 7e68 aa3f 55a1 26f6 032a af3f
00000010: 0708 c49d 2e8e a93f 581b e2bf 4f01 b03f
00000020: f051 9976 0e34 a33f 6f3a 19b8 38c0 b13f
00000030: d5fa 39b0 8a28 d13f 0c14 317c 1abc a23f

body.conv2.5.weight f8 [8, 8, 3, 3]
0.00627915506979094 0.014699094606327037 -0.11979558277225759 0.03296987065820198 0.07684414291820911 0.03691979322754851 -0.011345834916798426 -0.013986197068563218
-0.1391932043163141 0.07676379230716722 -0.035450812504103354 0.023527945525584675 -0.07962680860048232 -0.06265863103718929 -0.07118577416866229 0.03526080132948944
0.08229777675273864 0.012151005716397215 -0.022907640377869944 0.10474057182335522 -0.11790818324593655 -0.14835412845610288 -0.07365390096336383 0.014606444309107673
0.09957884558823843 0.08977074273382912 -0.03690621498182814 -0.055257424265196295 0.09113293276411505 -0.07828918461649242 0.08596021174054155 0.022097530633928386
-0.0907867128849463 0.08311881720123018 -0.14366989173914818 0.061341020156156556 -0.009291803114614132 -0.0715496788979848 -0.01821892957114802 -0.05481023905518953
-0.012247197949923353 -0.0358414893181955 -0.09870169984700453 -0.0521670200718609 -0.09452066701634892 0.03796187788699645 0.07692485964208332 -0.017267130086564934
-0.11642054766984533 -0.07270506447666496 -0.0088681442505468 0.10546624500757774 0.06729661366690026 -0.048220865740445706 0.11599934586112046 0.05631491659439445
-0.02269059198654244 0.055036074800684134 -0.12560433900635154 -0.13346151692711375 0.04083182533608405 0.04643806876243708 -0.07735691227432834 -0.043039408738349466
0.07656088575543045 -0.0777759448253495 -0.07091304881463556 -0.054489642245284825 0.051395027710982075 0.1182588841095027 0.08330189468895065 -0.032957618776273616
0.0008446953512630702 -0.06902351683265104 -0.09952866654451809 -0.052400411660147035 0.017984117018610208 0.030598264692032376 -0.06687858540849287 0.015123697177818383
0.004488975882598337 0.023869072525803184 -0.01968855835351866 -0.09397752712660865 0.09295136741008653 0.03643655763184483 0.061417059680368764 0.01875591920182205
-0.037422554092832974 -0.05442397444683224 0.04137472457614466 0.08715051320447875 0.0826234040687428 0.07581696604519833 -0.10734718496642523 -0.07019718829797797
-0.008327145550774379 -0.10258442753315947 -0.05714560914213049 0.054904342621905536 -0.012082131401410704 0.06109040249523161 0.08332409466810743 0.015589475740243858
-6.297917901748563e-05 0.07466988130059903 0.08749689430394728 -0.014608765880562306 -0.0783852319098837 0.09084893371448427 -0.09221614119116928 -0.005271175322510968
-0.008618731445005997 0.10568893104915822 0.03302046931572909 0.01934986936738647 0.017443863915616056 0.12358058751007436 -0.10000909846278255 -0.108806494646256
-0.052300142655450146 -0.016433226823396416 -0.11476451328150518 0.11929351628583235 -0.03773284526491891 0.07458896167692662 -0.12766629164887383 -0.10335261164829396
0.003242840409173541 0.055891470490442144 -0.08448828430645769 -0.049997058244162146 -0.08040661597967405 -0.08565540780398584 0.002908304948247213 -0.08111026939126786
-0.011976741703563843 -0.03482487251040543 -0.09007765528716527 -0.015612102266131257 0.03793131545488239 -0.10130047833967432 0.02828224420043355 -0.1076269942206248
-0.015382618732724385 0.10077026383968216 0.020368856801840557 0.030958989869452856 0.08487920602634436 0.11818388431286009 0.08877355446529264 -0.01270128445209953
0.1393280193182897 0.03896226271493956 0.08418281771140482 -0.056281445357319174 0.13610091985634135 0.12085767340579005 0.05809303593356127 0.009066096568359168
-0.04780727551104997 -0.07374668145895052 -0.03421187028928869 -0.07497515140697938 -0.04855905861299613 -0.004079255686522482 0.07762034817062893 -0.026826906071150833
0.0118130908428276 -0.1075291176412771 -0.08904091927883864 -0.09936739648153596 -0.08053069815886674 -0.016395598624250433 -0.1280128724144344 0.04858465471063182
0.09888878145026878 -0.0768746556062967 -0.01761362499626205 0.10917215296458993 -0.07227299103923554 -0.004910559486298473 0.03141733751748248 -0.03876709370282404
0.028103278214297138 0.08392954257346469 -0.05423039794253521 0.03975193432285282 0.061764103406503595 0.016413765663089802 -0.08083714764826669 0.04329724164736044
0.07311080705481465 -0.013691160136833594 0.08873271676866679 -0.09246270021012036 -0.01651381077607246 -0.05719169592423802 -0.08970921537690241 -0.01725266857061047
0.07597417951665861 -0.0174678113134014 0.09691724229170615 0.10243547348333956 0.033001373411566615 -0.047712078883609885 -0.012686492676749902 0.07084406512394917
0.06968291434405202 0.049181783085037005 -0.05907013546087521 0.0596169246542661 -0.0068244311494419325 0.08532488121539786 -0.02456019823472634 0.01709150713306353
0.023512629127667745 -0.0012565443985420978 -0.09154133021239294 0.07626690375068293 0.020845094162834497 0.0271037181422539 -0.0924840220978369 0.006565972208495627
-0.09984439212818211 -0.04135210438097301 0.02880987909960865 -0.05237116259201816 -0.11849834487725297 0.04978280652136963 0.0281197286728209 0.056300436571618304
0.005277490045141121 -0.052573807457671144 0.036636655840852336 0.03516950004647048 -0.03455974189398317 -0.11337342537425135 0.01659399892315372 -0.030333402810393418
-0.16115112998630451 0.05102383237005524 0.02039872350719062 0.08177017138118307 0.12521695014644124 0.03478370348179643 0.009203367822447302 0.16011279081403892
0.06534919383612284 0.050908225633476384 0.09141012592240168 0.030138278342002327 0.10117080849069801 -0.04039629049752336 -0.03793808733084622 -0.0812444361751418
00000000: 0a80 bdda 2bb8 793f 0e7d eb14 8f1a 8e3f
00000010: ab4c 365e ecaa bebf 7ced 7548 6de1 a03f
00000020: 3b0d b9c8 0eac b33f e78c f9b0 26e7 a23f
00000030: 47c6 4e2f 7c3c 87bf d103 0a98 cba4 8cbf
00000040: 0c98 2e3a 15d1 c1bf 87e9 79b9 caa6 b33f
00000050: a6bc a4e0 9b26 a2bf 1e3e 4cb2 b517 983f
00000060: a0ec d22a 6c62 b4bf 71ea 1d63 650a b0bf
00000070: 3cae fe1b 3b39 b2bf 37f2 1429 b40d a23f
00000080: e0bf af93 7711 b53f a2cf 5261 a0e2 883f
00000090: 1a84 01b9 1975 97bf b4af 8b32 47d0 ba3f
000000a0: c0d9 f80e 3b2f bebf 9d07 f9a0 44fd c2bf
000000b0: cc47 dc67 fbda b2bf 9c9c f2c4 fbe9 8d3f
000000c0: 6cc7 2ccd ff7d b93f d8ee 2d24 37fb b63f
000000d0: 1471 bb14 5fe5 a2bf ee11 297c b34a acbf
000000e0: 1079 cfe5 7c54 b73f 74ef 8e8f c20a b4bf
000000f0: fecf 2e0a 7d01 b63f 0090 942d bca0 963f
00000100: 468f c04a cc3d b7bf 8abd 8f59 4647 b53f
00000110: 9a41 3867 c663 c2bf 18ac f216 1768 af3f
00000120: 1c30 fcb3 9407 83bf 30f9 e76a 1451 b2bf
00000130: e26f b4aa fba7 92bf ecb9 7470 1610 acbf
00000140: c2eb 4c15 0f15 89bf 9c54 ecd0 d059 a2bf
00000150: c209 e7bc 8344 b9bf bede 46ba a2b5 aabf
00000160: 7c9e a1a5 8132 b8bf 2fee 0940 bd6f a33f
00000170: e281 69fc 58b1 b33f eefe 117c 79ae 91bf
00000180: 880b d3ac bccd bdbf 034c 2e92 cc9c b2bf
00000190: 302b 422c 7629 82bf 49b4 23f9 d5ff ba3f
000001a0: c4b4 d4d2 593a b13f 4017 aec2 67b0 a8bf
000001b0: 36b6 d414 22b2 bd3f 6d8b 190a 4fd5 ac3f
000001c0: 204c 09da 333c 97bf fa00 bd3a b02d ac3f
000001d0: 124d 2290 cd13 c0bf 15fe 3c59 4415 c1bf
000001e0: aaaf e8b4 e8e7 a43f a385 3f05 bbc6 a73f
000001f0: d478 56a0 a9cd b3bf a4d6 f0e9 4209 a6bf
00000200: fbec 7884 7e99 b33f 84bc 70d3 1fe9 b3bf
00000210: 28bd 8489 5b27 b2bf 0c17 d4fe 10e6 abbf
00000220: 6630 64f6 7250 aa3f 7036 b6d7 3646 be3f
00000230: e745 62e1 4553 b53f 97a4 982d d2df a0bf
00000240: a02f 5274 d1ad 4b3f 067e 7373 86ab b1bf
00000250: e0bc d2ef b57a b9bf 5929 c10c 3ad4 aabf
00000260: 15fc c4a9 6d6a 923f 34a1 aac8 2655 9f3f
00000270: 26d9 2179 f41e b1bf 8ccb 2f46 2cf9 8e3f
00000280: 0491 bb49 0863 723f a465 8957 2271 983f
00000290: 3a5c efc8 3c29 94bf 3657 9145 e90e b8bf
000002a0: bc11 252b a9cb b73f ffaf d0fe cfa7 a23f
000002b0: 89c1 7c8d 0e72 af3f 3b1f 506e c034 933f
000002c0: da4a ec8b 0c29 a3bf e226 bc8c 75dd abbf
000002d0: 4000 df61 112f a53f 60f8 0afc 7e4f b63f
000002e0: 8004 5cb2 ce26 b53f cc64 a59d bd68 b33f
000002f0: 069b bfe8 1a7b bbbf e2ce 0264 71f8 b1bf
00000300: b013 7a8e d20d 81bf 0a74 5519 f942 babf
00000310: dc3a c074 3042 adbf 7a5d f007 6c1c ac3f
00000320: 4f59 e139 84be 88bf d60b a2c1 3d47 af3f
00000330: 097e 9155 ba54 b53f d0a3 ba03 60ed 8f3f
00000340: e0cf 8c0e 7682 10bf 8fa9 2eba 901d b33f
00000350: 4a7a 894b 3266 b63f 9c15 895d 33eb 8dbf
00000360: e2d5 8af7 0d11 b4bf 6420 2e2f e041 b73f
00000370: f052 941e 7a9b b7bf f358 f259 3a97 75bf
00000380: b1b3 838d b2a6 81bf f0c3 6706 6e0e bb3f
00000390: 8e87 9e17 0fe8 a03f 5f8d 75c0 73d0 933f
000003a0: 873f 22e4 cddc 913f 5eb7 c635 faa2 bf3f
000003b0: 6c39 333f 329a b9bf 061b 1910 beda bbbf
000003c0: a205 9094 15c7 aabf bcd1 182f dfd3 90bf
000003d0: 7111 4907 3561 bdbf ec8e 1217 058a be3f
000003e0: acb3 cb30 b851 a3bf ef84 0b1f 4318 b33f
000003f0: 4a7d b779 5e57 c0bf 0451 fc16 5175 babf
00000400: e40f 1db0 ba90 6a3f 0a7b c38b ce9d ac3f
00000410: 76cb fd31 06a1 b5bf b419 1ce4 3699 a9bf
00000420: 6ac5 032a 8795 b4bf a860 3e47 83ed b5bf
00000430: d6eb 7654 28d3 673f 28be 6782 a4c3 b4bf
00000440: 6781 6f0f 4387 88bf de03 0ad1 90d4 a1bf
00000450: 5809 8f47 540f b7bf 671d 3de5 3cf9 8fbf
00000460: 22f7 bebe bb6b a33f 24be 8901 d4ee b9bf
00000470: 7ae8 9747 05f6 9c3f 4628 5854 718d bbbf
00000480: fa33 1223 ec80 8fbf 32c9 997b 14cc b93f
00000490: 0883 48d7 92db 943f b6a6 06a4 b6b3 9f3f
000004a0: 405c fec5 a4ba b53f 28b9 098e 4c41 be3f
000004b0: 6698 2d19 ddb9 b63f 0f31 b68a 2103 8abf
000004c0: b6ba 3123 80d5 c13f 2614 4798 dcf2 a33f
000004d0: 12a3 f450 018d b53f f2d2 5cee ebd0 acbf
000004e0: 4587 de43 c16b c13f d39e bf4a 87f0 be3f
000004f0: ec84 ebd2 5ebe ad3f a49b 1be2 3e91 823f
00000500: 6961 a9f9 317a a8bf 4402 0e01 10e1 b2bf
00000510: 0913 0ee0 3784 a1bf 6e3d 4e4f 9231 b3bf
00000520: eeb0 55a1 bbdc a8bf a00b 40dc 68b5 70bf
00000530: caa0 e558 edde b33f 8cf0 e930 8378 9bbf
00000540: 194e ad36 7631 883f dc13 a33b 0787 bbbf
00000550: 82f2 4ebc 62cb b6bf db46 2d46 2470 b9bf
00000560: e297 eaea a89d b4bf 9ed8 8eff 01ca 90bf
00000570: 8d56 3ece b962 c0bf b6a4 237e 16e0 a83f
00000580: 8e2b 4572 c650 b93f 1066 b8b3 0eae b3bf
00000590: 5bb4 4a5d 4e09 92bf 20e8 9dca b4f2 bb3f
000005a0: 46ca e594 7b80 b2bf 7522 6146 181d 74bf
000005b0: 6678 54ea ee15 a03f 6eac 3acf 47d9 a3bf
000005c0: 7ef9 5c13 1bc7 9c3f fc71 8510 687c b53f
000005d0: 6979 3933 16c4 abbf 0c21 bd93 5d5a a43f
000005e0: 4c38 6568 8b9f af3f 78a1 e82a c5ce 903f
000005f0: ba83 7349 beb1 b4bf dacc c359 0e2b a63f
00000600: 38db 48cd 63b7 b23f c888 4168 1c0a 8cbf
00000610: b84d 9bf4 2fb7 b63f ff97 80b1 a2ab b7bf
00000620: b4bc dc14 ffe8 90bf a2db 31df 3a48 adbf
00000630: d490 31e2 2ef7 b6bf ff34 1efd aeaa 91bf
00000640: ae4e 5d38 0b73 b33f 2b87 4bf9 14e3 91bf
00000650: feb6 0f82 91cf b83f 06ac 8f10 3639 ba3f
00000660: c030 0d57 8ee5 a03f 26ca dbb4 b76d a8bf
00000670: b140 2e39 60fb 89bf cab3 d22e d622 b23f
00000680: ae9a 324e bdd6 b13f a782 d1cb 5a2e a93f
00000690: 4a12 f3d7 703e aebf f838 5b0b 1c86 ae3f
000006a0: 4b4a 9c49 eff3 7bbf 9aef 5af6 d9d7 b53f
000006b0: c442 ce00 4f26 99bf 4614 b4a0 6f80 913f
000006c0: 48d2 95d4 b113 983f b4e2 4046 5496 54bf
000006d0: c69b 7eab 406f b7bf 5259 6051 3a86 b33f
000006e0: 167d d896 6a58 953f 677c 15bc 13c1 9b3f
000006f0: 7010 506a 08ad b7bf f051 6ebe ebe4 7a3f
00000700: aa29 e1ee 668f b9bf fdc5 df5f 1a2c a5bf
00000710: a45c 2342 5680 9d3f 9524 2c9d 64d0 aabf
00000720: 10c0 e053 e855 bebf 3823 d3cb 217d a93f
00000730: eab0 160c 6bcb 9c3f 0eb8 a62b 69d3 ac3f
00000740: 0ead 6172 d99d 753f ff54 503f f4ea aabf
00000750: 76b0 572d 0ac2 a23f 6353 0899 bc01 a23f
00000760: 64be 6282 d0b1 a1bf b2c8 3772 0a06 bdbf
00000770: 603d bd6a 04fe 903f bd29 3034 b80f 9fbf
00000780: 7b97 80a8 99a0 c4bf 6e23 b1b6 cb1f aa3f
00000790: 5dc6 5f29 67e3 943f dbd8 ded3 e3ee b43f
000007a0: 7654 e4e8 1b07 c03f 07b2 c669 2bcf a13f
000007b0: a4d7 7b1e 37d9 823f dfd9 1b70 937e c43f
000007c0: d29a 588a b9ba b03f 2ce7 6298 a410 aa3f
000007d0: 2526 5c6d a766 b73f 7eb9 589f 91dc 9e3f
000007e0: 7605 c781 54e6 b93f 9016 2295 d2ae a4bf
000007f0: 8cb1 b7f8 9e6c a3bf 6aac 5a74 6fcc b4bf

body.conv2.5.bias f8 [8]
0.0214429572224617 -0.03854038566350937 0.015480436384677887 -0.015024974942207336 -0.014916472136974335 0.09835050255060196 -0.0780726969242096 0.11779295653104782
00000000: 0000 0080 24f5 953f 0000 00c0 90bb a3bf
00000010: 0000 0000 35b4 8f3f 0000 0000 6ac5 8ebf
00000020: 0000 0000 878c 8ebf 0000 00a0 7f2d b93f
00000030: 0000 0080 92fc b3bf 0000 00e0 ad27 be3f

body.conv3.0.weight f8 [8]
0.998678431831202 1.0132210315446997 0.938346291666682 1.0315028943464886 1.0360582021464808 0.9582975428128944 0.9811693344560201 1.0351784686607162
00000000: 41f0 7d78 2cf5 ef3f 73a9 a141 2736 f03f
00000010: 3800 61cd ee06 ee3f 0229 cf2d 0981 f03f
00000020: 0d8c efc3 b193 f03f 4afe c69b 5faa ee3f
00000030: 4374 6a3b bd65 ef3f fabc 464c 1790 f03f

body.conv3.0.bias f8 [8]
0.020683370271725537 0.043974659239957685 -0.0012381814875284253 0.07379725379028441 -0.014727010817255387 0.0002233989544336084 0.016399249736870493 0.03854600954851869
00000000: 486f 8d7b 052e 953f 3fa4 93b6 d883 a63f
00000010: 4068 b53f 4f49 54bf ad5a 9077 60e4 b23f
00000020: 50a4 9fee 3129 8ebf 08c5 1068 0648 2d3f
00000030: 6af7 3105 f7ca 903f 0bec cd74 4dbc a33f

body.conv3.0.running_mean f8 [8]
-0.05086589659790497 -0.19309977043216595 0.4830344361254325 0.014713125283063412 -0.25840198337538267 0.025667535341751296 -0.3420796168567944 0.01523977406525312
00000000: e04b bd44 180b aabf 7785 6f47 7eb7 c8bf
00000010: be08 8044 09ea de3f e739 4d3f ea21 8e3f
00000020: 4a67 f478 a889 d0bf 8b6d 7223 9748 9a3f
00000030: 15cd c1e7 a1e4 d5bf 4066 abd9 0736 8f3f

body.conv3.0.running_var f8 [8]
0.07246508664609297 0.3146785708831628 0.2623163089044776 0.14364693735251352 0.11586848501155743 0.22281446269824504 0.08639598137930163 0.16290706718601913
00000000: b02c 3f69 128d b23f 317e ac96 b123 d43f
00000010: 45f0 fc57 cac9 d03f e7bf 0cd9 0563 c23f
00000020: 1fff c299 8ea9 bd3f edb0 2e2f 2f85 cc3f
00000030: 32a9 870a 0c1e b63f 01f5 ec86 23da c43f
