Coursework2/networks/Weights/Unetk4lr001ep8v1.pt (torch, 308653 bytes, 92 tensors)

conv1.0.weight f8 [3]
00000000: be6f d962 5ad2 ef3f 6d5a 558c fafe ef3f
00000010: cf0c 8649 f3e5 ef3f
0.9944278650905216 0.9998753300558981 0.9968201099403816

conv1.0.bias f8 [3]
00000000: eb5d cf3f d5f6 a13f ebb6 19ec 8274 bf3f
00000010: 7be8 710d 2d1b a83f
0.03508631137782089 0.12287157310648993 0.0470823363220498

conv1.0.running_mean f8 [3]
00000000: b8fd 0371 580d 5f40 627b 22bd 6f8e 5c40
00000010: b82a 0eb7 a0f1 5840
124.20852303876643 114.22556999556903 99.7754342687939

conv1.0.running_var f8 [3]
00000000: 2856 3892 fff3 b140 fed0 b08b aca9 b040
00000010: ad4c 7523 b8af b140
4595.998324891123 4265.674006510757 4527.719291049213

conv1.2.weight f8 [4, 3, 3, 3]
00000000: d72e 78b5 9a92 bb3f b6a4 4971 822e a13f
00000010: 9a97 5507 1be9 b5bf de35 f776 39b3 83bf
00000020: b58b 9740 7be5 bdbf 548f acf3 ad09 4f3f
00000030: a22c 9b58 3402 bfbf fc97 f035 115f a9bf
00000040: 13ae 210a 9d3d b3bf 0775 5004 3345 b1bf
00000050: 2286 fe36 9f15 b8bf cf9f 53c9 0ad9 813f
00000060: a65e 36df ea9e a33f a789 5af7 a3a7 c2bf
00000070: 97d7 8ff3 9e6d c0bf 6bb1 a0d5 bd3c bf3f
00000080: 49ba 4d13 2bf4 a2bf 9500 c852 a25c bbbf
00000090: 4717 0663 2a46 a23f 271b 3f72 1b0d b93f
000000a0: b1d1 dd7a 8475 c23f a341 51c9 98bc bd3f
000000b0: 31df 0b4e b4f1 c5bf a3e7 7539 c09d cabf
000000c0: 4e1c 65bf 7ecd c8bf 04eb cb5a e325 bb3f
000000d0: 873c 4e34 3653 c9bf 50b3 40d0 95a1 a23f
000000e0: d097 3489 0827 b93f 9e8b f7bc db35 bdbf
000000f0: cd7d 693b 38e1 b83f 0dec 1c63 e54b bfbf
00000100: dbd7 9d23 b694 923f d56f 7cce 68c3 bd3f
00000110: e066 d63a 59ec c0bf cf52 d268 1198 7c3f
00000120: c1e7 e829 ae0d c3bf 27bb 8aaf 64db c9bf
00000130: 1edb d16c a493 bcbf 1dc4 05e9 7773 91bf
00000140: 6a05 7416 596a b13f 3409 251c 4480 753f
00000150: 850e 6a83 f505 8e3f ba20 94f9 7485 b3bf
00000160: ef0a 72e1 869b b4bf 78ed d6ec 2846 c0bf
00000170: 2ad6 af82 fa58 b93f a807 c6b5 f640 bcbf
00000180: 78f4 8da9 4749 6c3f e133 c71c 0b5a b7bf
00000190: 9c06 bfa2 9e66 7dbf ecac 25b1 7936 a4bf
000001a0: 67a3 ab53 d736 bbbf 60d2 6614 fa15 c73f
000001b0: 0d5c 33f6 f0ce 8ebf fcef 3899 9386 c53f
000001c0: 7b4f a37c 4baf a03f 8fa5 1d0e 7efa a9bf
000001d0: 318f f406 6361 c13f dfd4 4629 d7a5 c6bf
000001e0: c24e b98d 2484 b4bf 04d1 ab8b e721 c73f
000001f0: 989f c3d8 ae95 bb3f 217d a1d7 7582 c03f
00000200: 9e2d ce3e aa46 c3bf 70eb e706 ad99 aa3f
00000210: a64a cd97 01bd 92bf 2014 6537 6149 bb3f
00000220: c969 d2b1 59f4 c13f 79ec 71a8 b53a ae3f
00000230: 338e ddc5 0ab6 b0bf 762a bff5 d40e b03f
00000240: fb9e c77c 61b5 c73f c15e 63b2 b7ed a9bf
00000250: 3362 1cc9 7a85 b9bf d9fa 0df9 ad9b c23f
00000260: 53f1 7b95 44ce b7bf b98c dcdb 30ff c53f
00000270: d4e2 5651 048a 783f 29b6 c9c4 70b5 c73f
00000280: 494c 24d6 4cac c4bf 3cbb c9ea 5201 b93f
00000290: 8514 595c 3ac1 c43f ffff 4884 d5c8 c1bf
000002a0: 19a7 c71f 4b1a c1bf b4b0 7dde 0d26 b13f
000002b0: e7bf 7f38 a9f5 aabf dce4 55e4 5f86 72bf
000002c0: 6c5c 7b8a 834f c6bf 3fb2 0542 5237 6e3f
000002d0: d01b 47a4 b9c6 cb3f 5533 0d44 e2fb c63f
000002e0: 52f6 8643 b558 acbf 2093 48d3 546a bfbf
000002f0: a71b fb59 0ee1 c93f 0f92 26da a6bd bebf
00000300: 265c 600d 7431 c83f 70be 1505 9bab b2bf
00000310: 725d 7b06 c433 c83f b731 086a f044 b43f
00000320: efde 1ca0 ef3c ba3f 11ec 592b 9178 ccbf
00000330: ba08 61a0 8440 b9bf ce79 3be0 a237 c2bf
00000340: 1458 75f1 80fe a0bf 464f 950f 4d4b bb3f
00000350: 67b7 7007 93a1 b7bf aa6f 09fd 5bb3 c13f
0.10770575457007268 0.03355796463876841 -0.08558815888463159 -0.009619187300724027 -0.1167828591056111 0.000947198808124198 -0.12112738764988021 -0.04955343039937074
-0.07515889642098043 -0.06746214728669396 -0.09407992451317473 0.00871475626850318 0.038321819064717474 -0.14574098184409687 -0.12834536450071418 0.12202059236068911
-0.03701910601272524 -0.1068822338202174 0.03569157084261448 0.09785625018330944 0.14421134948100936 0.1161590091226175 -0.1714387303434193 -0.20793917470637976
-0.19377121301133332 0.10604687658989681 -0.19785192064270893 0.03638904730937631 0.09825185155622695 -0.11410306323482053 0.09718657923212178 -0.12225183171987926
0.018145414279807297 0.11626296082653138 -0.1322127854626194 0.006980960851383513 -0.14885499044777187 -0.2020078522814057 -0.11162784249050303 -0.017042039487424988
0.06802899168180479 0.005249277166799172 0.014659803460069351 -0.0762551411936582 -0.08049815181770346 -0.12714110912734689 0.09901395502659996 -0.1103662675650684
0.003452911344025863 -0.09121770336714931 -0.007177943869409422 -0.0394781140083412 -0.10630555908904925 0.18035818096327016 -0.015043146623083837 0.16816945058405952
0.03258739372691274 -0.05073923036872962 0.1357845100366091 -0.176936049608833 -0.08014133892111899 0.1807221824634625 0.1077527312478409 0.1289813330540506
-0.1505940252940094 0.05195370396901111 -0.01829912652039902 0.10658843614972158 0.1402694814940573 0.05904166871274525 -0.06527774172496308 0.06272631644893942
0.18522280304681957 -0.05064176609601879 -0.0996929875367492 0.14537596379155707 -0.09299114846721084 0.17185030684877292 0.00599099814046929 0.1852246247175782
-0.161508183061047 0.09767645103577832 0.16214684971979323 -0.13894146880375044 -0.1336149125266324 0.06698691064747458 -0.05265549482999159 -0.004522680833695971
-0.1743015695744562 0.003688488635978509 0.21700211068511388 0.1795618850977926 -0.05536428880030243 -0.12271623762405826 0.2021806659087961 -0.12008135629600523
0.18900919583458736 -0.07293099283355686 0.18907976452349434 0.0791769274584969 0.10249231013301217 -0.22242941490898763 -0.09864071765426533 -0.14232288311809643
-0.033191709017657584 0.1066177523655912 -0.09230917865417397 0.13828611235919414

conv1.2.bias f8 [4]
00000000: 0100 0000 c133 973f 0000 0000 02a0 a93f
00000010: 0000 0060 bd8a c33f 0000 0020 6398 bbbf
0.02265836298465729 0.050048887729644775 0.15267150104045868 -0.10779399424791336

conv1.3.weight f8 [4]
00000000: 9172 7e82 3652 f03f f3bf 8e45 35f0 ef3f
00000010: 6135 d0f3 bfec ef3f 7402 914c 2f7b ef3f
1.0200715157908784 0.9980722769305416 0.9976501237849044 0.9837872024000505

conv1.3.bias f8 [4]
00000000: bcde 3e37 7667 8abf 69be 6006 733b 80bf
00000010: 8974 583d 5222 803f 82cf 98d7 56a3 933f
-0.012892650185548298 -0.007925890571726062 0.007877962586514424 0.019177777203551745

conv1.3.running_mean f8 [4]
00000000: 0736 bb7b 4790 dbbf 37ae a387 22e8 d2bf
00000010: 9077 8098 91f4 e13f eea0 9c8c d408 a43f
-0.4306811054528627 -0.2954183888057033 0.5611045816947229 0.0391298696179677

conv1.3.running_var f8 [4]
00000000: 165a db3c 259c d63f 8d49 7be0 ed23 cb3f
00000010: f7fc 1b1c bded d13f aab6 e393 daca ac3f
0.3532803625397788 0.2120339723683852 0.28013541932155256 0.05623515181819745

conv1.5.weight f8 [4, 4, 3, 3]
00000000: 5731 58c5 b7c4 a83f 666e 2e2b 5d71 b3bf
00000010: fe9c af31 e0e2 b13f 7d36 ea70 dd72 c13f
00000020: c887 5c1e e270 b5bf f7d1 9d83 887c b73f
00000030: 94bc 08d4 53d9 b43f 3e0d 1d9c 7bc6 c13f
00000040: 9460 eb55 135e b23f 0d01 3053 b51e 84bf
00000050: b0b6 1fda 58b0 aebf 0b20 957a 9fa1 c33f
00000060: b918 05ba dcb2 c33f 5b57 d446 da37 c1bf
00000070: 0872 cd17 5b06 be3f cea5 322c 01b4 aa3f
00000080: a67f 3409 a1fc b23f 6ee0 d8e3 1563 a43f
00000090: 59e0 5f94 96f8 a13f ad37 4734 4719 c4bf
000000a0: a66d 2609 8166 b5bf a711 e243 11bf bc3f
000000b0: 59a9 e76a f656 b1bf edf3 27be 773e b2bf
000000c0: cf50 811d 0d9f aabf 571f 3d29 28c1 a7bf
000000d0: fb7f 4560 7343 c13f 49b3 2013 f358 bb3f
000000e0: 82ef 3af6 7abb 9a3f bd39 791e aaf7 b13f
000000f0: 2a2b ddf5 0b44 aebf 748d d52f c330 babf
00000100: 8554 99a1 1606 a6bf e43f 10aa c9f6 a1bf
00000110: 7d67 fc0f 93bf a63f ec2b dff8 ca84 b9bf
00000120: 501e fd3e 8da8 8a3f b79b 277f c59a ab3f
00000130: 0d4f f0b3 c365 c6bf ef0a 5f73 3d59 c5bf
00000140: 255b 4ac6 d66b b53f efd8 5f4b 4445 c5bf
00000150: c6d2 dbd7 d90b 9fbf 5715 2e99 0228 bfbf
00000160: 6754 cd87 1058 a03f 750d 3563 32cb b83f
00000170: 3307 83c8 b504 97bf 8aba 38ba e3c3 913f
00000180: 19eb 9373 73ec adbf 1b08 6f33 22f0 adbf
00000190: 86c6 24e2 a2b1 b8bf b5e2 6c13 7cb9 a33f
000001a0: dbc9 5d89 84e8 c2bf 8762 7b48 abd5 be3f
000001b0: af7f ecf3 ed56 9e3f 320e 4fe8 3fbd a9bf
000001c0: 1af0 4644 0e6f a03f c963 1515 337d c23f
000001d0: f1c0 09ca c229 94bf c95e 8f9f b8a8 9abf
000001e0: 9b85 4e2c 044a aabf f831 41df 5576 c73f
000001f0: 9f02 5579 06e4 c23f 35e2 a701 1814 b43f
00000200: 9e89 a6ed ed3a b43f d41d 2d84 df5b b5bf
00000210: 9783 5204 7ce6 b6bf c435 7398 e241 a4bf
00000220: 3ff4 8b04 9491 b4bf a36e cf42 7b57 9c3f
00000230: 5dd0 3710 9d68 b43f 427c 432e c86e adbf
00000240: b6a8 dd86 896f 91bf 91fe 0223 558f a13f
00000250: 7279 e5a5 c85d abbf 0464 fcb7 2852 af3f
00000260: f29b bf63 f868 b1bf 3341 0488 1e4c bfbf
00000270: 434f d02c 612a c1bf 09f6 3a9a b43a a5bf
00000280: 90b2 da73 842e 9a3f 183b d3d4 edb2 b6bf
00000290: 01dc 4493 eabd b7bf 7f24 7d5f aef9 b13f
000002a0: 46fa 73ce 2355 b43f a4e2 ca85 1786 bbbf
000002b0: aee2 8f28 482b bcbf 8c02 9f1b 43aa b33f
000002c0: 626e b8e4 faa3 973f fa27 0c8a eb9f a7bf
000002d0: 0cae 0048 3e68 bbbf 2b9c d089 b447 99bf
000002e0: 0ccd 8ea1 a84a 993f dd6a 5fc8 cc29 b4bf
000002f0: 6492 c244 752a a93f f227 d800 b02d af3f
00000300: cccf d15e 2f28 683f 48bc c06d a4dd c23f
00000310: 92cc a0d1 f584 7bbf 90df f771 d267 c4bf
00000320: a28f 3ee0 5c98 b63f 8c8b 4831 d27f ba3f
00000330: d1bd 3e5f 91e8 a93f e1d4 6dbb 8c3e 983f
00000340: 8a1c dfef 9bfe a1bf 638e 1367 bcf4 a53f
00000350: f36e 1b2a 8558 903f d070 7184 81e3 c53f
00000360: 1803 5049 d9aa 92bf bf1f e2c4 9c11 afbf
00000370: 574b 2ed4 13c0 c0bf 616a 7400 7869 c0bf
00000380: 1372 b715 312d b2bf 1fe8 84e5 ee95 b5bf
00000390: b023 7c43 aeed c1bf 5631 3980 49df c2bf
000003a0: afb2 4f08 98e7 78bf d5e6 8698 37d1 bcbf
000003b0: a0f7 ab0e a4f2 b23f 6f44 2f45 7d8a b43f
000003c0: b77f 2ec2 f500 a7bf 2db8 787d 5c52 b43f
000003d0: 4300 7d89 8b39 cabf dd22 f93b 4a3b b43f
000003e0: 9c4d 510b aa77 bbbf a1d0 46d4 1975 aa3f
000003f0: 11cb 0ec7 ca93 843f a536 d6d6 14ec c83f
00000400: 9bd3 42dd c956 b23f d039 5a12 7253 c0bf
00000410: c9ce 49c6 dd49 bcbf 6468 f514 5216 c4bf
00000420: 1982 8c59 e640 c03f b01c 3a7a 0086 b03f
00000430: e387 9049 3ac6 a73f 2583 68c7 38c3 c13f
00000440: 88e7 9114 b06e c33f 4920 1ac7 b4e6 c4bf
00000450: 61ec 8015 bb35 c2bf 4016 bb65 ea03 c0bf
00000460: ac0d 5ca6 3057 9c3f ed5e 0d79 bf2c 9c3f
00000470: b12f 2763 d52b bebf 3edb c0b6 cd6f 83bf
0.04837583812704576 -0.07594854644997326 0.06986809933697555 0.13631790173933558 -0.08375371209379445 0.09174397671979038 0.08144115378012123 0.13886971590737035
0.07174797866480481 -0.009824196435147781 -0.05993917143483196 0.15336984143709773 0.15389594157222122 -0.13451698740453363 0.1172844822990059 0.052154575963253444
0.07416731333478185 0.03981846243226604 0.035099702465175305 -0.1570214276566139 -0.08359533761397717 0.11229045779516032 -0.0677331934927329 -0.07126568214876246
-0.051994714595510076 -0.04639554503825021 0.13487093163257655 0.10682601181970343 0.026105805662822508 0.07018531078322261 -0.05911290527600095 -0.10230655591799637
-0.043015200830873325 -0.03508596611948159 0.04443034715786973 -0.09968250823946762 0.013016799435390386 0.0539151876180805 -0.17498060499257698 -0.16678588994371732
0.0836767419917633 -0.1661763542212564 -0.030318645286530076 -0.1217042564367906 0.031921879365349785 0.09685053751041102 -0.022478905070563115 0.017348821869911414
-0.05844460283147707 -0.05847269895413395 -0.09646051426968869 0.038524510737663865 -0.14772087771741735 0.12044783134059332 0.029628484738281887 -0.050271985157021595
0.03209728797398288 0.14444578675718692 -0.019690555173327465 -0.026034245241901375 -0.051345949562583836 0.18329881096941825 0.1475837795678858 0.07843160667824452
0.07902419139876435 -0.0834331224151506 -0.08945441346669579 -0.03956516371691124 -0.08034634696009933 0.027677465393806455 0.0797212757677825 -0.05748582424870864
-0.017027043205793922 0.034296665691269664 -0.053449888468764764 0.0611736988632359 -0.06800796923890554 -0.12225523777693041 -0.13410582245034605 -0.04146351225561424
0.0255680747711034 -0.08866774030614655 -0.09274164290842181 0.07021608191748106 0.07942413130147327 -0.10751482979220356 -0.11003542890820014 0.07681674408287104
0.02308647175787682 -0.04614196834707225 -0.10705937631490076 -0.024687596236756242 0.024698862896639404 -0.07876281635200706 0.04915205444675477 0.06089544306094287
0.002948849220553362 0.14738898619677543 -0.006718597631379402 -0.15941839756828502 0.08826237177578247 0.10351289466102126 0.05060247695598331 0.023676108302841285
-0.035145638495628864 0.042882812101905164 0.015962677664773172 0.17100542990636436 -0.018229861354487203 -0.0606812467895561 -0.1308617387809032 -0.12821865102962973
-0.07100207119169281 -0.0843190489148644 -0.14006593985712135 -0.14743918190868993 -0.006080240132160838 -0.11256740068247535 0.07401490553090051 0.08023817957952571
-0.044929199174702665 0.07938173354406848 -0.20488113606734445 0.0790296932619969 -0.10729468132313119 0.051674658930467084 0.010047516059648072 0.1947046326644585
0.07163678790932552 -0.1275465573894068 -0.11050211039565307 -0.15693117164011305 0.12698058483603417 0.06454470619256614 0.04643423221592948 0.13877019631129275
0.15181542400733528 -0.16329059335498844 -0.14226473379116825 -0.12511949508022902 0.027676353601248913 0.027514449847642664 -0.11785634680489811 -0.009490592136086936

conv1.5.bias f8 [4]
00000000: 0000 00e0 025a c4bf 0000 0060 0a11 b9bf
00000010: c3ff ffff dfa6 74bf 0000 00c0 abcb bbbf
-0.15899692475795746 -0.09791626781225204 -0.00504195690155024 -0.10857652127742767

conv2.0.weight f8 [4]
00000000: b15b c3e1 69bb ef3f c515 7d49 434e f03f
00000010: 2e45 5d15 f90b f03f a51a 7627 5f8a ef3f
0.9916276368556877 1.0191071386956179 1.002923091368142 0.9856410761575104

conv2.0.bias f8 [4]
00000000: d09c a09e 80ab 98bf 2d45 3da7 da92 8c3f
00000010: 341d 40a7 0b57 883f b691 8135 4bbd 923f
-0.024091729814384177 0.013951976994266058 0.011884776155069866 0.018300223484759313

conv2.0.running_mean f8 [4]
00000000: 846e 599c 1fb0 bf3f 7182 c9a1 22c8 c4bf
00000010: 5789 ebc7 9a26 79bf e472 8208 d4b9 dbbf
0.1237811810219061 -0.1623576440788557 -0.00614033185294923 -0.43321705657017007

conv2.0.running_var f8 [4]
00000000: 766a 1bb8 aeac c73f bbe5 789e 129f c63f
00000010: c2c7 c884 c6c2 c63f 4f91 21e7 b493 bb3f
0.18495735158542786 0.17672951448348137 0.17781907542808822 0.10772257464265532

conv2.2.weight f8 [8, 4, 3, 3]
00000000: 58d8 10ef 5673 bcbf abe5 d1e6 5252 b43f
00000010: 0a07 9667 5f27 7d3f 8e9a a0d1 eb5a 8dbf
00000020: 49b9 d6af 1e4c bf3f 8b2f f53f b673 a3bf
00000030: 546c decd 605f 79bf bb8d fb1d f63a b83f
00000040: bfd8 8453 b1ce 92bf cd97 912f 0019 ac3f
00000050: 6ee4 a554 e04c a9bf cfff 47bc fbfd c1bf
00000060: 976d 8743 33d9 b83f 62ee f6bd e974 c23f
00000070: 08d0 2e7b 0298 c03f 8df0 9299 f52b b3bf
00000080: b940 5aac 2ef3 c2bf dcc9 0bec c23d 9a3f
00000090: 3928 bdc0 dae3 c3bf 7994 dc6f 2b7d c0bf
000000a0: dc27 16b5 9338 b4bf 9889 affe a28a bcbf
000000b0: 83fe b8ed 1ab4 abbf 03ff 37aa 449a c13f
000000c0: 60a6 c7f7 09d2 a83f fb44 ad09 6028 ba3f
000000d0: 95f8 ce6f e7df a5bf effe 30c8 60a0 b5bf
000000e0: 1006 8f78 dc57 a5bf 0b4a a6a0 752d c5bf
000000f0: 5f2c 2dc7 01e7 abbf c174 16b4 7455 80bf
00000100: 6c3c 952f d4fd c1bf d74d 6dd2 b730 afbf
00000110: ecca a703 4d23 95bf 26bc 6f2c ad58 b53f
00000120: ae3d 8299 e197 c33f 1275 1bd3 7e5a c13f
00000130: df11 00c7 2135 ac3f f9f0 c625 0484 b7bf
00000140: de06 edf3 896f c5bf 46ea 3753 1495 b1bf
00000150: 1085 cf16 6de9 c73f e4df 22aa 2da3 b8bf
00000160: c553 5bd8 c3b8 b6bf 40fd 40b1 81e4 babf
00000170: c26e 465a 07de c1bf 5f26 7c30 4564 a33f
00000180: a282 6005 dd79 77bf ebe4 fc9d 5f5b 7dbf
00000190: 5298 a62a bf0c bd3f 6631 178e 89b6 c73f
000001a0: b60d 98d6 3c58 c0bf f635 070f 3496 c33f
000001b0: e5aa fec0 8fd6 bebf 0332 bc5f 683b afbf
000001c0: f1a0 26c3 41e2 a1bf 32fe 9551 e9d2 a63f
000001d0: 0755 7925 5f7f c33f e333 d3d8 05d5 503f
000001e0: 92ab c00c 83f4 bebf af6f c646 b424 b3bf
000001f0: 9bb0 1914 4934 b4bf fefa 4fa0 56ee 99bf
00000200: 82df 0c1c 253e a3bf 0b19 fee9 a79d 703f
00000210: 8ef1 c9f8 be9b c1bf ac70 ca01 d16e bd3f
00000220: 533f 8540 4806 91bf 07bb 7dd6 cb01 bebf
00000230: 899a 21f1 341d c23f 8605 4df5 31ab a53f
00000240: 3a8d 34e7 f8c7 c23f e972 6f51 1aff ae3f
00000250: 5048 0578 6b4c aebf 1c72 d315 e344 83bf
00000260: 4731 5c74 1419 c53f 5a61 380f 1946 a7bf
00000270: a77b 0f53 bd70 b93f 04c0 8d25 86d2 c0bf
00000280: 49bf d31c 16c2 90bf ffe7 301f 7407 ab3f
00000290: e0b6 59ec b760 a03f 9e95 fe9c 27d5 bbbf
000002a0: 24c2 5cf4 3c3c bdbf ebf2 99a8 f921 afbf
000002b0: fec8 119d 0976 b0bf d1c0 d9aa 5113 c0bf
000002c0: b3f4 58af 8042 b43f 036a a013 f2f6 bb3f
000002d0: 0ac3 9fcc 0699 a1bf 4a8f 2d28 64c0 b13f
000002e0: b515 5c99 a9ae 8dbf 91e3 6aa7 3c17 933f
000002f0: 94fa 92fa db24 b1bf 0994 ff1b b7b8 923f
00000300: aa3e 83cf 8e54 bdbf 9744 6367 bdc5 b93f
00000310: b782 92ba 9aa1 c3bf 0da4 d60b b943 af3f
00000320: b379 4f05 c0ac 93bf a27a 2d71 e372 c0bf
00000330: 6453 e2b4 b7c3 95bf 7d7c 7a61 4403 b03f
00000340: 6873 8ad8 18a1 bcbf b2ba ce6b 2154 ae3f
00000350: 2b5b 33fd 67a7 b6bf 7f8b 6955 bb65 be3f
00000360: 75c7 c5b0 a0aa bbbf 8adb ad7b dab2 b9bf
00000370: b515 cc5b c696 a6bf efee c0f4 31c5 a0bf
00000380: 8554 26ab d6e2 a63f 2eb5 b98b f960 c23f
00000390: e949 73f3 d877 a6bf 93c5 cf74 c0ec b5bf
000003a0: 641c 1ad5 98d0 b23f f0ea def5 bc16 a1bf
000003b0: cf64 95b6 8d98 c1bf bb2a e800 7eb4 c03f
000003c0: 121e 74b5 25a6 c1bf f743 e9a5 8770 c63f
000003d0: 101a 9e55 9f14 c1bf 612f 9603 7684 be3f
000003e0: 96a1 639c 4ab6 c3bf 15c5 8893 d8f7 89bf
000003f0: 16c9 0546 f325 9a3f 5d1e c407 e1cd bb3f
00000400: 8195 034e c396 c2bf 6e55 6993 00b5 c0bf
00000410: 7758 2cc4 8c03 b6bf 679b b509 fa7d be3f
00000420: e38e e3a9 ffa3 c43f 4fb2 36ec b90e abbf
00000430: c3eb bcb2 7ad4 c4bf df49 223e 02fe b2bf
00000440: 3254 10bf 5154 b3bf ea41 7868 2589 b83f
00000450: b04e 1f06 686e 763f 36ff 9a03 3187 9f3f
00000460: 4fb5 77db d145 a73f 5ea7 fcdf e096 c4bf
00000470: c174 dfbc a70d b5bf 0012 8184 91e5 7a3f
00000480: 4320 c205 f423 79bf ed88 56f6 738f be3f
00000490: 5545 1036 5c41 b43f 44b1 150d b3e2 c23f
000004a0: fd69 1d7c 2c13 a13f 06db 57ab 6bdb b63f
000004b0: 4ad0 72ec 1a2c a93f 2d92 2146 e64e 72bf
000004c0: 8442 8ca9 945e 97bf f6ef f317 961d c4bf
000004d0: 3728 40b9 0fb1 b7bf f482 d7a5 5063 bebf
000004e0: 3427 b632 089e adbf 1def 284c 9c2d c53f
000004f0: 2189 eb77 f55c b4bf eab5 c5fe a432 bbbf
00000500: cc2a 3a1d e9a4 b83f bfba 6865 0a20 c3bf
00000510: 5e4e 6fa0 e5f0 b43f 87fb 6adb 5562 993f
00000520: 8c43 9ac3 6e3b c53f 1785 6a1b 17a8 bf3f
00000530: 4187 3a94 4d26 b8bf b233 01d8 55c8 b83f
00000540: 4d47 6d81 c59c b0bf 5e8e 8e1d 8d4b a2bf
00000550: 58b6 7aa9 a5a4 90bf 0e9a d14c 7ad3 a13f
00000560: b655 7586 3425 8c3f b747 3b26 7b24 b0bf
00000570: b6be 461e 25b3 bbbf 725e 25e9 9760 a73f
00000580: bc42 4936 1cba b5bf d4cf f7c0 96d9 80bf
00000590: a613 4940 0237 b0bf db5c 353a cacb bc3f
000005a0: 6462 cf56 ff11 b1bf cf7a a899 6b09 ab3f
000005b0: 1f6c e989 3b35 aa3f 156c 8a0a a83f c03f
000005c0: bad7 dc38 4d51 9cbf 3ef5 2b97 3812 88bf
000005d0: ca2f 33bf 7772 bdbf a4a2 6279 2c76 693f
000005e0: 7617 4d6d b7cc 843f dea3 6c80 3513 8a3f
000005f0: b50e 5724 6437 b83f dbf5 708c a2e3 bb3f
00000600: 1b83 9717 8337 a5bf 2d86 6257 613c a03f
00000610: 180f cd8b 6a60 ab3f d7fd 3d41 b8a2 bcbf
00000620: 00b5 e0bb e969 a5bf 8bb2 ca05 3cc3 86bf
00000630: e06d 8204 3bfe a73f 9622 482c c0c1 c03f
00000640: dff6 7806 0a34 763f 758f 3a9f 08fe b2bf
00000650: 6e6d 3057 69e1 ba3f 463d 0e9b 10a3 c3bf
00000660: eea5 8176 266a 84bf 1f91 3c8e a807 c1bf
00000670: 10c4 f7a0 56eb 91bf 7b25 eb59 84a1 c33f
00000680: 5a58 1294 a505 bf3f 119e ef01 341f bebf
00000690: 7e7e 128a a8b9 963f 310c c0c0 8f3b b53f
000006a0: 9ef4 ceb8 ca0d c43f 5bc7 314b 9dbe a73f
000006b0: bed7 d96a c23b c33f 822c 4b3e 5b39 a8bf
000006c0: bd3e 01cf 147b bd3f 6b13 5506 07bf 763f
000006d0: 3262 82ac 613e b43f c8f0 5aa0 2146 c4bf
000006e0: 36ab 61be 54d8 b03f 58bd 7b76 857c 76bf
000006f0: 00a0 8db1 8dd5 94bf a8a7 4bfb 065e b53f
00000700: 901a f582 e934 b9bf d1ef b6e1 2eeb a7bf
00000710: 500d cfa8 39a6 b43f 4df2 df9b 7c21 9c3f
00000720: 63d7 e8f8 5628 c3bf c825 8859 ddf0 b2bf
00000730: e240 7cdb 0883 c43f 3c9c a7f2 5d4a c7bf
00000740: 4045 88c7 226c a73f e1ec aa2a 4d79 c43f
00000750: a604 178e b652 c5bf 439e ce01 f323 c33f
00000760: 7d84 785c e2ff ba3f 272d 446d 4c7b b8bf
00000770: d472 2639 2cae 9dbf 92ab 227a 000d 763f
00000780: 92c5 d13a 4e1a c7bf b546 664f c149 bb3f
00000790: 6992 f2bb 4bb7 bd3f 920e ce28 9fdc be3f
000007a0: ce92 756d 3227 b53f a53c 4d59 100c 923f
000007b0: 96ea 2e3a aed0 b93f 84c1 572c 1f5f 743f
000007c0: cf74 4c44 90aa a63f 609b f42b e106 b4bf
000007d0: 2739 5cbe 07b8 a43f 6241 c0c6 d45f bdbf
000007e0: 23c7 de68 74ec a8bf 1645 5ed6 6bdd 993f
000007f0: 93ca 7044 1f8d 9c3f 71a9 327c 3a00 a53f
-0.11113494240348254 0.07938116202594496 0.007117626833293542 -0.014333574614352498 0.12225524704874603 -0.03799218683943114 -0.006194475308713161 0.09464967948911511
-0.01836659500369175 0.054878240401009394 -0.04941464455891596 -0.14056345647259014 0.0970642127862703 0.14419290328611384 0.1296389676550691 -0.07488951682438678
-0.14804633536960468 0.025626226098163105 -0.15539106761053903 -0.1288198753547112 -0.07898829623277898 -0.1114904281417125 -0.05410846855056397 0.13752039252721468
0.048477469917838745 0.10217857586146188 -0.042723877333160555 -0.08447842490658862 -0.0416859528700223 -0.16544981331078676 -0.05449681812623263 -0.007975494142380747
-0.140558741792549 -0.060918564259420264 -0.02064247450648342 0.08338434538721681 0.15307254787010777 0.13557420070620957 0.05509286455347583 -0.09185815737049897
-0.16746639643138556 -0.06868102103900595 0.18681110013771063 -0.09623990443913005 -0.08875679046771186 -0.10504923417555734 -0.13958827884640895 0.03787437645776203
-0.005731452334686667 -0.007167218689397385 0.1134757498863064 0.185258097057509 -0.12769279936047234 0.1530213425998423 -0.12046144925868026 -0.061000119863908984
-0.034929328033571745 0.0445778762905288 0.15232457475455183 0.0010273511027662989 -0.12091845570891582 -0.07477881172093136 -0.07892281285029627 -0.025323251280492613
-0.037583503412348854 0.004056602396195662 -0.13756549022572212 0.11497217458458192 -0.016625527322786948 -0.11721490847206094 0.14151632093417657 0.04232174033541995
0.14672766961403189 0.060540029946172975 -0.05917678680511129 -0.009408735374045789 0.1648278778233225 -0.0454566794471158 0.0993765189918877 -0.1314246829383593
-0.01636538077303776 0.05279124146223068 0.031987903214810265 -0.10872123320458235 -0.11420041051747681 -0.06080608542558771 -0.06430111012176451 -0.1255895694953382
0.07913975029892377 0.10923684100308866 -0.03437062499859252 0.06934190731913961 -0.014493298523585144 0.018643329351764108 -0.06696867816479318 0.018282757839092088
-0.11457150045611778 0.100673520795015 -0.1533692751882165 0.06106355924141136 -0.019213676761745634 -0.12850611711742937 -0.02125441590813483 0.06254985217900529
-0.11183314596787641 0.05923561516771282 -0.08849191600471033 0.11873980365048274 -0.10807232204186142 -0.10038533706197775 -0.04411907072612157 -0.032754479529527696
0.044699390785504035 0.14358443567781748 -0.04388311359220493 -0.08564379550786887 0.07349543764768068 -0.03337660313942148 -0.13746806540692666 0.13050818485529256
-0.13788291320837281 0.1753091392625092 -0.1334418457083335 0.11920869433941796 -0.15400059353056567 -0.012679759981525632 0.025535393856849962 0.1086102146110703
-0.14522591885831207 -0.13052375028443514 -0.08599166669259427 0.11910975205465278 0.16125484271389387 -0.05284672745196827 -0.16273435332717953 -0.07418836609784972
-0.07550536074298078 0.09584268379717967 0.005476385444086837 0.030789151997623075 0.04545455745742776 -0.160854443901651 -0.08223961220888311 0.006566589763739916
-0.006137803280701406 0.11937641872512801 0.07912231750403483 0.14754331721213465 0.03334940924715466 0.0892855923956227 0.049164620745984225 -0.00446977568399069
-0.022821734283811526 -0.15715290231298668 -0.09254549286575374 -0.11870292710183233 -0.05784631365811635 0.16545442312951134 -0.079543439652785 -0.1062415239336684
0.09626633609347407 -0.14941530181518733 0.08180079619278888 0.024789182202535478 0.16587624121578093 0.12365860385263648 -0.09433445805418918 0.09680687449981809
-0.06489214334331202 -0.03573266015817177 -0.01625307890815572 0.03481657207230536 0.013742838242857807 -0.0630566566790368 -0.10820228566330567 0.04565882416744395
-0.08487106633516367 -0.008227517856518242 -0.06333936757535116 0.11248458787064257 -0.06668086881053054 0.05280624628743668 0.05118738230222441 0.1269426394909209
-0.027653891177770375 -0.011753503907579895 -0.11502788942306022 0.0031081074367487905 0.010156090758424812 0.012731950742436323 0.0945952023239965 0.10894218376866809
-0.04143914854990368 0.03171066467008319 0.05346997219615285 -0.1118579062731365 -0.04182367723874769 -0.011114567686797435 0.046861500072931994 0.13091280138202838
0.005420722161543628 -0.0741887463323659 0.10500200632707443 -0.15341384478640857 -0.009968090526132092 -0.13304621644159284 -0.01749930722684573 0.1533666075759291
0.12117991318732049 -0.11766362235322726 0.02219260542608347 0.08294008689704026 0.15667089485024105 0.04637614767933825 0.15026121346789795 -0.0473125947515536
0.11515932134465863 0.005553271713613177 0.07907686673787209 -0.15839023904653105 0.06580094955431268 -0.005489846553003851 -0.020345891916264236 0.08346599230904295
-0.09846362540438691 -0.04671617989831101 0.08066139575298803 0.02747149182686064 -0.14966857103143658 -0.07398780284724815 0.16024885861452903 -0.1819570002400911
0.04574688611695388 0.1599518259371058 -0.16658670366272083 0.14953458393323346 0.10546698339068601 -0.09563138644823664 -0.02898472880189014 0.005383493293417712
-0.18049028274576223 0.10659416378464466 0.11607812250674389 0.1205539202329027 0.08262934849114886 0.01762414498381006 0.10084046288003842 0.004973527689330463
0.044270046555746505 -0.07822997401363585 0.04046653937085614 -0.1147435174209526 -0.04867900638727309 0.02525871749782479 0.02788208823421685 0.04101736799323675

conv2.2.bias f8 [8]
00000000: 0000 00c0 7765 c2bf efff ffff 2d07 85bf
00000010: 0000 0000 d01f a33f 0000 0080 f7df a0bf
00000020: 0000 00c0 62ae b7bf 0000 00e0 c06d c33f
00000030: 0000 0080 f5bd a9bf 0000 0040 1b66 b63f
-0.1437215507030487 -0.010267600417137117 0.03735208511352539 -0.032958731055259705 -0.09250466525554657 0.1517869085073471 -0.05027739703655243 0.08749552071094513

conv2.3.weight f8 [8]
00000000: 58e1 6653 f706 f03f ef3d 6ad4 0525 f03f
00000010: e543 24f9 3d12 f03f 5df4 a83a 7f34 f03f
00000020: c265 64de a3de ef3f 06f5 c723 666a ef3f
00000030: d5fc 8044 fa05 f03f 15f3 9b1c e2ba ef3f
1.0017007120023518 1.0090387628041488 1.0044536335083134 1.012816647663633 0.9959277480694981 0.9817381571625965 1.0014593769008588 0.9915628966115003

conv2.3.bias f8 [8]
00000000: f512 f1ea 4eb5 6f3f d60d 458f 3e4f a23f
00000010: d276 823d b088 813f ed95 dc9c 1c44 8a3f
00000020: 47cc 3237 c3da 81bf 07a1 3bab 514f 56bf
00000030: 2f42 c589 7172 9d3f 8a8f a5e0 089a 593f
0.003870634208882224 0.03576083659074995 0.008561493756413272 0.0128252253885632 -0.00871803772165526 -0.0013616845653193225 0.028756879838797097 0.0015626036352722494

conv2.3.running_mean f8 [8]
00000000: d5f0 79c3 0503 dbbf 23fc 2be4 0c2c babf
00000010: 296e 8fb7 dd77 b1bf 2881 373a 38df d5bf
00000020: 8dc7 27ba 978b a6bf 12a1 4902 0417 db3f
00000030: 7473 4f50 0ec4 b73f 5903 e547 a65f 7b3f
-0.4220594796131654 -0.1022346550998781 -0.06823526126338976 -0.34174924550281327 -0.04403375766186377 0.42327976439857296 0.0928353258199886 0.006683015379452006

conv2.3.running_var f8 [8]
00000000: 807e 2d69 c7d0 c73f dbe1 ba71 14f5 a63f
00000010: 72b7 875d cef7 bd3f 2278 3012 1490 b53f
00000020: 8482 8a04 c750 c33f 7777 04db a095 bc3f
00000030: bce5 3cc5 39b0 ad3f 68de a55b 189b a13f
0.18605892787580913 0.04483856094651958 0.1170624712319446 0.08422971195292964 0.15090263101321366 0.11165814730744993 0.05798512013138743 0.03438640707730373

conv2.5.weight f8 [8, 8, 3, 3]
00000000: f2ae ae14 641b a63f 5908 b1cb 98c5 b4bf
00000010: 25d9 9797 3260 acbf 5906 981c a7be bb3f
00000020: 3589 e63c 261d 90bf b99d c387 67f0 bcbf
00000030: 80b2 76c8 7692 b93f 9aa3 f596 55ed a0bf
00000040: 6a01 b262 3119 a9bf b45f 7b62 5f51 91bf
00000050: 7c47 753d 49ed a9bf ac34 28d1 64d8 96bf
00000060: f9c2 8d2d 0e57 b33f ebfd f4d9 1b7e 98bf
00000070: 31c2 a863 09c9 ae3f f7df f640 f680 ae3f
00000080: 3003 b673 0f4e 93bf 10bc d88f ca6f a53f
00000090: 9ed6 0f2e b931 65bf 8223 a180 7b32 983f
000000a0: 100f c2b4 f4c9 b73f 4ffc d752 554b b03f
000000b0: 4351 64a3 fab6 a93f 5454 f787 9333 92bf
000000c0: b6f5 8973 3ef0 b0bf 5dcb 3530 4438 b03f
000000d0: 324b 051d b6f3 abbf db76 0694 ff6e b4bf
000000e0: 6e0f 8ea8 6f57 ba3f e3b7 f52a f306 b63f
000000f0: 8e27 ca53 20c6 bfbf b300 4c3d 1739 ab3f
00000100: 6ea1 c3e4 7e7d b0bf 544d 8a75 2b37 afbf
00000110: 1bb8 8d4d 023d b0bf 8507 57e0 c4d3 afbf
00000120: f34f 2959 bdc6 bf3f 9bd3 7026 60f9 933f
00000130: aaef da9f 2b70 803f 43d1 fad1 512a b2bf
00000140: a7b1 873b a420 b63f 6c48 b40b 4c2d 83bf
00000150: 1fca cab5 fe71 bc3f 11cb c24d 1b96 42bf
00000160: edc5 2753 7d39 aabf e032 c4c0 17e2 a1bf
00000170: e55c ca74 9c27 b0bf aada 2d92 8da1 883f
00000180: c736 64c3 b446 b9bf 7baf cea0 b30a a9bf
00000190: b41f ddc8 bf5a 6a3f 30d4 2738 0e1d 78bf
000001a0: de9d 7995 320d a5bf e30b 691e 7f06 973f
000001b0: 84d0 953a c280 b1bf 2598 06c9 5b77 92bf
000001c0: 2019 0378 ae35 bdbf 67de 3dc3 c791 b73f
000001d0: 06ed 1cdb b967 95bf 8ed9 51eb ffee 983f
000001e0: c93b 9739 3f92 aebf 731b 0f4d 06e7 a7bf
000001f0: 7bc1 d0d7 2b4f b1bf 7d71 f009 1833 a5bf
00000200: 0ff6 69c9 8662 b93f d969 69c7 f57f babf
00000210: 994f 74bb 7a42 a2bf 4cad 22e2 8782 b7bf
00000220: 1e64 3c5b 0af8 a03f 8a8c c068 e622 593f
00000230: 65e7 994c 23f4 79bf 84e0 09ed d20b b33f
00000240: d1ba c61a a6f8 b5bf 1807 0bf3 2938 b13f
00000250: 3893 b73a 8d23 b7bf 384c 8ce3 25c0 5e3f
00000260: c3f2 7d92 6d4e bc3f 6109 b9ec 3768 a83f
00000270: 49d4 42a9 0040 bbbf 42a2 69f8 7c49 b1bf
00000280: 0e57 b120 8074 953f d1b2 1306 87ba b1bf
00000290: e270 362e af9b a43f 7d3f 37f8 d234 b03f
000002a0: ee2c 9f50 dc95 bdbf eacd a972 4da4 963f
000002b0: e928 44d3 2211 a5bf 9271 e1a2 3198 a83f
000002c0: 87cc 5e96 e151 bdbf cd3b b899 d1c1 acbf
000002d0: 257f 261c c5aa b2bf dc57 6b6b 52c3 b83f
000002e0: b07c 82ec 53af a93f 01a3 2835 6087 983f
000002f0: 6356 8cf6 2fe3 a03f 335a b87b 3229 9bbf
00000300: 4ee6 d488 b3ba bebf 4658 95f6 09bb 5e3f
00000310: 7182 5f4c 739d b0bf dff5 24b5 1c46 acbf
00000320: c165 062a 8b2e b23f 4422 f1ed fa7a 8a3f
00000330: 92c3 d85c 459d b73f 21ad c838 f310 a1bf
00000340: e651 3503 b8a7 bbbf f87c 69bb 671f a4bf
00000350: 93c1 5be5 eb26 9f3f a547 728a 5bca a13f
00000360: 248d 00cd 8de4 a7bf 0afd ed01 848d c13f
00000370: 13b2 8603 9231 a3bf b7e2 317a 6c32 b83f
00000380: 3ba3 6bcd 0fcc b73f f274 e379 932e bd3f
00000390: 2cf5 e931 d43d b03f 953c 56eb 2645 a1bf
000003a0: d6a2 5c68 77e3 903f 59e7 f7fe 5b2c ba3f
000003b0: 6d8f 20e7 9226 b53f 5209 59c4 0d58 7f3f
000003c0: 55e1 f0a9 d19a b6bf 88b1 7088 9a3d b9bf
000003d0: 728a df1e 65c0 893f 6b4e 14bd 95f6 b73f
000003e0: 3265 1792 4a84 b7bf e57b e464 3e2c b5bf
000003f0: 6c2d 2c9f 5ee5 b83f eb67 2e51 f097 b8bf
00000400: 394d 0583 45fa b7bf a894 d651 1cfd a7bf
00000410: b80e cb28 f348 b1bf a9dc e8bf 43d7 bebf
00000420: 7960 a17a 25a0 babf 42d7 63f7 ef38 99bf
00000430: 34fa cf1b c3e2 b6bf 4a39 eb2d 750d a13f
00000440: a069 8a2f f501 ae3f 5292 a621 5f88 b23f
00000450: 2680 4760 a608 b0bf 34e5 4df4 710f ad3f
00000460: 4740 50c5 f496 b4bf d0a8 c921 c67f 703f
00000470: 2243 50c0 a54d 99bf e8d1 301f 9625 a2bf
00000480: f8b1 1150 d990 b33f 6dff afb0 d1ef a0bf
00000490: be06 6eaa 680f a03f 87e3 a91c 335e babf
000004a0: bf96 f2a1 b868 a4bf 05d4 ed09 3dee b5bf
000004b0: bcdf 8b50 ed09 a7bf 599f a051 32cc 9e3f
000004c0: de31 be7a 687d 97bf 3c57 9aab f7b6 93bf
000004d0: 1d36 5041 2134 b8bf 04c9 c366 18f6 b3bf
000004e0: c872 11ea fba1 bb3f e4bd a618 38c5 93bf
000004f0: 2fb9 5682 dba1 bb3f 13a3 de1a 6eb2 bbbf
00000500: 6719 11f6 9cc8 b2bf 332b d16b dfc7 bcbf
00000510: cd01 8320 5ad7 34bf 8ea3 93b5 2f40 a63f
00000520: 2890 714d 6718 9b3f 60b0 526e 4d99 b1bf
00000530: 6596 42e4 e8fd b6bf 7b6e ec5e 3e2b b23f
00000540: 5bbd 333c 0c7d 98bf 6bc9 b767 ea09 bbbf
00000550: 4788 093d e925 a9bf efcf 99b8 f38e babf
00000560: b170 2f8e c7fd bd3f 71c2 b36c d766 a23f
00000570: 752c e089 21cc bbbf 9edb 0528 4e3b bf3f
00000580: 11c3 9fbf 873f aabf c9d3 23b8 c052 a2bf
00000590: 635d b680 188f b43f 8262 e40b 89c8 b2bf
000005a0: 1a8f b67a 66d2 b0bf 0855 5a44 a71e a33f
000005b0: ff4a 5ef8 538d 933f fa31 aa67 8407 b73f
000005c0: 66a6 2239 54b1 a83f 8556 62bf c41a adbf
000005d0: 2bb3 9877 62f2 b23f a268 be2b b8c6 b63f
000005e0: f997 090a fe9e 7e3f 785c f6e4 e7fb b6bf
000005f0: 4302 00c0 35fb a43f 91a0 eb78 50ca 9bbf
00000600: ccb5 4ac6 7561 bc3f c31d a3a5 0c7f a13f
00000610: bb1f 8674 9756 b53f ae61 e1f4 c88a b0bf
00000620: aef4 cab1 bcee b4bf 3706 392b e5c9 9e3f
00000630: 1110 9f0d 3aa7 b1bf 1bb7 94e5 aa4e af3f
00000640: 04df 997d 3b45 b1bf f800 5d9a 33dc af3f
00000650: a7c0 bc09 8e8a b03f 81a9 73e7 d131 a8bf
00000660: b99d b38c e9f2 b5bf 8bb4 26f8 59b0 c0bf
00000670: e01c cb6f 3692 bdbf 3f29 66da cf8b ab3f
00000680: 4562 e14a 9a18 923f af42 c1c0 e91e 843f
00000690: 844d 28f9 8935 99bf 581b 79bc 8b9d 903f
000006a0: 5ce0 70e7 f8c1 b2bf 7942 b15e cceb 8dbf
000006b0: e857 3c7b 14f0 bebf ef33 9dc6 e6c8 b6bf
000006c0: e43b 4750 9e79 6c3f f0c2 f1fb 99cc bb3f
000006d0: d052 bd14 8b83 b23f e8e0 e62d 27e5 b2bf
000006e0: 5b9f 759f 280f b23f c72e b7d3 f8a4 acbf
000006f0: f55c a240 efca 7d3f 3bac 444f 4a33 bb3f
00000700: fe97 5df8 2507 b6bf 6e9a 0737 baf6 9fbf
00000710: 1da3 53f9 4457 b53f 3140 0afe c4d7 b3bf
00000720: d858 21b5 3aa5 26bf 0796 5170 8a6f abbf
00000730: d5ef 2a2e 08a4 b2bf f03b 4d1d f160 a23f
00000740: dd69 9190 9740 b93f 8cba 4ed4 0427 c03f
00000750: 4b3c 07f1 10f6 833f 3fc0 fa36 0b87 84bf
00000760: fa37 e33c 33fd 923f f0b9 33ed 6fa9 bcbf
00000770: 56b8 d488 cac7 b8bf 1e9e 556c dcb3 b33f
00000780: fb07 5fb5 eede b43f c972 8294 a899 a73f
00000790: fd4f bf51 64f2 b83f 46b6 7cfe b0ff b33f
000007a0: 7de3 d71b e9ed 70bf 013b 9233 0c2b b73f
000007b0: 2ceb 6705 451c aa3f cef2 e069 3135 a53f
000007c0: 6a47 fde2 99d7 b93f 3c18 d9d9 e3b9 673f
000007d0: ee4e 0265 95a2 c0bf 33ae e5c7 7165 aa3f
000007e0: 93f3 2a8c 25db afbf db88 b70a 3019 bd3f
000007f0: ec78 5844 4487 a1bf ad94 1529 6f94 b93f
0.04317772629232576 -0.08114008877694924 -0.05542142963888556 0.10837788055507626 -0.015736196009705956 -0.11304328026346057 0.09989111322529176 -0.033060717275311194
-0.049020331666727326 -0.016911974321231774 -0.050638474228107605 -0.022309851900037245 0.07554710971977475 -0.023918566873588103 0.06012753812354211 0.05957765143415366
-0.018852464139402503 0.04186852460804158 -0.002587186507748764 0.02363007519332739 0.09292535222089904 0.06364949486304393 0.050224144406600967 -0.01777487294551279
-0.06616583176397381 0.06335855652814133 -0.054593745272219954 -0.07981870044610721 0.10289667000875877 0.08604354666542195 -0.12411691709180969 0.05316994307759284
-0.06441491208136593 -0.06096778688256657 -0.06343092339895444 -0.062162544617890204 0.12412627627173815 0.019505979868160144 0.008026448074239873 -0.07095824600657345
0.08643557027216407 -0.009363741023239856 0.11111442507061796 -0.0005672105139836477 -0.05121986045913816 -0.03492807605844006 -0.06310441829042508 0.01202688791611924
-0.09873513956355416 -0.04890977228146106 0.0032171006959380247 -0.005887084526411221 -0.041116314646213445 0.02248571990117999 -0.06837095194151926 -0.018033441681517232
-0.1141003649709984 0.09206818119661762 -0.02090349578723496 0.02434921144273399 -0.05970952585231932 -0.04668445292150283 -0.0676143075841135 -0.04140544053390991
0.0991596452458554 -0.10351501577807855 -0.03566344774495107 -0.09183549185643364 0.03314239848823085 0.0015341997232176962 -0.0063363436580575515 0.07439916884493597
-0.0858253302928731 0.06726324256581184 -0.09038622554323872 0.0018768663414377006 0.11057171656097879 0.047670123717142195 -0.10644535190915962 -0.06752759041558767
0.020952226634412922 -0.06925243280756922 0.04025027693862328 0.06330603179890022 -0.11556794136338386 0.02211113941525681 -0.04114636258062083 0.04803614724434903
-0.11453065796995264 -0.05616621972523426 -0.07291824280991628 0.09673037645856603 0.050165770169081525 0.023953917736579736 0.032983301969733224 -0.02652434234740948
-0.12003633585563842 0.0018756482407602678 -0.064902502198956 -0.055222413170195266 0.07102269912720428 0.012929878603373919 0.09224351422086688 -0.03333244388735524
-0.10802793577506228 -0.039302102687310325 0.030421911119391586 0.03474699082393266 -0.046665602945973356 0.13713121504040543 -0.03748756688159829 0.09451940520546996
0.09295748486659942 0.11399194455903564 0.06344343393898971 -0.0337307131077235 0.016492715592138683 0.10223937010587515 0.08261984007600427 0.007652334000854149
-0.0882998504538411 -0.09859624701556957 0.01257399559466885 0.09360633722490667 -0.09186235491451525 -0.0827063556975954 0.09724990259217287 -0.09606840116467168
-0.09366259049175064 -0.04685295580865417 -0.06751937623908588 -0.1204721778420771 -0.1040061401739666 -0.024631261324393756 -0.08939761570943788 0.033305799346282486
0.05860868649797912 0.07239336558866086 -0.0626319871003039 0.05675846202115978 -0.08042840783332493 0.004028104737338903 -0.024710264075170525 -0.03544301157709012
0.07642896847546143 -0.033079674547478934 0.031367560200135966 -0.10299987268252951 -0.03986145951175279 -0.08566647999198558 -0.044997612078020194 0.030075823051589044
-0.022939331523547206 -0.019252652977761672 -0.09454543919147125 -0.07797386654764088 0.10794043030314093 -0.01930701876125153 0.10793849880312643 -0.10819137722013421
-0.07337361342897496 -0.11242481596233915 -0.00031801176420389877 0.043458453097463864 0.02646027956178912 -0.06874545997078618 -0.0898118550563481 0.07097234551877733
-0.023914519476361345 -0.10562005073714935 -0.04911736364444202 -0.10374377495628527 0.11715361806222081 0.035940868396100785 -0.10858354202371052 0.12199867703553344
-0.051265947476968894 -0.03578760383417252 0.08030846731559431 -0.07337242641768607 -0.06571045394826705 0.03734324178109644 0.019093811067771856 0.0899584534728958
0.048227912878542153 -0.05684485279304589 0.07401099605403931 0.08896971767390707 0.007475845661792485 -0.08978127803708158 0.040979079902176106 -0.027138955479046493
0.11086212245091714 0.03417243501604219 0.08335253329107577 -0.06461769083524047 -0.0817678388657039 0.030067044032199255 -0.06895792801429958 0.061147060894979975
-0.0674626523631297 0.06222687968556956 0.06461417901732834 -0.047255095961946665 -0.08573779759500767 -0.1303818189311737 -0.11551227788287433 0.05380105534557566
0.017671976871812118 0.009824587054170079 -0.024618297417033044 0.016225989702685822 -0.07327228212750597 -0.014609905853064863 -0.12085083016094667 -0.08900301312424096
0.0034759609281773563 0.10859072113977297 0.07231969124161286 -0.07380909796382051 0.07054380314877788 -0.05594613632601191 0.007273611621847244 0.10625137744197925
-0.08604657472241681 -0.031214627846475933 0.08336287581518005 -0.07751113130711997 -0.00017277089733864245 -0.053585363589075334 -0.07281542899266864 0.035895857645861784
0.0986418464612266 0.12619076124743278 0.00974667773780715 -0.010023200621930182 0.018544006911547208 -0.11196040669503993 -0.09679857102011744 0.0769632114876164
0.0815266793061084 0.04609419644223107 0.09744860645088234 0.07812029088082637 -0.004133139210801382 0.09050060519278348 0.050996930036453086 0.04142145554985675
0.10094606200916947 0.0028962564672694573 -0.1299616568763819 0.051555209781181686 -0.062218831405949214 0.1136655832447419 -0.034235127776115565 0.09992117646250405

conv2.5.bias f8 [8]
00000000: 0000 00e0 f81a b43f 0000 00e0 428c b23f
00000010: 0000 00a0 9897 b8bf 0000 0000 d92e 9bbf
00000020: 0000 00c0 145f a83f 0000 00a0 8278 b73f
00000030: 0000 0040 865e a4bf 0000 0000 af08 98bf
0.07853656262159348 0.07245271652936935 -0.09606317430734634 -0.026545897126197815 0.047600410878658295 0.09168259054422379 -0.03978366404771805 -0.023470625281333923

conv3.0.weight f8 [8]
00000000: da6e 1559 530d f03f fe49 0d5e a717 f03f
00000010: b5f3 5270 75ef ef3f 7804 1826 147c ef3f
00000020: 6e6f 56af 24f9 ef3f 4d74 617f 96e7 ef3f
00000030: b217 1ef8 ea2a f03f 7ffa 3bf9 1808 f03f
1.0032533149559897 1.0057748483565088 0.9979808038548216 0.9838963264484297 0.9991630005419958 0.9970200050262378 1.0104779903499375 1.0019769416536801

conv3.0.bias f8 [8]
00000000: 814c 06c6 f2b9 6b3f 4ab6 dfa4 cee0 823f
00000010: ef0b fa95 8616 903f 2873 b195 93c4 733f
00000020: 5ac8 b9c2 30ef 783f 79c2 0e06 a7df 913f
00000030: 3e57 d481 e89f 933f a976 1468 5dee 613f
0.0033845655127123235 0.009217848211814279 0.01571092882523922 0.004826141837011723 0.006087484809187494 0.01745472883675567 0.01916468899170031 0.002188856539432422

conv3.0.running_mean f8 [8]
00000000: 894d 725b 8fd3 8a3f f58a 0315 00b7 7cbf
00000010: e936 e037 0090 d6bf 4b1f 4aec d112 d33f
00000020: a374 eafc 8ea7 ac3f 494e 4af7 9aed c03f
00000030: 4c12 eb24 4f83 d3bf c228 2ae0 cb38 a83f
0.013098831155992101 -0.0070104602056939485 -0.3525391145384292 0.29802368235731497 0.05596587025977697 0.13225113939971525 -0.30488947491929674 0.04730832206139858

conv3.0.running_var f8 [8]
00000000: 7b8b 54a2 bbcd b63f ebd3 c160 1c12 bb3f
00000010: 317f e00c 3087 a93f fc10 13d5 37f5 a13f
00000020: 99bd ad1b 63f6 af3f 2fb9 b7d8 f640 a83f
00000030: 0490 726b 1ffc c93f 6411 f72d aa62 b13f
0.08907673562184286 0.10574509966120586 0.049859525272266565 0.03507399059302149 0.062426659706825656 0.047370637850564605 0.2030066752096219 0.06791175481982276
