Coursework2/networks/Weights/Unetk4lr0005ep10v1.pt (torch, 308653 bytes, 92 tensors)

conv1.0.weight f8 [3]
00000000: c475 ff09 11d3 e83f 1dd2 6cb6 1f3d ea3f
00000010: 1b31 ffaf c281 e63f
0.7757649607917121 0.8199614108075967 0.7033399045408574

conv1.0.bias f8 [3]
00000000: 59fb c424 0cc8 e23f 825f 0545 99b3 e23f
00000010: 65b5 94c5 e519 eb3f
0.5869198530343552 0.5844236705843147 0.8469113215448202

conv1.0.running_mean f8 [3]
00000000: 7005 8641 42c2 5640 7772 2dbc 3b60 5540
00000010: 9160 e2ef 7c76 5240
91.03529394233715 85.50364593923756 73.85137555224561

conv1.0.running_var f8 [3]
00000000: dfe5 797f 15fd b740 cf1d d516 1f7f b640
00000010: c64c 0750 1fae b440
6141.083976381894 5759.121442146089 5294.122314888233

conv1.2.weight f8 [4, 3, 3, 3]
00000000: dd3b 51ea ac76 c2bf 0056 6d0c ce34 a1bf
00000010: 899a e4a3 20c5 b83f e941 a86c 5a11 cc3f
00000020: 773d deac 77da ce3f e6d8 fba9 842d bf3f
00000030: 1e03 1475 76ea a8bf 0c57 fc8d 2fae c2bf
00000040: da3e 723a d04d a33f a733 f0b1 5b21 b43f
00000050: f660 1f54 5220 bd3f 51e4 c306 c42c a5bf
00000060: b78d 5b24 e8e9 bdbf c224 d22f 1f9b a83f
00000070: 036a 9b36 040a b53f 7b1a 3013 9efe c7bf
00000080: 04b5 d647 d26f 913f b470 d077 fd1e bc3f
00000090: 2e90 a035 3e06 b13f 4bbb e9d3 f54c 993f
000000a0: 2911 eded 0831 cc3f 916f c298 188f b4bf
000000b0: 42e4 d030 839e c93f 4e54 a850 41b8 cd3f
000000c0: 7cc3 6709 4649 95bf 8c0f 585b bde2 973f
000000d0: 0213 327c f87d ad3f 1069 f5cf 07df 7abf
000000e0: d648 4732 1cec cbbf 9006 0012 0f56 c93f
000000f0: 574b e00f 979f c13f c336 0922 a035 c23f
00000100: 421e 9773 d551 b73f 7286 b9cb 1779 ccbf
00000110: 2fdb c320 6345 a8bf f7f0 4601 9ead 97bf
00000120: a180 4500 cc35 bdbf 0ecb 5bd2 d466 babf
00000130: c24a e142 07f5 c63f f4d4 cee0 b1cd 9cbf
00000140: 78b2 ed9b b03f bdbf 3e58 8186 2cb2 c43f
00000150: c26e e203 3f55 c8bf 9678 c809 b092 c7bf
00000160: 64ef 1b3d 8400 b13f fb21 c9ba 6fad c7bf
00000170: 19d3 bc01 a614 bfbf d4ec 15d1 4605 d63f
00000180: d016 4d68 4f88 d6bf cc74 38df 15a0 c9bf
00000190: d072 7a14 05cd be3f e7de 4970 f7e6 ac3f
000001a0: fb9a b05b b1d5 bfbf 4d20 093f 7d96 ca3f
000001b0: fdbc dd55 ae2c b8bf b35d bf79 e5cb c0bf
000001c0: 4e9c 7718 3aca a1bf 59a6 795c 2796 b7bf
000001d0: 68eb 518a 348a bbbf 9ff7 0aeb 8aef a6bf
000001e0: ec5d 9da5 2e10 c3bf 937c 6068 4910 b4bf
000001f0: 3d0b b10c cc51 ccbf 8528 2328 1b99 b33f
00000200: 524c c853 4cdb 953f f927 941e 3239 c7bf
00000210: 96bf 8cae 115d 71bf 3828 6aa2 f6bc 5c3f
00000220: d305 35b5 bd3a babf 7e57 0703 ef34 b83f
00000230: 6b2f cc43 abaf b73f be67 01c1 af88 b53f
00000240: 14cf 9ead 1e67 b43f 2402 466a b0a9 c33f
00000250: 69dd 96f1 ddfc 83bf de28 fce7 d4e9 883f
00000260: d690 ccd5 4faa b53f 9ff0 e23f 81c6 9f3f
00000270: 5f2b 9841 8b97 5c3f f71d ab2b 18ac b3bf
00000280: 5aa7 9406 740e b23f 9379 dfb8 6cb3 d0bf
00000290: 2147 5014 a107 c23f 84bd d42e 1a88 bebf
000002a0: c410 6e4d b0e4 cebf a497 5b53 20fe cfbf
000002b0: 4de3 e938 7233 d1bf 1346 9a58 ec86 ab3f
000002c0: f7d7 7606 9a9e bfbf 5eb2 c7cf 9e19 c4bf
000002d0: 93f5 474d 994a d63f bef8 d9aa 8aa3 c73f
000002e0: 2499 0dc3 f808 73bf e5f0 77d9 9bf0 c73f
000002f0: fc82 40c9 da9d d23f 004b e84a 9ff0 c93f
00000300: b3f4 002e 85c7 b63f 968c 95ed e0b5 d03f
00000310: 30a6 89c9 40a3 78bf 0a4f 2182 50fe d1bf
00000320: c666 23f8 87b4 a0bf f8c6 382d cae6 c83f
00000330: 0850 c70d 4d97 d0bf afcc d085 892f b6bf
00000340: 0595 6f88 9918 c0bf e01e 6f01 acc2 c8bf
00000350: a699 ee8c 99e7 b3bf 534c 3813 d6f9 90bf
-0.14424668732905746 -0.033605994240740955 0.09675792695325404 0.21927957826166214 0.24104209843470034 0.12178830289835538 -0.048663808624047386 -0.14594072754760423
0.0377030440660044 0.07863400549122322 0.11377443841718446 -0.041357160402136224 -0.11685038459432105 0.04805848559142013 0.08218408902340717 -0.18745780884656313
0.01702812732189775 0.10984787154342507 0.06650151070840657 0.02470764261164086 0.22024642579538892 -0.08030847291450828 0.2001499164923946 0.23218552053791303
-0.020787329029136256 0.023325880718416722 0.05760170475062944 -0.0065603547257871014 -0.21814300971033757 0.19793880824004306 0.13768280291750543 0.1422615209761969
0.09109243461636488 -0.22244546363349432 -0.04740438246692801 -0.02312323458475959 -0.1141021252310588 -0.10313158164698796 0.17935267224910062 -0.028128413530528598
-0.11425308043335203 0.16168743674887937 -0.19010150613472915 -0.18416405179681722 0.06641413204118646 -0.1849803602256229 -0.12140882055684833 0.3440720598079683
-0.35206971345574534 -0.20019791984024093 0.1203158545490155 0.056449634987925816 -0.12435444344064799 0.20771756723320536 -0.09443177791921538 -0.13122242397979064
-0.0347459940783713 -0.0921349144715803 -0.10757759453728755 -0.04479631537604622 -0.14893134199768043 -0.07837351606620961 -0.22124624843316978 0.07655496339717345
0.021344368566200984 -0.1814329766569356 -0.004239148206394724 0.001754036764085599 -0.10245881723405796 0.09455770324652055 0.0925242462655526 0.08411692106292798
0.07969848383691797 0.15361600102552686 -0.009759649214955162 0.012164748506183928 0.08463000268654083 0.03103067352707056 0.0017451152729132874 -0.07684470239757234
0.07053303871785258 -0.26095121435164365 0.14085782520174298 -0.11926425593695994 -0.24135402470358802 -0.24994281835750798 -0.26876502569171096 0.053763757529974886
-0.12351381929224191 -0.15703187127600676 0.3483031515787271 0.18467839567523997 -0.004647227979921707 0.18703029745655111 0.2908846822120237 0.20265570790851228
0.08898193715227158 0.2611009903104756 -0.006015065264912731 -0.28114712436693934 -0.03262734321624587 0.19454314430327435 -0.2592346796566294 -0.08666286007864941
-0.12575072442920301 -0.19344091482184123 -0.07775268259738385 -0.01657804958638238

conv1.2.bias f8 [4]
00000000: d800 0000 dc84 893f 1d00 0020 3937 babf
00000010: e3fd ffff 6fbc 6cbf dcff ff3f a131 bebf
0.012460440397262948 -0.1024051383137707 -0.0035078227519986667 -0.11794479191303203

conv1.3.weight f8 [4]
00000000: 6997 aa2d 1f4d ee3f dd0e 4ca9 9afc f03f
00000010: e082 4b67 a2dc ec3f bd1d 3dd3 9dac ee3f
0.9469142810746521 1.0616709340255774 0.9019329087714958 0.958571350646643

conv1.3.bias f8 [4]
00000000: 2ae9 3abd bacb dc3f 4deb 1e55 e091 b73f
00000010: d150 c6ae 99d6 c4bf 72c8 d643 1979 c73f
0.4499346588087457 0.0920696456732177 -0.1627990821258494 0.183383138775358

conv1.3.running_mean f8 [4]
00000000: 91d6 44a0 65be ed3f 0031 ba2b 1a43 e0bf
00000010: bd71 11f2 d84e d3bf 7331 0dce 650a e4bf
0.9294918184520659 -0.5081911901520755 -0.30168746604411095 -0.6262692474788721

conv1.3.running_var f8 [4]
00000000: abbf 6913 9420 e43f 79f0 31c3 ac96 c83f
00000010: a275 0fd4 c24e c33f 11f1 42fa c92c c93f
0.628976858059095 0.1920982316113429 0.15084109644423643 0.19667935104178771

conv1.5.weight f8 [4, 4, 3, 3]
00000000: 4673 0eed 3921 c1bf 1dff 8d83 5858 bc3f
00000010: 8738 437d 0b2c aebf e900 acaf 547f babf
00000020: cfa8 9b35 388f ae3f cbfe e6e3 4d74 a4bf
00000030: f698 78b9 0338 adbf baff be48 ffbd b3bf
00000040: 5f2a d0b6 33b4 7fbf 5fdd 1277 e70c a73f
00000050: eb02 a271 a7b1 c63f 5522 54d9 dba8 943f
00000060: b396 283c 1ac0 c2bf 119c 5c5c b290 b33f
00000070: 4bc7 65b0 582e c2bf 2453 8314 c971 653f
00000080: 9a9b f502 da1d bb3f 7295 bf4f 5c02 d0bf
00000090: 9b18 b68f db33 a8bf d309 203c ace8 bcbf
000000a0: 0001 db65 a36e 4e3f 938a 43f4 95fb b0bf
000000b0: 3b37 3a03 4460 b83f 9d9a d375 1291 b43f
000000c0: 8586 df21 796b a5bf 6a35 e8be 627a bebf
000000d0: 044b 1eb7 eabe 90bf 0c09 8f28 6aa4 b93f
000000e0: b9a1 7334 7660 99bf c6fd 9410 ad9e c0bf
000000f0: 4517 d682 86b6 bf3f b130 f572 de60 c63f
00000100: 59d0 3cfe d3af bebf 895c dc80 0c79 cb3f
00000110: b23d 1342 3e62 c53f 5223 9077 b8de a43f
00000120: 3af6 1612 93fa c53f a077 4bd6 a560 cb3f
00000130: da64 d538 29bf c23f 7ccd 24db 877e 9dbf
00000140: 8803 20af 5088 abbf 7340 9a56 e2f3 b33f
00000150: 8efc 543f 9fff b73f 0092 d235 ee49 b33f
00000160: 48c0 21d6 0fcb bebf 5c1b c582 ac8b b3bf
00000170: 711c c90b cbcd c43f 4adb 690e 73bf c63f
00000180: 1a23 aa22 0b16 c9bf 932a e5d0 6549 c7bf
00000190: c237 a574 c81d c4bf e843 55fe ced7 bfbf
000001a0: 2a1a f352 8e13 c5bf 1310 aed5 87cc bf3f
000001b0: 4645 6305 c8b8 abbf 831e c072 f814 ca3f
000001c0: 2c32 acda 1dca acbf c50f 70db e849 983f
000001d0: 320c 5b6a 9e04 c03f 3d30 2091 5a06 c13f
000001e0: 4db5 8001 0083 b93f 2e41 f500 312e b1bf
000001f0: 1453 91e4 eaf7 7bbf 0efb 9588 d0e2 acbf
00000200: 46f9 d627 4e0e a7bf 2f0c 4790 3c17 b33f
00000210: 9709 dd31 258c b43f cacb 855e d778 7ebf
00000220: 89d1 8902 7dca c83f f25e 1f38 a78c 9f3f
00000230: 2e18 fd7c 1f79 b73f 8e41 b7cb ad92 c13f
00000240: 0b85 1734 4ae7 d4bf e6c8 7478 904f d3bf
00000250: 5a39 fe39 cba2 b9bf 691c e3d0 d846 d0bf
00000260: 1df7 5808 f49d ac3f 4535 daf1 181a b4bf
00000270: f0f1 05df 692f bb3f b19b b382 2a53 c33f
00000280: ec3c 1cf2 9b06 bb3f 320e ab51 816e d5bf
00000290: 25a3 ee32 84f3 cabf ab66 d539 5e46 c3bf
000002a0: 4d01 0a45 6aea b7bf fd93 a0a9 09a6 a13f
000002b0: 74a5 9109 0ea7 8bbf 5b07 a457 1fde 833f
000002c0: d6d4 5926 ea7e b13f 9271 5330 9c99 c13f
000002d0: 632b 0f70 d142 ccbf 70c1 b616 7e43 9d3f
000002e0: f525 59e6 287f a6bf cc39 66dc fea5 66bf
000002f0: 54bc fe45 dd67 c63f 96db c3e5 2f7d afbf
00000300: db93 972d 1299 973f 65e0 a634 3907 b03f
00000310: 78e2 c082 edbc b13f 145c 8782 099b cabf
00000320: ccdf 740d 8e02 b43f a7cb c51a 8751 c3bf
00000330: 8c71 5466 f27e cebf a6ed ec22 52b0 943f
00000340: 7fc6 7412 8141 a53f 00da ca0c eeba 983f
00000350: f01c c239 f1d9 c43f 0589 f242 b4cf be3f
00000360: 08a7 239c 269a 7f3f 37ed 2d51 d749 c2bf
00000370: e45a ca44 be61 bc3f f52c f079 7687 b5bf
00000380: 272c 3030 f962 c03f df2a 134c 0c86 c93f
00000390: f1d2 e2f8 894e c1bf 3966 6cb4 ad45 a53f
000003a0: 236e febd d233 c83f 9071 7d1e 77dc b3bf
000003b0: 7cf6 7f5d 7e95 c7bf 6507 5f50 ff04 aebf
000003c0: bb43 97e7 3b00 c23f adfc 224a bad9 b1bf
000003d0: 8947 9931 f4a8 8f3f 48fb 41cb 88a6 c43f
000003e0: 19f9 967f 33db c63f 588c 8c70 742a 9dbf
000003f0: 860d 6d12 6e61 c2bf 9020 9a4e 5a31 a6bf
00000400: 82ab 8958 cbdb bebf 53ab b546 ca3c b7bf
00000410: e69b a84e 94e3 9c3f 621a da73 518d b1bf
00000420: a72f 9938 72d6 b3bf ab2d 86d0 82b3 b03f
00000430: 67b9 81b9 4a69 a3bf 5136 1c26 9c60 953f
00000440: 7eb5 067c 571e 6c3f 7b7c ca6d 5399 aabf
00000450: de4c 1243 905d 9d3f edef a825 edea c2bf
00000460: 5178 b98f d3b2 b33f 81b3 fad1 782f b13f
00000470: 38f2 97df 73b1 aebf bb49 aec9 5b10 b1bf
-0.1338264853956394 0.11072304927619965 -0.05892978576740498 -0.1035054139028976 0.05968642858882022 -0.0399498310757714 -0.057067982092393096 -0.07711787725474908
-0.0077402134020397575 0.04502032593284854 0.17729657219390246 0.020175395145118753 -0.14648750245503592 0.07642664675641721 -0.14203938115275103 0.0026177337023035752
0.10592424938441383 -0.25014407909323844 -0.0472706425598954 -0.11292530506037872 0.0009287164536644632 -0.06633889401886454 0.09521889761728357 0.08033862473130644
-0.041835580239205895 -0.11905495796982782 -0.016353290011077895 0.10016501894191182 -0.024782034827610853 -0.12984240827243648 0.12387886709447311 0.1748312054936654
-0.11987042386027848 0.21463161747007956 0.16706064440084628 0.04076172313222649 0.17170942672048445 0.21388695682156555 0.14645877146794 -0.02880298876807562
-0.05377437722928052 0.07794012655563325 0.09374423309508215 0.07534684003855574 -0.12028597810581332 -0.0763500041258402 0.16253030848949693 0.1777175732019834
-0.19598521416289644 -0.18192742061576847 -0.15715890594077392 -0.12438672742179302 -0.1646593003299171 0.12421463934703096 -0.05414414468544719 0.2037649689011581
-0.05622952741950757 0.023719442742745196 0.12514095490596017 0.13300640188424664 0.09965515171707758 -0.06711107514752676 -0.006828229475179599 -0.05641795794780623
-0.04503101574254002 0.07457331201935412 0.08026344745034063 -0.007439461980868376 0.1936794531244568 0.030809986877868796 0.09169194032173841 0.13728878447592446
-0.32661681258294156 -0.30173122180271006 -0.1001402870735765 -0.2543241538919064 0.05589258767984815 -0.07852321533774383 0.10619222350027946 0.15097552663720884
0.10556959782501324 -0.33486969924362875 -0.21055653082773876 -0.1505849630728354 -0.09342064080738517 0.034469892460300834 -0.013502225558300586 0.009701008665164037
0.06834281383801807 0.1375003086058198 -0.22078912707942341 0.028577776085229656 -0.04393890201442822 -0.0027646997215875265 0.175044688393856 -0.061501976773732966
0.023044857056351602 0.0626102212471565 0.069289059087973 -0.20785635827516613 0.07816398457077794 -0.15092552954919577 -0.2382491111428745 0.020203860646899628
0.04151538229269835 0.024150580912385422 0.16290107078768967 0.12035681375940406 0.007715369052883288 -0.14287845100248273 0.11086644343809443 -0.08409824826246733
0.12802042820871515 0.19940332140534786 -0.13520931866300814 0.04154723002848155 0.18908151890796984 -0.07758278364548787 -0.18424968305037115 -0.05863187652677374
0.14063214119098952 -0.06972851095177886 0.015458972705491696 0.16133222508139 0.17856448869674393 -0.028482264871069723 -0.1435983266802447 -0.04334528169153018
-0.12054129516188364 -0.09077133394536689 0.02821189622968836 -0.0685625942079269 -0.07749093896671742 0.06523912039681672 -0.037912688393464226 0.02087635023695206
0.003432436817283501 -0.051951033737389594 0.028677229016989318 -0.14779438341963616 0.07694742449663862 0.06713061453292647 -0.05994760612881972 -0.06665586160514796

conv1.5.bias f8 [4]
00000000: 0000 0040 f613 be3f 0000 0040 40a4 b33f
00000010: 0000 0040 0e39 c1bf 0000 00c0 3169 b83f
0.11749209463596344 0.07672502100467682 -0.1345537006855011 0.09535513818264008

conv2.0.weight f8 [4]
00000000: 2826 80cf 3c8d ef3f 8d01 1ddb ab9d ee3f
00000010: 468d 9f13 fa3e f13f c4b2 b646 309a ee3f
0.9859909107919451 0.9567469863468873 1.0778752104314022 0.9563218480230593

conv2.0.bias f8 [4]
00000000: 0fcd 2676 c218 bd3f 3261 ca3a 4ebc 97bf
00000010: 1e75 36de c726 ca3f 6383 98a1 45b5 7e3f
0.11365905174789169 -0.023179266298570762 0.20430849409323398 0.00749709319782785

conv2.0.running_mean f8 [4]
00000000: b3dd d7ff 6292 c03f 89a3 0473 b728 e53f
00000010: 8927 94c2 4a3c e9bf 8a81 0b17 d7e6 c63f
0.12946736805291223 0.6612202879378951 -0.7886098671308314 0.17891968369714234

conv2.0.running_var f8 [4]
00000000: f104 2f3c b97f c63f 4810 2abf 1022 c93f
00000010: 0962 e89f e5d5 c33f 8af7 d8d7 5aa7 c83f
0.17577281416564675 0.19635209402270193 0.15496511753077893 0.19260726489477192

conv2.2.weight f8 [8, 4, 3, 3]
00000000: ff6e 1586 6974 c63f ef55 2aed 41f9 8f3f
00000010: ba67 415d fca1 b7bf 1926 8538 6578 a63f
00000020: 39b7 6624 b588 bebf 105a e908 f03a c1bf
00000030: 71c4 677f 34dc aa3f 1b9b 5b60 82ba c1bf
00000040: 1c72 28f8 4651 b0bf a45e 0d6b 49bf b23f
00000050: b599 e04b 3ba9 a4bf bc5e 7114 ab6e 95bf
00000060: f19d 757f 1f45 ae3f aaa4 7a46 48c7 bdbf
00000070: e0a0 9a33 3bbf a03f 768c a3a8 5387 b43f
00000080: f27b 83c5 a689 c1bf aaf4 7bf5 b017 c5bf
00000090: 94f9 cb74 cd3a b3bf 7882 3424 80a7 c7bf
000000a0: 3e05 33bb c371 ac3f a0bd 5a68 9a3e c23f
000000b0: 235d 9270 ddc9 bc3f f0ca f6e0 b2e1 b23f
000000c0: f3e0 1713 e61b c43f 5de1 257b 0ad6 c43f
000000d0: 5470 b434 983c a4bf 346c 8a58 4157 a3bf
000000e0: 62da 7814 baaa 683f 9b52 451c fa8b 9abf
000000f0: ba69 03c8 d919 99bf 61f6 e3cd 34b2 bebf
00000100: d872 20d3 eb58 a93f 4e47 8383 953c 3bbf
00000110: b1ca 7b5d d76d b8bf ffa1 24b5 16b0 ba3f
00000120: 0aaa 2f68 01b5 513f 49ef c2f1 d30c a1bf
00000130: 7495 472f d0be c5bf a2bd f8fc 791b a93f
00000140: fc63 d467 c0b9 b2bf bc9a 23ce ce68 753f
00000150: af6f a937 6347 c23f 1226 a93f 6da0 9abf
00000160: c94f 5053 3794 cabf 0d8e f257 5e1e a23f
00000170: aef9 a00b 4a69 a4bf 0d68 075d 7a0c b2bf
00000180: 3f7c ecdf 2fa2 be3f 2466 67b5 9265 bc3f
00000190: bb56 1af2 8f69 cd3f 62ae a71f 024f 87bf
000001a0: 8ce9 0853 2c27 b4bf 3215 4e6e 08ab c5bf
000001b0: b70b 2503 fd3b cd3f cf3e 0f2a 8b74 9cbf
000001c0: bf35 efa0 d740 b4bf 02c6 daea dcdc b33f
000001d0: b1b4 f7f8 dbd4 a73f 4ced f599 9185 d4bf
000001e0: 11ec d2ca d3ac b33f bd4a b9c3 9a41 c0bf
000001f0: bd3d 3367 4b9c a43f f68f dbd0 9149 73bf
00000200: 8443 05b2 2fcf c83f 70e2 de7c de4c be3f
00000210: 04e1 4b16 4fa9 ae3f 5154 8f4e 391b b83f
00000220: 3abb 27c1 9267 c1bf a86e b906 6fe2 b6bf
00000230: c104 c3d0 7fe9 c0bf 811e dd1d 5261 d5bf
00000240: 2f6d 973e ccbd 7cbf efc1 76a4 1b23 9f3f
00000250: cc63 427d 2025 ba3f ab7b fb6d 54f6 a83f
00000260: 9b93 0455 965a bd3f ba69 02cf 9ccd 6fbf
00000270: 2182 8462 9c06 d0bf 1ccd ba2e 7de6 b7bf
00000280: 0ef4 dc37 bef6 b8bf 038a 3fc4 8174 8a3f
00000290: 69ed 165b ff51 bebf 6d49 a8ad 6d14 bebf
000002a0: 0f9c 9003 39e9 823f 6314 8621 c5ea c53f
000002b0: 57be 85f1 0d4a be3f 3354 f83a 4058 bb3f
000002c0: e621 01b7 3486 b4bf 1b9c 7906 c57d 443f
000002d0: 58a8 4b24 75d3 6f3f 614a 137c 96e2 c43f
000002e0: 6e20 0a76 b2ab abbf d7e6 654e a85f c2bf
000002f0: 4dc6 f985 6a71 643f ed10 bd6d f3aa ba3f
00000300: 4505 f052 f1e7 bcbf 6906 b97a d759 c6bf
00000310: e071 c91f 70e2 c1bf 7277 7dd3 f6fe 643f
00000320: 2bb6 15c9 6df4 b7bf 6cc9 b5ed fc66 cabf
00000330: b11f db4b 9d07 b13f 0a80 bc90 9a60 60bf
00000340: a3d5 eb8e 9e87 94bf 463d bf72 0400 aa3f
00000350: d4ce 9bd4 8582 c9bf 51a5 cd39 f77b a83f
00000360: c32f 1eca d360 b43f e09e e329 f6f1 c0bf
00000370: 1385 6797 4451 623f e9f0 e611 b4ed f2be
00000380: b2ec 77c0 77b5 c2bf ebe7 a722 9be4 aa3f
00000390: 6efd 28e6 62a7 bcbf c306 55f6 1599 c43f
000003a0: 5536 d128 4a58 a2bf 7886 2775 44c2 a8bf
000003b0: cf85 6206 fd44 b2bf ac01 accc 4bfe a6bf
000003c0: fd8e 6f2d 1393 b53f 5912 de2b eeba b2bf
000003d0: 7310 7529 56d0 c1bf 3e3c f7b8 cdd4 c0bf
000003e0: edb6 ff9c 813d a73f 70d1 8e13 5329 b4bf
000003f0: 3fac c157 d256 cdbf 71c6 c89c f965 a1bf
00000400: 3781 d3bf a236 a23f fe62 512e f3f6 b8bf
00000410: 9ad3 93fb affd a5bf 70b3 db3a 0ffd c1bf
00000420: 273f 2523 6ddc c93f 6f99 7195 ac5d bbbf
00000430: 5864 b347 787a aabf 0e44 7603 cb25 bebf
00000440: ef88 92ad fffc b53f 2ee1 195b 86ad 983f
00000450: cce1 d407 f30e c3bf 3858 9e77 c0b6 c2bf
00000460: a65a 4ba2 df9a c53f 2039 2411 83eb 953f
00000470: 077a d3a6 0bb3 b4bf d0af 285c 1aac 96bf
00000480: 62a8 e258 ce4a c43f ca16 4d83 3abb 843f
00000490: 78d3 9c57 dd8f ad3f afc4 ee98 3a0d bfbf
000004a0: 2fb1 937d 4c3c 99bf 39f9 d28b 2406 b4bf
000004b0: 15a4 3d81 114f b5bf 77c9 f63f ff17 c9bf
000004c0: 5aa4 fb19 36aa bc3f 37a4 f266 743e d5bf
000004d0: c315 40cc 1860 b43f f108 e636 f33d ba3f
000004e0: 9d64 c975 87d2 babf 191e 2419 e03c c63f
000004f0: 6930 09d7 05df ca3f d3b2 47e1 1c1e d9bf
00000500: c833 92ee b53b a2bf 650c 2c34 68ff d23f
00000510: 8d2d e4f0 843c a53f 8628 43a2 a033 a53f
00000520: d489 652a 7f87 9e3f 51a3 42f3 94cb c4bf
00000530: 3632 136a 1130 a73f 2aa0 d3fd e2e8 ac3f
00000540: 0f5a bf7b 1064 b93f 9559 830c a255 cabf
00000550: dd77 66fd 6824 c0bf ecca 29a1 0dd3 c3bf
00000560: e6d0 3cc3 91e2 c13f bb16 741d ba2b 8d3f
00000570: 1164 57f6 782a a3bf 9354 6a0c fa12 d03f
00000580: abef a437 3e9b ad3f 6cea a22d a40a ccbf
00000590: 1ea3 170d 8d6b c33f 5638 dc78 b23e 83bf
000005a0: 09d9 41ef 9765 abbf 2203 8afe e60a 893f
000005b0: 7ab4 d6c9 9e4f 76bf 004c a661 6a94 a2bf
000005c0: e0fa 1d13 9205 c43f a19e df36 a1e8 be3f
000005d0: 5a01 a56a e54d c8bf ae11 db17 a21d ad3f
000005e0: 4cba 31a8 11df b93f 927c b219 e956 babf
000005f0: 7738 434d cce0 c23f 0922 70e0 c0fb bfbf
00000600: 6f46 3fd5 4dac c4bf a13d 168a 12a8 af3f
00000610: cbe1 b9fb 6868 943f 4c36 9ba9 38ba a8bf
00000620: 6e5f b0d6 f5ce b6bf 38e3 f814 bd32 a6bf
00000630: 30e3 dfda 73b5 70bf a0d2 ee04 f8d9 af3f
00000640: 71b0 b5fb 0f50 d0bf 9793 124e 7433 b53f
00000650: 780c 8c65 6ca8 d13f f458 4cfc eccb 943f
00000660: 8bf7 5e11 c129 78bf 4215 5f7e c0ed a33f
00000670: 5a9d f5f4 5cf6 cdbf f765 8e08 beb8 b6bf
00000680: 3002 9336 9c55 96bf 6fef 831f c01d be3f
00000690: 0cc2 9bf2 36bd 92bf 404e 72f3 e270 ab3f
000006a0: a633 aebb a115 bf3f 4cea 160c 2a25 903f
000006b0: ac9c 8a8c f15a bbbf 3da6 7818 f5b9 a3bf
000006c0: b58f b9ea 975f afbf 11aa 8e37 9f3a 00bf
000006d0: 3d57 defa fcc1 90bf 882c 49c8 050e ccbf
000006e0: a4c4 beda 39df a83f 52d4 4728 33d4 b83f
000006f0: ed2f 97b1 ae05 aebf aab8 5880 b98b b43f
00000700: 2208 4056 fe52 c83f 0628 1668 d73b 873f
00000710: d5f8 7b93 53ff 6cbf cb44 ffcf 66a6 b43f
00000720: f3ae c4eb 5f3f be3f 6f68 b420 85db 8f3f
00000730: 590e c0d5 fcc4 c4bf 150f 50c3 ca27 a1bf
00000740: a7dd 921c 4384 94bf fdbc 6d9c 467c b8bf
00000750: 2e60 1aff a10d 9abf 9ce7 d594 bb90 b9bf
00000760: 676f 987f 57e5 b73f 9a2d e177 110d c5bf
00000770: 8db9 f497 8cb2 cebf 02dd 94d5 f05c ab3f
00000780: 5f20 ced4 07f7 a7bf df4a 5288 4787 953f
00000790: 66f1 cf44 6741 c63f 2df3 8005 ad0e 9dbf
000007a0: 1e42 e0d2 0263 c9bf 29d4 ddb2 3532 9bbf
000007b0: 6860 2c68 7dd8 c33f d7f4 3957 9e4e 79bf
000007c0: 4876 d6de 0d34 b73f 77b3 1e6a 03f9 b8bf
000007d0: 0ace b686 8625 a2bf f102 e527 a95a c0bf
000007e0: 937a e414 5d4c b4bf f541 7a8e 52c6 9b3f
000007f0: 5a3d 0f04 79db c53f ca4c 23a4 0fe0 cebf
0.17542761847550278 0.01561213974972994 -0.09231545712228142 0.04388729395811825 -0.11927349222852691 -0.13461113391049695 0.05246128134957296 -0.1385043116090053
-0.06374019201798159 0.07323130477504464 -0.040353634846087706 -0.020929978487713483 0.05912111693288214 -0.11632205696754974 0.0327089786999879 0.08018992297324865
-0.13701328891963233 -0.16478549944432547 -0.07511600591167272 -0.18479921119525833 0.05555545482776346 0.1425354966681711 0.11245521543820707 0.07375638954435337
0.15710140163697126 0.16278201115688776 -0.03952479976052872 -0.03777507978266961 0.003011096417846291 -0.025924594855796994 -0.024512675125927898 -0.11990671183226588
0.04950653984289993 -0.00041559839475012884 -0.09542604477227702 0.1042494003528489 0.0010807527294171026 -0.033300994169137406 -0.16988565739226724 0.04903775418312796
-0.07314684424308376 0.005226905663426148 0.1428035756861141 -0.02600260449461273 -0.2076481968693982 0.035387943492676134 -0.039865793151409576 -0.07050289889539858
0.11966227738274514 0.11092488220983704 0.22978400536947227 -0.011381165114435269 -0.07872273471085672 -0.16928201089846479 0.22839319852400106 -0.027788328592406594
-0.07911441496908987 0.07758885129694451 0.046545862332871286 -0.32065238986225064 0.07685588552242019 -0.12700209194971093 0.04025493273513401 -0.004708833306469975
0.1938228244057677 0.11836042927360224 0.05988547465489272 0.0941654030605872 -0.13597330504804878 -0.08939260400932858 -0.13212583249518242 -0.3340649882925178
-0.0070169428158480115 0.03040736380870784 0.10212901170815697 0.04875434725339941 0.1146635015071084 -0.003882223383766728 -0.2504034959875146 -0.09336073294507624
-0.09751499999852362 0.012917531777877583 -0.11843868230692113 -0.11749921312028784 0.009233899518291037 0.17122711312200342 0.11831748148483122 0.10681535186479678
-0.08017281978494104 0.0006253444707454732 0.0038850105214481116 0.16316491182677154 -0.054044320019841816 -0.1435442335894581 0.0024954872640641558 0.10417100361980021
-0.1129141643032386 -0.17461675159761406 -0.1397228388986056 0.002562982637683336 -0.09357343825623647 -0.20626794440211016 0.06652243711425744 -0.0019991892676358746
-0.020048596833438414 0.05078138256760183 -0.19929573899536612 0.04782078343016372 0.07960246738929215 -0.13238408131950674 0.002236017196296411 -1.8051651858406416e-05
-0.14616295717119027 0.05252537534757081 -0.11192911261695368 0.1609218075555444 -0.03582984684235827 -0.04835714273555153 -0.0713651791179679 -0.044908875212061744
0.0842754350592791 -0.07316483088477223 -0.13917042755395279 -0.1314942505982532 0.045391130843069984 -0.0787555620907534 -0.2292120865343765 -0.033981132878022964
0.035573087612422 -0.09751815682228579 -0.042951106510293616 -0.14053526281295659 0.20203937736595742 -0.10689810417679778 -0.051715620758564895 -0.11776417574425599
0.08589170444114179 0.024099444685334585 -0.14889371759797 -0.1462021431040641 0.16878886627701667 0.021406219407304694 -0.08085701773550379 -0.022140895724234444
0.15853289928537878 0.010122735149376356 0.05773822493066566 -0.12129560693462581 -0.024644084133727148 -0.07821873105692569 -0.08323773770611383 -0.19604483245127444
0.11197221884107603 -0.3319369321203029 0.07959132181721089 0.10250778284356322 -0.10477491975452087 0.17373276927558903 0.2099311161022144 -0.3924629402161319
-0.03561180627102761 0.29683880896499765 0.041477350621870725 0.041409511382497974 0.02981375404613991 -0.16246282461113506 0.0452886049257341 0.05646428440542224
0.09918311139276902 -0.2057383118723918 -0.12611114857730757 -0.15487833375262683 0.13972684891780957 0.014243558906410816 -0.037433414526908966 0.2511582490199739
0.05782503537417879 -0.2190747473558362 0.15171969546579417 -0.009396929086076405 -0.05350947185154282 0.012227825777928528 -0.005447025554002777 -0.036288570804707376
0.15642000134899714 0.12073714818654448 -0.18987720210317144 0.056866708194806534 0.10106001240067392 -0.10288864972470638 0.14748529217326098 -0.12493520240253288
-0.1615083018537464 0.06182916579848131 0.019929542888776724 -0.04829575605763789 -0.08909546367101281 -0.043355854806981176 -0.004079296644697902 0.0622098451634987
-0.2548866232016343 0.0828163805586669 0.27590475002961723 0.02030916490465358 -0.005899194880781065 0.038923278261374 -0.23408090554151323 -0.08875644406216297
-0.021810952025363928 0.11764145631235377 -0.018299921567576802 0.05359563085326302 0.12142382461588727 0.015766770351300516 -0.10685643845737286 -0.03852811740609894
-0.061276194956718134 -3.095434562479596e-05 -0.016365006267356142 -0.21917793540555786 0.04857807917813631 0.09698791249668773 -0.058637103251015656 0.08025702842198493
0.19003276072913972 0.011344607223481528 -0.0035397178979784485 0.08066408708625088 0.11815452104627493 0.015555419979637912 -0.1622615855886689 -0.0335067141932354
-0.020035790080070417 -0.09564629859027103 -0.025442630000356008 -0.09986469634705347 0.09334322800753868 -0.1644613108968372 -0.23982388896679332 0.05344345671840679
-0.04680656883925915 0.021023862548257163 0.1738709531781623 -0.028376296482963404 -0.19833407684974785 -0.026558722536226185 0.15504424654568827 -0.00617849208685791
0.09063803377508706 -0.09754964199846748 -0.03544254679163934 -0.12776674697854376 -0.07929021606512725 0.027123727747097665 0.17076027582377656 -0.24121280207200463

conv2.2.bias f8 [8]
00000000: 0301 0000 d049 7e3f 0000 00e0 9750 c43f
00000010: 0000 0000 ae0d c0bf 0000 0000 e834 a9bf
00000020: 0000 0000 866e a8bf 0000 0040 2316 bf3f
00000030: 0000 0000 86cd a13f 0000 00c0 40ea b1bf
0.007394611835479961 0.15870951116085052 -0.12541747093200684 -0.049231767654418945 -0.04771822690963745 0.12143154442310333 0.0347711443901062 -0.0699806660413742

conv2.3.weight f8 [8]
00000000: 8942 545b 3690 ee3f a4c4 b499 2f2f f13f
00000010: 35c4 a9ec f41b f03f 1ca0 6188 7631 ef3f
00000020: 3327 3867 b982 ec3f 9f2d b3c7 1472 f03f
00000030: a3b4 d3fb 762b f03f 0b17 3d3a 3681 f03f
0.955104044320323 1.0740200046678092 1.0068253750471403 0.9747879661272267 0.8909575477602857 1.0278518486764836 1.010611518572923 1.0315458559939

conv2.3.bias f8 [8]
00000000: 622d e5f2 ecf1 aebf 1140 106b dba8 c83f
00000010: feaa e934 4d6f 903f 7ed7 02ca d9a9 afbf
00000020: a24c 58cd 5d0b abbf 3b62 ad0c 9d9a ad3f
00000030: 20a2 3a21 c4ed a5bf 8f47 1ede c536 b33f
-0.06043949570684039 0.1926531098147284 0.016049581865824607 -0.061842733296926675 -0.052821093861120674 0.057820232198257014 -0.0428296366274632 0.07505451844033771

conv2.3.running_mean f8 [8]
00000000: 7654 f49b 0f50 b1bf dcc8 d342 c33d b0bf
00000010: b1b0 246e b493 ddbf ebcc e2b8 f71a e3bf
00000020: 833c c689 4774 c0bf 588c b545 caeb b63f
00000030: ef93 0d3f 54d3 cabf 891a 9838 ad37 b33f
-0.06762788350563817 -0.06344242459798316 -0.46214018589194966 -0.5970419512799742 -0.12854856707824433 0.08953537179836368 -0.20957425192605636 0.07506830817883715

conv2.3.running_var f8 [8]
00000000: a1e4 ddf6 1041 c63f 098d f908 3818 bc3f
00000010: 965f d5b1 8a47 b33f 7147 479a e94d c43f
00000020: ca08 d688 fd69 c13f a3e9 fc7d 58b7 c23f
00000030: 9a35 b087 bdac b73f 6e2a 8404 7bcd c83f
0.17386066488305565 0.10974455088721781 0.07531039086950239 0.15862770112158445 0.1360470693726426 0.1462202658820618 0.09247955858901094 0.19377076836129298

conv2.5.weight f8 [8, 8, 3, 3]
00000000: d9c4 a11c c608 b43f 1886 b362 3818 bb3f
00000010: 3255 9f81 7ca8 873f 26f3 d848 163a c63f
00000020: ebb7 23c5 f63e b7bf 7550 2acb 09ca a5bf
00000030: 3e01 2f9f f79d 9e3f 4348 878a e011 b2bf
00000040: 644d 21c0 1285 b13f 782e 433e 6a0d b3bf
00000050: 8212 a848 7a06 bdbf ee8a 93df 9df9 b23f
00000060: bcfa d195 25d5 b3bf 5f2d 31e1 0c10 aa3f
00000070: ef5a 6c2b 3e55 bbbf aff3 62c6 e529 b13f
00000080: 49a7 e956 3cab ad3f 1c33 1a9a 79b4 a9bf
00000090: a28f 1185 33eb a1bf c300 520f 6800 94bf
000000a0: c734 32fd 9f9a a73f 7df1 c12d 4dd1 aebf
000000b0: 5991 dc26 e97d bfbf bf18 05ed 1cf0 c23f
000000c0: 3db0 e56c ea46 973f f8c1 2639 1e10 c2bf
000000d0: fdc7 af32 926e af3f 9922 27ff 39e5 b43f
000000e0: d9c0 4cd8 d6c2 a3bf 307d eb35 16f7 253f
000000f0: 8465 73f2 9776 abbf 10ce ab1c d2c1 c03f
00000100: e7b8 f7da f5e8 a13f e64d 3def 51f1 b6bf
00000110: 87ad fb3d e81d a7bf 8b79 071b 0fec a73f
00000120: 2710 23bf cf79 8b3f 1813 f2a0 4137 a53f
00000130: 217b 2bdc 3f68 af3f b4d5 dd61 f52c ac3f
00000140: cc40 dd2c 4629 b63f 96ce 0277 0a72 c13f
00000150: 46bf ef76 6504 b63f 0b20 e7a4 6a85 b03f
00000160: 3371 a5d6 a7e3 a93f 611f 2743 ade7 c2bf
00000170: 1a68 66d2 9433 b5bf 5012 3666 1c28 843f
00000180: 6c29 b959 bd40 c1bf c4c3 3aed 2b97 b3bf
00000190: 9877 fef8 ef66 843f fb57 75ed 0a6c b3bf
000001a0: 9d70 794c e2b2 71bf d41f 07cc bb21 973f
000001b0: 4aa3 745f e1c5 a6bf b3d7 99d7 3a58 b13f
000001c0: a4c1 9708 cf66 a8bf 76bd 0dd7 3d6b c1bf
000001d0: c164 ecfd e7b4 94bf ee86 6735 70a0 b43f
000001e0: 4fde 33d8 4c07 abbf a389 f42c b368 c1bf
000001f0: 8d62 9537 d582 ac3f 6b08 2df5 a8e3 ae3f
00000200: 15d9 f9cc 034b 69bf eee4 af63 0460 c0bf
00000210: 81df 0b44 9954 a3bf 9263 8f4f 8414 4b3f
00000220: ab8c 2b6c 7b15 b9bf 862f 3f4d d515 b83f
00000230: d5c5 6f9b dd58 a4bf fff3 8f67 7e48 abbf
00000240: e5b8 58d8 72dc b2bf f99f cfd5 7403 783f
00000250: ca80 0ac0 1bc9 ae3f 6b39 bc6a 4fe2 a8bf
00000260: b222 77dd 5f38 bb3f d969 1751 245c bd3f
00000270: faa8 b695 4236 babf 6158 38cc a39a 993f
00000280: 4e03 ad44 0feb afbf 2195 3ac7 435a ccbf
00000290: a9ab 2394 60d9 a13f 6f83 1788 8197 b03f
000002a0: 7106 a969 e209 c4bf 3d5b 5968 8eb3 bcbf
000002b0: db90 b3ce 0b3f a4bf 4cbc cbfd 0aee bb3f
000002c0: 5099 66b6 f0b1 c53f e41e d869 835a bc3f
000002d0: 07be 0843 f298 b2bf 8b5b 1038 50d1 c4bf
000002e0: 372d bb13 5f1a 5f3f 6a82 4300 a6f8 b13f
000002f0: b45b e9ae 2caa 89bf cd1f a46a 4b61 8dbf
00000300: 6013 a388 2321 bb3f 22fe 6611 0778 9e3f
00000310: 8165 2a2c 28ed 86bf 07e6 c457 b341 b53f
00000320: 34a0 d11b 7f39 893f d150 1228 9bda ac3f
00000330: 7bdf c110 d8ac 9b3f a6b7 7120 8da3 963f
00000340: 7f85 cded d2f0 babf 362a 8e54 c4d6 bbbf
00000350: 16a2 93e4 21c2 603f c347 dd59 3431 a13f
00000360: dc2e 22b8 9b57 90bf 010a 0202 ba9c a63f
00000370: fb0e e7ca 3574 93bf 548a f781 d574 be3f
00000380: 52c2 7da8 473b aa3f 2145 a5b5 64d8 64bf
00000390: bce4 91f3 1159 b1bf 6844 ad6d af71 af3f
000003a0: 7d33 3445 825e afbf caba 080f 71da b13f
000003b0: 4ff5 4a01 dd40 b0bf ad64 e052 88da babf
000003c0: 3891 01eb 88b2 a03f 988b 2f80 fe76 b53f
000003d0: 5528 7075 da9c 8bbf 6a0d 1257 99d9 bc3f
000003e0: f707 f698 6a1a 953f c1a1 090b 85d9 a1bf
000003f0: e699 4c16 ece4 bc3f 1994 761c 30ff 8dbf
00000400: 1f32 37db 3ae8 96bf cc3d 4d91 30b2 a43f
00000410: a994 961e 360f c1bf 1801 7f35 3762 afbf
00000420: 259b 42d8 8ec6 bd3f efd3 1454 6143 bcbf
00000430: 92a5 4313 f651 933f d84a bb18 e8f3 803f
00000440: dbe6 b5ea 5dc2 bdbf 792e e956 9747 8a3f
00000450: 1bab 9be9 bbfb b03f 9b33 00f1 abf5 983f
00000460: 5b73 bd5d 09e6 a8bf 61c9 93a6 34bf b2bf
00000470: f788 478d 2794 c3bf a6fc fb9c 493d bbbf
00000480: efa1 4b5b b119 ae3f d3c9 34d1 3c56 c63f
00000490: fe4f 706e 6a72 c43f b14b 2996 fac2 b73f
000004a0: 0860 adc3 ea7a bc3f 4ede fd2a 2467 ae3f
000004b0: 00c9 f0f6 ae81 b5bf 1564 0cb3 bab0 ba3f
000004c0: f830 2da8 ea2d af3f 7d21 b1e5 f1b3 bebf
000004d0: c64d 92e6 cb56 a5bf c96f 55d4 8462 803f
000004e0: 923b d5d1 2091 a6bf 625d 4d49 e5dc b5bf
000004f0: 423a 916d 3b8e 74bf ba9b 62ac bd6e c5bf
00000500: d9ed 4e8e 86c9 b7bf 7265 2ed8 9787 9e3f
00000510: 68fa bd7f c817 9dbf f898 d2cd 66aa 7b3f
00000520: 4bb3 521d ab56 c63f 8b6f 2f8c e223 be3f
00000530: 5eab 496b 3d66 aabf 431f 298b 8ff3 f5be
00000540: abb2 4454 8f8a 7fbf a3a3 96f9 4247 a43f
00000550: 0b82 daa1 3020 a3bf 97c8 cfc3 cbc3 acbf
00000560: ed82 16b0 edb9 bf3f c29f 9605 3f33 c03f
00000570: 9dd7 c6af c396 b6bf d76e 1284 5e19 b63f
00000580: 2405 62ce 343e b2bf af9d 9392 8c0e 9ebf
00000590: cc88 2b90 67c2 8b3f b9e5 441a 2b81 a13f
000005a0: 53ec 37fc e374 adbf 555b a776 2660 ad3f
000005b0: d73f 5289 540a 9b3f d723 7463 5be1 9f3f
000005c0: 5bd5 234d ca91 9e3f ba32 b610 5839 b2bf
000005d0: 78cd 58a7 cf5e b1bf aa3e b901 90da 8b3f
000005e0: 79ba eb25 f520 923f 3074 174a d103 733f
000005f0: 564a 6660 f43f 83bf 8b1b 5134 4904 a23f
00000600: 9730 90e1 7b59 b9bf 3258 3469 4bb3 8d3f
00000610: e583 be69 dc57 b23f d0ff 24c2 ca68 b6bf
00000620: 00da 387d 11fd 913f 2720 5e58 3ef9 a6bf
00000630: 4c48 e50c 7d6e a13f 235f 6620 06e5 b6bf
00000640: d9c1 05fe 4ae3 abbf c2ea 0675 ddbf b3bf
00000650: 6e55 824d 589a b9bf 141c 841a 777a c13f
00000660: 483e 4005 30e9 8d3f f754 005c 1ca2 b1bf
00000670: fda0 b453 ab18 973f 3852 3818 96db bcbf
00000680: fe1e 461a ec88 c63f 032e 3f3b db53 a93f
00000690: bdb1 2476 58bb 8d3f 2d11 ebdb 3cd1 b43f
000006a0: 37c6 c320 82cc 533f eda7 5891 6424 943f
000006b0: 58b9 a0a3 05d5 79bf 60e9 57fc a765 963f
000006c0: ec3d 085b 0bc2 b1bf 0c6a b564 c8ed b9bf
000006d0: 2b9c 9a3e e3a6 ba3f ecfa 2918 13c1 b03f
000006e0: 2894 99f0 5206 a33f a1a5 d026 e319 afbf
000006f0: e51c 0ac6 4326 c13f 8425 d667 1c20 a2bf
00000700: e823 2565 5f25 a93f 733d 01e0 8eab 83bf
00000710: df8e 69c5 4863 aebf fabd 4983 69fb b1bf
00000720: e0ae 5a88 1c5c a13f 000c fac2 a204 bcbf
00000730: f640 6054 c04e 9fbf e641 28ec 66dd 5abf
00000740: d0c7 7f54 f10f aabf cb5b 70bb ea76 8ebf
00000750: 9749 6f60 8cba ad3f 7492 2987 e6c7 bfbf
00000760: 38c4 5f56 b7a1 8dbf f5f8 813b 9fa0 b83f
00000770: 93d5 237c 7790 7f3f da43 39ee a659 9f3f
00000780: c736 755a 4160 91bf 6907 2fb1 ba85 bcbf
00000790: 7a1e 3ab3 b953 813f 69a0 dfcb e81b b93f
000007a0: 45eb 25d6 8f15 aa3f d934 7ff8 2076 8e3f
000007b0: 5fed 03ce 802c c83f c110 c5e9 d1d4 b73f
000007c0: 1b93 2e22 e499 abbf fc5a 30b9 7651 b8bf
000007d0: 118f e3cc 80b1 aabf ee63 3b60 7796 c2bf
000007e0: a458 4bc9 0b0c bbbf 7eaf 5520 97bd c23f
000007f0: ef81 f0e2 b6ca 933f 3038 b69c c4d4 c2bf
0.07825887869855154 0.10583832177828645 0.011551830964814689 0.1736476760578622 -0.09080450356461227 -0.04255705456776663 0.029899472323223757 -0.07058528310815952
0.06843678656269031 -0.07442344684675983 -0.1133800914177048 0.07412134846121507 -0.07747111232491027 0.05090370415617928 -0.10676945266855474 0.06704555600567973
0.05794704972215798 -0.05020504003650769 -0.034997568124509174 -0.019532800612524392 0.046101569802979685 -0.06019059356273979 -0.12301499556321484 0.1479526669811033
0.02273145951896559 -0.14111688414187973 0.06139046543820823 0.08162271956747204 -0.038595880416666346 0.00016758104444301305 -0.0536391719303522 0.13091493987995806
0.03498047159142619 -0.08961975184256907 -0.04515004879598466 0.04672286229082364 0.013415930767571705 0.04143719758670822 0.061342235208704084 0.05503050632152498
0.08656729312247363 0.13629275141794456 0.08600458291743704 0.06453577543209137 0.05056499953454576 -0.14769521502443708 -0.08281831871718773 0.009842130536307142
-0.13478819733638703 -0.07652544538247158 0.00996196249598906 -0.07586735055278375 -0.004320987681776381 0.022589620902891586 -0.04447845735768981 0.06775253070540437
-0.04765936832325515 -0.13608525276820743 -0.020221352456336165 0.08057309440439628 -0.052790070907516744 -0.1360076875217376 0.055685675654506196 0.060330657890987315
-0.003087527678697142 -0.12793021075757544 -0.037754811817591445 0.0008264204071749429 -0.09798404112693741 0.09408314834507622 -0.03974049112720094 -0.05328745855511129
-0.07367627889536583 0.005862671267983893 0.06012808532000376 -0.04860160997314974 0.10632895619267904 0.11468722324153847 -0.10239044337382444 0.025003966655355096
-0.06234023774459861 -0.2215046618268071 0.034861581881919186 0.06481179783396639 -0.15655164870445362 -0.11211481139740172 -0.0395435037442284 0.10910099693477199
0.16949280649459775 0.11075612386786876 -0.07264627586913984 -0.16263773667807543 0.0018983772742327662 0.07020032411993218 -0.012531613433720647 -0.014345730964592374
0.10597440801491365 0.029754743992951423 -0.011194528434588904 0.08303376095582148 0.012316697155441238 0.05635533203272448 0.027026535055909556 0.022108273606526695
-0.10523718171818607 -0.10874583305682325 0.0020456945390956533 0.03357852551438569 -0.015959199060076354 0.04416447901259702 -0.018997993954839903 0.11897024558087682
0.051233519857195944 -0.002544590662332383 -0.06776535221605945 0.06141422475651198 -0.06126792044424343 0.06973940484088384 -0.06348973542750012 -0.10489704154351172
0.032612112700720564 0.08384695653471252 -0.01348276778118788 0.1126952970098977 0.020608583055498255 -0.03486266860710741 0.11286807579435951 -0.014646888607623908
-0.022370261793002052 0.040421979653384094 -0.13327671521725407 -0.061296201019560737 0.11631100444592997 -0.11040314009444761 0.01886734478549596 0.00827771497225653
-0.11624705295789843 0.012831861820038913 0.06634115651438004 0.024374662956734388 -0.04863003987586608 -0.07323006693676383 -0.15295881651315543 -0.10640392382264227
0.05878977050253186 0.1745067616953536 0.15974169151797918 0.09281889120147359 0.11125056531216171 0.059380655525214196 -0.08401006249258458 0.10425917502688294
0.060897191075669654 -0.1199332414408953 -0.04167782964318749 0.0080004098223795 -0.04407599030911692 -0.0854018501244034 -0.005018455639471288 -0.16744204442258398
-0.09291878675769939 0.029814121789603694 -0.02841103820491711 0.006754304483513211 0.1745199101618716 0.11773506090633938 -0.05156127867379355 -2.0934495021301317e-05
-0.0077005003734426465 0.03960618302091425 -0.03735496497870735 -0.05618130460051523 0.12393079327604158 0.1265639092719067 -0.0882379821913148 0.08632460331358104
-0.07126169241566466 -0.029352375456168363 0.013554390990467978 0.03418860145252318 -0.05753242925489901 0.057374193176363754 0.02640659416334742 0.031133106179399874
0.02985302062821425 -0.07118750007630129 -0.0678529532968265 0.013600468685722806 0.01770384830427438 0.004642312561796522 -0.00939932746112963 0.0351889492381395
-0.09902166611590456 0.014502133510671287 0.07165315229077825 -0.08753649940354014 0.017566941516827583 -0.04487032726962097 0.03404608518998539 -0.0894321278668682
-0.05446848250256026 -0.07714637858490916 -0.10001136677086261 0.13654984278420612 0.014604926262136733 -0.06887986417889978 0.02255504320524525 -0.11272562114056306
0.17605353625207693 0.04946789835193146 0.014517489533852119 0.08131771439645226 0.0012084265500188604 0.01967007767795075 -0.006306669261944307 0.021872162606066836
-0.06936713192430205 -0.10128452738482724 0.10410900381485592 0.06544608440342942 0.03715762316714005 -0.06074437950912715 0.13398024721048 -0.03540123717818758
0.04911325559312002 -0.009604564868054699 -0.059351228807626326 -0.07024249511027128 0.033905879635623526 -0.10944573650526479 -0.030573849820997055 -0.0016397004225191469
-0.05090288311465907 -0.01487525352972154 0.05806387593442535 -0.12414398956168232 -0.014468605349948857 0.09620089724373655 0.007706133592582448 0.030615433015842665
-0.016968747278318454 -0.11141554666303723 0.008460474760126891 0.09808211305028326 0.050945753947380136 0.014873750289462627 0.18885812815993128 0.093091125080778
-0.05390847127208628 -0.09499303837979406 -0.05213549138150431 -0.14521686743572054 -0.10565255798732892 0.1464108379253694 0.019327981568609983 -0.14711816455786808

conv2.5.bias f8 [8]
00000000: 0000 0000 4b2c 843f 0000 0080 030a b7bf
00000010: 0000 00c0 473f a83f 0000 0020 d9bb bdbf
00000020: 0000 00e0 4352 bd3f 0000 0060 d5f9 b8bf
00000030: 0000 0080 5ec0 bbbf 0000 00e0 a7fd b6bf
0.00985010713338852 -0.08999654650688171 0.04735779017210007 -0.11614758521318436 0.11453651636838913 -0.09756215661764145 -0.10840407013893127 -0.08980797976255417

conv3.0.weight f8 [8]
00000000: 0d15 d6a1 7fe7 ee3f 1df9 3a31 3311 f03f
00000010: 9cba 80a2 27a7 f03f 2b33 4d03 e884 ee3f
00000020: bdb3 4ac7 14cb ed3f 008a 0e9c 5edf f03f
00000030: 09e8 74c7 995c f03f 6d73 1ba4 0bd0 ef3f
0.965759101950114 1.0041992114125329 1.0408092830436209 0.9537239136203416 0.9310401813905781 1.0545335861176 1.0226075927043914 0.9941461758822762

conv3.0.bias f8 [8]
00000000: 8c3e 04f8 5ce3 97bf f62c 123a 0a07 b13f
00000010: a288 e78e d753 a53f 770e 6b06 4f87 85bf
00000020: 0b9e 8af0 e6de 8abf 76d8 1850 6ba5 c63f
00000030: 88f9 bc13 446d b83f 8e6e 549f 2ef4 c63f
-0.023328259122591663 0.06651367109059322 0.04165528888167215 -0.010511987098090743 -0.013120464530699946 0.1769231930827037 0.09541726571931097 0.17932684688354467

conv3.0.running_mean f8 [8]
00000000: a161 7a9e 19be 82bf fe57 a7b9 3bba b63f
00000010: fb3f 5faf ac01 d83f ea15 33dd 5961 c8bf
00000020: 434f 341e 6a86 cb3f 07ba 4e19 dc57 d9bf
00000030: 2c7e b77a f713 e8bf 31d8 76e6 461f c33f
-0.00915164961706766 0.08877919466553405 0.37510220647982323 -0.19047091770896368 0.21503950571843164 -0.39598753425062266 -0.7524373432933706 0.14939199689041652

conv3.0.running_var f8 [8]
00000000: b0d3 0528 6501 cd3f 580f 7be2 9bec cc3f
00000010: ec2c 77a1 e3fc d13f 2940 f71a e9b5 c23f
00000020: 8bf6 1eba 1716 d13f 803a 7893 004c cb3f
00000030: 5149 cb43 e6c3 c53f a510 d8ea 8376 e33f
0.2266050763534202 0.22597073134067602 0.2810601307689484 0.14617646996203007 0.26697343040346116 0.21325690460840363 0.17004087744005372 0.6082171999737694
