Coursework2/networks/Weights/Unetk12lr001ep1v1.pt (torch, 308653 bytes, 92 tensors)

conv1.0.weight f8 [3]
0	0x3ff007bc322210a7	1.001888461906711
1	0x3ff011bc65744b5f	1.004330059343111
2	0x3fefcccef8d242fa	0.9937510356704415

conv1.0.bias f8 [3]
0	0x3f695d68702094a4	0.0030962981991416606
1	0xbf64f9459aa7bcc7	-0.0025602683501727316
2	0x3f609eb6967978ba	0.002028805367259326

conv1.0.running_mean f8 [3]
0	0x405eff853bd82541	123.99250694377862
1	0x405c2c5d053ec7d0	112.69317752009306
2	0x40592835e7fd73a7	100.62829017401837

conv1.0.running_var f8 [3]
0	0x40b17cd5a22d3100	4476.834505867446
1	0x40b089d2716a8d82	4233.822043094204
2	0x40b1a982ebe163a1	4521.511411749671

conv1.2.weight f8 [4, 3, 3, 3]
0	0x3faa4cb7823f28d8	0.05136655297208542
1	0xbfb2666448200b20	-0.07187487374180224
2	0xbfbb1e02e8aadfeb	-0.1059266870532835
3	0x3fc7a4c028d15805	0.18471529000333944
4	0xbfb57228268c726d	-0.08377314511421625
5	0x3fb0541dbf25cf85	0.06378351132098999
6	0xbf8cf9fb7bad27f9	-0.014148678504756861
7	0xbfc17775188eb5fc	-0.1364580507192129
8	0x3fb97477486cfcb3	0.09943337934690781
9	0x3fc727319dca0894	0.1808836002783819
10	0xbfc13ddb7e7d1661	-0.1347002380008915
11	0xbfc61dc5bfac7a96	-0.17278358325070958
12	0x3fa07a5a63f49a37	0.03218347997817655
13	0xbfa93dc2f9089579	-0.04929932870826809
14	0x3faf63c658a76676	0.06130809623909965
15	0x3fbf9fa18ef147f6	0.12352952709014162
16	0xbfc6905972416a4d	-0.1762801940811464
17	0xbfc57baf802d9d31	-0.1678370834226626
18	0xbfc710afc763ad7c	-0.1801967357235802
19	0xbfc628d718fd9dc7	-0.1731213447594497
20	0xbfc8016b7b781381	-0.18754333046686258
21	0x3fbe8b67e4f34973	0.11931466426475427
22	0xbfa0bef5cf6e2c91	-0.03270691067799548
23	0x3fbbb33bd97c71d1	0.10820364055366062
24	0xbfbb5a0076d21921	-0.10684206868072411
25	0x3f980ffbe0920ac6	0.0234984737221662
26	0xbfc5e29cd7346166	-0.1709781695178762
27	0x3fb42a0316218297	0.07876605310731076
28	0xbfb1a0762e9c0622	-0.06885470045019607
29	0xbfa30ef1eed55a97	-0.037223396687001635
30	0xbfa5c4b1eaeb97c6	-0.04251628868750816
31	0x3fb8dc8bdd912f3d	0.09711527022699058
32	0x3fc407d41a9d3244	0.15648890780939173
33	0xbf830043f4b2826e	-0.009277850060528805
34	0xbfb523ef0041ae20	-0.08257955318702459
35	0xbfc577002fc6d3e8	-0.1676941140446211
36	0xbfc872a2e0152d2f	-0.1909984201578054
37	0xbf96b13eab1fd397	-0.022160510248756173
38	0x3fc3d2bbae9c4ff5	0.15486856485279046
39	0xbfb1efb23490e2d8	-0.07006372245167414
40	0x3f6ac271e53cb4cb	0.0032665466805129376
41	0x3fc6ca5678eaeb86	0.17804985908682286
42	0xbfa426905f6dcb3d	-0.03935671963599539
43	0xbfc73dc7c1534cac	-0.18157288493839496
44	0xbf955c58abcc2029	-0.02086008595054537
45	0xbfb261e5aaa51fec	-0.07180629173410552
46	0x3fc251e470d305fc	0.14312415608405604
47	0xbf694790f3fbad06	-0.00308588324684467
48	0xbfbe2ceed65bbcae	-0.11787312253339863
49	0x3f8676a6c81e7996	0.010968497259281656
50	0x3fad4dd6f7a2e022	0.05723449490454892
51	0x3fbe1e170acfa5b0	0.11764663709586531
52	0xbf7320184487d340	-0.004669279857343167
53	0xbfc82dd251195c3f	-0.18889836273112512
54	0xbfb42ba7f2e1154d	-0.07879113845509274
55	0xbfc82bbd4bdc0f64	-0.18883482173998367
56	0x3fc6cb3fbd543c41	0.17807766670782324
57	0x3fc039447aec65e8	0.1267476654254971
58	0x3fbf29eb73616769	0.12173339430719711
59	0xbfc91bf7d9c9e0bb	-0.19616602071960706
60	0x3fad72e946706bcf	0.05751732811787457
61	0x3fc49155b4485002	0.16068526556830426
62	0x3fc5ec78fd1d5093	0.171279071417875
63	0x3fac75b14018709c	0.05558542163291344
64	0xbf8ce1c8f34a05fc	-0.014102525639148482
65	0xbfc47fb7ac0678a4	-0.16014762782737535
66	0x3fc3e4a0b99a5b81	0.15541466772694082
67	0x3fc577de1ac0be8b	0.1677205687169486
68	0x3faaf95a36bcd06a	0.05268365781958624
69	0xbfb1eaf4c59bc18e	-0.06999139618324632
70	0x3fb485cc57858077	0.08016659867053187
71	0x3fa9c60ec1ed400c	0.05033918492574693
72	0xbfb522aed73c809c	-0.0825604701499309
73	0xbfc4853d24f955cc	-0.16031612687463193
74	0x3f7647fc31c3ea9c	0.005439744123800463
75	0xbfbc7b01a71ef58a	-0.11125192957020694
76	0xbfc7c33d66a1b0ba	-0.18564574729260191
77	0xbfc5d33694a6372f	-0.1705082155062256
78	0x3fbc69f191c029c5	0.11099157150616808
79	0xbfc0d9874e51beea	-0.13163844417748943
80	0x3fc2fdd64534ad3a	0.148371490280036
81	0x3f9e3d5415066b66	0.02953082445456392
82	0xbfb42ac0cbf66255	-0.07877736072112758
83	0x3fb9724af513337f	0.09940021975780942
84	0x3fc3dc1fb1c70862	0.15515514545956238
85	0xbfc50ba50abb1cb6	-0.16441786788911877
86	0x3fae281210b8ec84	0.058899464169791776
87	0x3fc05401d99b975b	0.1275636971033077
88	0xbfbc8df4780d4754	-0.11154106074289177
89	0x3fc7b41eed0cbe5c	0.18518435072609207
90	0xbfc588ae69c8d9e5	-0.16823368230116312
91	0xbfb790d3aac9c638	-0.09205363196976968
92	0xbfc1fcbe1fcc2466	-0.14052559425934702
93	0x3fb53dd380ef2c8f	0.08297464273271003
94	0xbfc8fc2eee9f711f	-0.1951960244322288
95	0xbfbc328403250d9b	-0.11014580799842692
96	0xbfa64525b5fe9e99	-0.0434963020955454
97	0x3fbb43af1e592649	0.10650152674602355
98	0x3fbd23149b172182	0.1138165358198702
99	0x3fc3e29106cb974b	0.15535176116753244
100	0xbfa2884c72108d73	-0.036196125911625375
101	0xbfb189b402362081	-0.06850743345251155
102	0x3fa972d0866b4607	0.049704090508054626
103	0x3fc3772abc8dcfb4	0.15207418638931147
104	0xbfa2632ade110ca9	-0.03591283760808867
105	0xbfaadcc657766bd4	-0.05246562783869249
106	0x3fbb2b1bc2893fc1	0.10612653254906858
107	0xbfadbd4fcf2cf027	-0.058084959068281976

conv1.2.bias f8 [4]
0	0x3fc1c5c0a0000000	0.13884742558002472
1	0xbfaf3ace80000000	-0.06099553406238556
2	0xbfa99ba500000000	-0.05001559853553772
3	0x3fb6ca51c0000000	0.08902464807033539

conv1.3.weight f8 [4]
0	0x3ff005fa5cad6d78	1.001459466954513
1	0x3ff0025dda4b582d	1.0005777861711167
2	0x3ff000363f2046a0	1.0000517335760506
3	0x3fefeed7fe459357	0.9979057279821103

conv1.3.bias f8 [4]
0	0x3f52ac87f046af0a	0.001139767410772432
1	0x3f53493eb8267cb6	0.001177130936959076
2	0xbf304ffcbeed56bc	-0.0002489082389066468
3	0x3f4e3ab5e86c275c	0.0009225261900109682

conv1.3.running_mean f8 [4]
0	0xbfcf0bde1edaf94a	-0.2425496721898049
1	0xbfc8fbaaa65223b0	-0.19518025513778303
2	0xbf76be2cfa9287e7	-0.0055524594291984425
3	0x3fc1444efc862b3a	0.13489711122778109

conv1.3.running_var f8 [4]
0	0x3fd308b3d8c2dcbe	0.2974061600502401
1	0x3fa4c63ae70f0f4d	0.04057487555067372
2	0x3fa5fbfee755ffdc	0.04293819974827759
3	0x3f8f2a398daf1fe3	0.015217256199221601

conv1.5.weight f8 [4, 4, 3, 3]
0	0x3fa3fea418532a98	0.0390521316235965
1	0x3fbea06a282bcd72	0.1196352336954101
2	0x3fa6e4c10d515395	0.044714005351728016
3	0x3fb92e91c6924939	0.09836684320388124
4	0xbfc06a9aa351ccd8	-0.1282532975634243
5	0xbf8c17000d7925c7	-0.013715744410677367
6	0xbfac5be0a5931782	-0.055388469897976314
7	0xbf9f1fce6b6e4cd5	-0.03039476900773937
8	0xbf5945310844004d	-0.0015423754530843492
9	0xbfc25fd397d50127	-0.14354939378427753
10	0xbfb2c1db080e40c8	-0.07327050158187653
11	0x3fc299b35aac4667	0.14531557013883686
12	0xbfb9101cfa5674b1	-0.09790211784134574
13	0xbf923a525dbd188c	-0.017800604792932037
14	0xbfc228a0f3b0e0f9	-0.1418648900887616
15	0x3fa712aea4c424c2	0.045064408886966514
16	0x3fbb41e5789d265e	0.10647424883532028
17	0x3fa5ec27d980979f	0.04281734972054995
18	0x3fb56f7f839a3862	0.08373257601690079
19	0xbf97c9fdaa262ecf	-0.023231471548156798
20	0xbfc0bc8e041265d5	-0.13075423430272673
21	0xbfbbd3f6bf17e404	-0.10870306172718364
22	0x3fc1a25a0a652c7d	0.13776708133295648
23	0x3fa35867354dcbe0	0.03778383756334569
24	0xbf69398c7dd17216	-0.0030791992162859756
25	0x3fa185ddc7fcf819	0.03422444406759002
26	0xbfa11efbe77e1b6c	-0.03343951416814303
27	0x3fb1346ffc4243ca	0.06720638188040975
28	0x3fb95829e7ad15ab	0.09900152116923404
29	0xbfb0590c2df0778c	-0.06385875817838221
30	0xbfc3d00d41ab0ebb	-0.1547867365498997
31	0x3fb3750efbc297af	0.07600492140281177
32	0xbfc622024c68517c	-0.17291287165484082
33	0xbf79226ce1a10330	-0.006136346166443471
34	0x3fa01bd7ccc65c90	0.03146242499058716
35	0x3fb06e4eb34295b4	0.0641831576964112
36	0xbf9072706111cf15	-0.016061550068527348
37	0xbfbf1582ef33a40b	-0.12142198886762416
38	0xbfc2aae179748b83	-0.14583986692840875
39	0xbfb7fbbae0fc0c40	-0.09368484490191609
40	0x3fa1132f783f6047	0.0333494982039047
41	0x3fc1ade975f79600	0.13811987171281714
42	0xbfc0106992c03b8a	-0.1255008665616198
43	0x3face0f5bc1c90e5	0.0564038078430558
44	0x3fa9392258a00e5a	0.04926402408457582
45	0x3fadc3517ac2c246	0.0581307852129425
46	0x3fc49f1eaa4afc14	0.1611059504993767
47	0xbfbb2df5ef5e741c	-0.10617005437821131
48	0x3fbfc910e3e0936b	0.12416177333268556
49	0xbf634051411353b7	-0.0023500048633686393
50	0x3fb44b0dc5796175	0.07927023001810148
51	0xbfb40f88c5b83b70	-0.07836203410282194
52	0xbfb435ca40c1539d	-0.07894577103554785
53	0xbfb0b8f5434a785e	-0.06532223599285333
54	0xbfb09b480f624aa7	-0.06486940742096668
55	0x3f7e6cb302b5f2c2	0.007427882442581692
56	0xbfb8afa1f0947d2a	-0.0964299404481507
57	0x3f92b3ec135011b6	0.018264473608739805
58	0x3fc464d02393392c	0.1593265699106693
59	0x3f86f3c64cd8b373	0.011207150669258792
60	0x3fa802973086fa76	0.04689476458905954
61	0x3fbb452bd408109d	0.10652421881246928
62	0xbf894b48bbf0b1a0	-0.012350624309043934
63	0xbfc067c161cf8151	-0.12816636348635282
64	0x3fb7a01506f6688a	0.09228640956863124
65	0xbf9b9881599096b3	-0.026948948947526485
66	0xbfb3839533085af9	-0.07622654434122102
67	0xbfc1533eeb748386	-0.13535295960266697
68	0xbf9a7fa6c18f4997	-0.025877576412150907
69	0x3f62fda13ff5d6d7	0.0023182057772669173
70	0x3fa90e9ae15c0878	0.048939552316384416
71	0x3fad3d0304141d77	0.05710610794818199
72	0xbfbffdb4906bc47e	-0.12496498609449877
73	0x3fc54f26f248864d	0.16647803144683096
74	0x3fc2acdbf7e0dde0	0.14590024569927973
75	0x3fb00174655892da	0.06252219652430871
76	0x3fc04f7551ca015c	0.12742487424476223
77	0xbfba298654c6f281	-0.10219611711267797
78	0x3fac0af8f66b3d12	0.05477121360820027
79	0xbfb8009eed1399bd	-0.09375947273256365
80	0x3f8bc5757d6119e9	0.01356021679761184
81	0x3fc02b130246c7ed	0.12631452189594886
82	0x3fc113137488a48d	0.13339465322613756
83	0x3fc4d1de0e1096cd	0.16265464483983863
84	0x3f3916aa0ed69f66	0.0003828206234523984
85	0x3fb64c25090fc65e	0.08709937545042964
86	0xbfa356bacb491a3e	-0.037771069827205114
87	0x3fb4d7a55014f145	0.08141549306032399
88	0x3f62e8cbaf5f2067	0.002308271238664661
89	0x3fc403e211880c8e	0.15636850219752713
90	0xbf3757e65471ec07	-0.0003561913803832865
91	0xbfc235a2c45bcf90	-0.1422618349821474
92	0x3fc47c9941d81de8	0.16005244936989915
93	0x3fb29c13898c25d5	0.07269403560726258
94	0xbf99a3730b0238b4	-0.025037572428623547
95	0xbfc55005665ac697	-0.16650454995901917
96	0x3fb0186c5273a72e	0.06287266743643435
97	0xbf8866b28d9e0aa0	-0.01191462988550046
98	0xbfc570ce6c77dc18	-0.1675050763730901
99	0x3fc31614c68a039d	0.14911136335652211
100	0xbfbe61b16698658f	-0.1186781764485174
101	0xbfb550532952647c	-0.0832569099315083
102	0xbfb788a7c1ab5175	-0.0919289443803047
103	0x3fc2db91d0d5e3ef	0.14732573220297193
104	0xbfc070ac0fcd071a	-0.12843848010566533
105	0x3fb0e7cc9fa5a781	0.06603697679170574
106	0x3fbea40d60eb24a4	0.1196907388322353
107	0x3fafa69e01eb1309	0.06181806348243952
108	0x3fc11e63bc119a2b	0.1337399166397558
109	0x3fc4be2c34d1b83d	0.16205360964835505
110	0x3fbb94504f3f36ea	0.10773183760394614
111	0xbf9553afb6df621a	-0.020827050720841546
112	0x3fbc5ba58f20e7ad	0.11077341789578439
113	0xbfbd61a8f813f9e8	-0.11477142387955264
114	0xbfc1cc625d41113d	-0.1390498118727325
115	0x3fa29460e5862803	0.03628828813369014
116	0xbf8d6ab1ea7fbbbe	-0.01436366078266171
117	0x3f6f6bac5ae3d2c5	0.0038355222997047155
118	0xbfbcd32a27b2b13f	-0.11259711713018293
119	0xbfa6f1336d89e790	-0.044808966752454826
120	0x3f64502ce824fc79	0.0024796368681161943
121	0x3fb982aeb80edb45	0.09965030664066628
122	0x3fa0188776ce7af4	0.03143714261317668
123	0xbfb673f2564ef8b3	-0.08770670516148264
124	0x3f948e3f6f2d046a	0.02007388225616006
125	0x3fb91d34be018287	0.09810189856353634
126	0x3f980df9e9dd586a	0.023490815066303496
127	0x3fa721eddb3acafb	0.045180733691628526
128	0x3fadb14df3ab6734	0.05799335097772343
129	0xbfb32d8a0537067a	-0.07491362216298994
130	0xbfb6af6021091931	-0.08861351782352213
131	0xbf8aec30530028b9	-0.013145806820848415
132	0x3fbe51d709bab5ed	0.11843627917797735
133	0xbfad780f4c6e5053	-0.05755660827631517
134	0x3fc2a12170fb6203	0.1455423165960071
135	0xbf82fe928deafd6b	-0.00927462096785688
136	0x3fb3aaf499477d2b	0.07682732336205748
137	0xbfaf19ad6dccb196	-0.060742778447408316
138	0xbf86856ba91fcc3d	-0.010996667002450273
139	0x3fc127f6a1b9a87f	0.13403208634128203
140	0xbfb5aa940c3a3c42	-0.08463406847498425
141	0x3f9c5d64117c3014	0.027700007979589783
142	0x3fbe6e1ccf28203e	0.11886768395936628
143	0x3fbe33a171254574	0.11797532093375712

conv1.5.bias f8 [4]
0	0xbfbb70a500000000	-0.10718756914138794
1	0x3fbb701e40000000	0.10717953741550446
2	0x3fc0bf13a0000000	0.13083119690418243
3	0xbfbaa9f260000000	-0.10415568202733994

conv2.0.weight f8 [4]
0	0x3feff7e7d35f7880	0.9990119102838122
1	0x3ff001536c064617	1.0003236980159096
2	0x3ff0018316cf9946	1.0003691569377948
3	0x3ff00134fcae426b	1.000294672998417

conv2.0.bias f8 [4]
0	0x3f481b55157331d3	0.0007356801460445768
1	0xbf53279b9bcfa4ea	-0.001169111215171543
2	0x3f37e8e02eb1580d	0.00036483262255637764
3	0x3f06494d34128fbd	4.250780922035412e-05

conv2.0.running_mean f8 [4]
0	0xbfb4cff4159dc2ba	-0.08129811790218869
1	0x3fbc9e53b02a6787	0.11179087687415122
2	0x3fe23a85341155d5	0.5696435944507195
3	0x3fcd7c97c641ffbf	0.23036477261120855

conv2.0.running_var f8 [4]
0	0x3f94c58b783cd119	0.020284823621481516
1	0x3fa1c0a2268c8b7b	0.03467280121392143
2	0x3fbe0e4d2eb751e0	0.11740572348146072
3	0x3fb8cc6025dd89a3	0.09686852383086957

conv2.2.weight f8 [8, 4, 3, 3]
0	0xbf902d034598761d	-0.015796710131431014
1	0x3fafd9ec53d06cdf	0.0622094967186173
2	0xbfc2bf03d1676ace	-0.1464543125610675
3	0x3fc51462852c3a26	0.1646845960862759
4	0x3fa9ab82c9c90b07	0.050136649257657644
5	0xbfbe1add0c4df96f	-0.11759740400700534
6	0x3fc32c71f0020381	0.14979385584959107
7	0xbfbf36c0a6215a06	-0.12192920738139187
8	0x3f643641510854df	0.0024672771180670318
9	0xbf9deb2d69c6be50	-0.029217443066669013
10	0x3fc58b220fca52a3	0.16830850382816206
11	0xbfbbb138dbac9a8e	-0.10817294467106306
12	0xbfbc2341e0b5c008	-0.10991298423846285
13	0x3fc6041c47fd15d9	0.17200044169491838
14	0xbfad8e1ca72b9ae8	-0.057724852949652405
15	0x3fb69a312793dd3c	0.0882902833580958
16	0xbfbaf2f515152734	-0.10526973499977715
17	0x3f6bfc6057f9c83f	0.0034162408554090635
18	0xbf6570a886d24d4b	-0.0026171962295592813
19	0xbfb9ec731875d623	-0.10126418444800626
20	0x3f97168880d2bbd4	0.022546894896262007
21	0x3fbaee3677338f9e	0.10519733820143393
22	0xbfbff787727aef61	-0.12487074417998435
23	0xbfb978814ed0db8a	-0.09949501203742109
24	0x3f834f0393865e57	0.009428050937272987
25	0xbf9a304928c47272	-0.025574820626490476
26	0x3fa3ada6b8e51c09	0.03843422896402877
27	0xbfb870efb9ad687e	-0.09547327311648421
28	0xbf87d7d6a6de506e	-0.011642147986812481
29	0xbfc324f7cbe5d622	-0.14956567245433044
30	0x3fc2c15a77d5e7b6	0.1465256772169689
31	0x3fc479d32c5e3315	0.15996780077366482
32	0x3fbb5c38b276aa82	0.10687593800563813
33	0xbfb5145879758bc4	-0.08234169926940554
34	0xbfa3dba5569c00e0	-0.03878513986819754
35	0x3fc5900b42cdac4d	0.16845837365994712
36	0xbfa2d04aae00ba47	-0.03674538969095358
37	0x3f7bc590b1034f2c	0.006780209733012115
38	0xbfbf7018d8f3cc34	-0.12280421539962633
39	0x3fb52fe26fcb959c	0.08276190976501713
40	0x3f83de51f118d04c	0.009701385660356852
41	0xbf8e6d75fb35425e	-0.014857217530022723
42	0xbfc47862611a2031	-0.1599238371020433
43	0x3f8df2a4ad8ec6f9	0.014622961565553082
44	0x3f93108da953e6e2	0.018617833576150107
45	0xbfb8ca9c5f122b9d	-0.09684159585064696
46	0x3f77e9b9f887097c	0.005838133285978816
47	0x3fc3345a27feaba6	0.15003516152259272
48	0x3fc532425e5e56fd	0.16559629066312445
49	0x3fa4f955cbd66bfc	0.04096477616550229
50	0x3fbaea4925336181	0.10513741644115805
51	0x3fbcb176c328b155	0.1120828844511313
52	0xbfaf6e94382b39fa	-0.061390525681066024
53	0x3fc11b093b5ae2c9	0.13363757513231736
54	0x3faeb15dbb6496eb	0.05994694626342131
55	0x3fc548ad1cecf556	0.16628040230163305
56	0xbfa28f0e60f716cb	-0.03624768193871616
57	0x3f964ba06b3c34e4	0.021772867722622005
58	0xbfc1ebe7c7edf816	-0.14001176130472065
59	0x3fb1d22769b3a272	0.0696129448948655
60	0xbfad4ceba7af0cab	-0.05722748205109814
61	0xbf6e273436e63279	-0.00368080328116199
62	0xbfc48a6b979aa466	-0.1604742517713788
63	0xbf9448e80f6a897d	-0.01980936616986061
64	0x3fb09f99ec9586c3	0.06493532205561352
65	0x3fbe0dd898aaa974	0.11739877440655794
66	0xbfa6596a284148c6	-0.04365092984575507
67	0xbf9ba71bb7c523cb	-0.02700465497153796
68	0x3fb3c05c2d2e8aab	0.0771539316470277
69	0xbfc548216d27375f	-0.16626375035996951
70	0x3fb3aeb81ec1a8b6	0.07688475371256484
71	0xbfc01f7014593369	-0.12595940583778578
72	0xbfc05c083c1f0879	-0.12780859885794252
73	0xbf8e0a64da3b78fa	-0.014668262395784105
74	0x3fc3914b300cfda8	0.1528715119002133
75	0x3fb78e5cb5086dc1	0.09201602382420672
76	0x3fbbecef15822ae4	0.10908407473668152
77	0xbfc25a6467407626	-0.1433835510405725
78	0x3fc4ba50fecb3c22	0.16193592492206316
79	0x3fb2357a237b004d	0.07112849584791654
80	0x3f9a6ffc73af4f9e	0.025817818222847337
81	0x3fbc14a4feec3c11	0.1096900102968308
82	0xbfbd1f54b745c713	-0.11375932192256881
83	0xbfc1d704d946cff3	-0.13937435731133938
84	0xbf80dd9995dd0eea	-0.008235168348285044
85	0xbfaddbfa17c63eb5	-0.05831891575064444
86	0x3f963f8c0fb4a7d2	0.021726788004492743
87	0x3fb6426fa9cdeba8	0.08695123572935748
88	0xbfaf018862c06c96	-0.060558569006581894
89	0x3f9e1773cabad7d7	0.02938633847107738
90	0x3fbb698e8394e2d5	0.10707941734734601
91	0xbfb1d69fc7b45a50	-0.06968115449522228
92	0xbfa41a80dee184d6	-0.03926470490183369
93	0x3fa289c7dbb44939	0.036207433289876474
94	0xbfb4a13dd3f2f4db	-0.08058535027062723
95	0x3fb57c8f5346914e	0.08393188269707716
96	0x3fbe387ebf7cb946	0.1180495469568302
97	0x3fa2f1b8e88e17c9	0.037000444782321625
98	0x3fc18e768597e394	0.13716012499915264
99	0x3fc0920a4ee6067f	0.12945679523913964
100	0x3fc03ea8d444ded9	0.12691221584986215
101	0xbfb5f94bc17f716f	-0.0858352038771437
102	0x3fb20b7a36eca17d	0.07048763123441933
103	0xbfb6921e391493a0	-0.08816708463252931
104	0x3fbb3e4165734572	0.10641869284451902
105	0xbfbcd62d5d87a549	-0.11264308484500875
106	0x3fbd4fd6fa3ba129	0.11449950799181309
107	0x3fc324e75c6a0346	0.1495637131920608
108	0xbfc1bc74741ebd66	-0.13856368703771266
109	0xbfbecd0f32560cce	-0.12031645754727835
110	0x3fa882857079ce9c	0.04787079809184755
111	0xbfb360887adc6bd1	-0.07569172858749985
112	0x3fc05ccabc950bbf	0.12783178527942415
113	0x3fc2fdad2358933c	0.14836658693197957
114	0x3fc19e21ea78766f	0.13763832043416666
115	0xbfbb0778b5c78c9a	-0.10558275640464601
116	0xbf9050544a4d1277	-0.015931431803681364
117	0x3fa2107bd6926d32	0.03528201097761964
118	0xbfacea73e47b57db	-0.05647623218617045
119	0x3fa466a589fbd045	0.039845631688792106
120	0x3fbb7bf69929ff7c	0.10736027945858767
121	0xbfc3622120a5ef35	-0.1514321717657993
122	0xbfbad4220de5e733	-0.1047993930750664
123	0x3fc1641f556fce8f	0.135867993085061
124	0x3f8446c5904258af	0.00990061136716877
125	0x3fa9c28e8025715c	0.050312474387029765
126	0x3fbf2129fa66c9db	0.1215997921306448
127	0x3fc0e4e3cee005b5	0.1319851646549474
128	0x3fc37a2314441e6a	0.1521648262935174
129	0xbfc456c0a95229b3	-0.15889747874855473
130	0xbfbaaa42e6da1aa4	-0.10416048179659271
131	0xbfbdfdfefd4be772	-0.11715692218777266
132	0x3fbf97ca9d8b66dc	0.12340990396787838
133	0x3fa85de70b170410	0.04759141931891275
134	0xbfa8341297661b39	-0.04727228258257416
135	0xbf985a67ee64f965	-0.023782371449891388
136	0x3fb58513d8b65ca1	0.08406185189083938
137	0xbfa6a97319e9ce95	-0.04426154795956198
138	0xbf8680bf8a13524d	-0.010987755204419214
139	0xbf82a0e638b6c4e2	-0.009095953565380236
140	0x3fbc66fe4ff28fbd	0.11094655467837718
141	0xbfbabc8ec9ab142c	-0.10443966315786274
142	0xbfac4bfff08e68af	-0.05526733218648993
143	0xbf77144373442bf2	-0.0056345591331234835
144	0xbfacd3450c79c861	-0.05629936005870274
145	0x3fc5037c72dd1696	0.1641688881738232
146	0x3fbb8d32aba52d22	0.1076232594543183
147	0x3faf3fdd00262d04	0.061034113186076794
148	0xbfb222677e44b7da	-0.07083746750569678
149	0x3f9a43c3aa493e15	0.02564912535518545
150	0xbf7e2fd35eb9dcc4	-0.007369828857569153
151	0x3fc083444231fd9f	0.12900593979064198
152	0x3fbb7c353702c374	0.10736401169812188
153	0xbf82c9c146075761	-0.009173879575353263
154	0xbfbe9d78334805b9	-0.11959029438005232
155	0xbfa364b5ba1885bb	-0.03787773033787852
156	0xbfc43fd28492ffd0	-0.1581977031073607
157	0xbfbec0f9d19e5367	-0.12013207786215006
158	0x3fc182acda540074	0.1368003908210117
159	0x3fc2780e1cc25cd8	0.1442887916971134
160	0x3fa04aa3a66a3a51	0.03181945234711193
161	0xbfb0fd1aaaf1b777	-0.0663620631546261
162	0x3fc27f2abc863f34	0.1445058270005518
163	0x3fb01915c34619b7	0.06288276688983428
164	0xbfb3786979ea8169	-0.07605609156099082
165	0xbf836c0c334d5e98	-0.009483428302402161
166	0xbfb4a6513cddf795	-0.08066280113231834
167	0x3fc00591e4ab931e	0.1251699797204759
168	0xbf88d0b74842820f	-0.012116844074911119
169	0xbfa2b4233f16e71a	-0.036530591441488805
170	0x3fc3f28d81a6f644	0.1558396227900848
171	0xbf9fa7ec81fa125c	-0.030914016183049106
172	0xbfc537873280b3f2	-0.16575708356813795
173	0x3fa0319527be6f71	0.031628285504864524
174	0xbfbc1f9f1a6bdd21	-0.10985750575115506
175	0x3fb1b58ae1e237bb	0.06917636885393012
176	0xbf77ade721235651	-0.005781081056019114
177	0x3fba8577218ad0a1	0.10359901970770348
178	0xbfb5a89a898e6549	-0.08460393770510168
179	0xbfc12f07d6e4c086	-0.13424776070451488
180	0xbfc0ccc41d6d73a5	-0.13124896466152083
181	0x3f96f0372da35854	0.022400724564100763
182	0xbfc14365e2d2654c	-0.1348693234947781
183	0xbfc1ae09c062fa6f	-0.13812372106436352
184	0xbfac956f0b201e1c	-0.055827589138115224
185	0x3fb3be8892b8f3cb	0.07712606031505158
186	0x3fb69661f1280aaf	0.08823215615852108
187	0x3fbe7babcdfc89f8	0.11907457140890887
188	0x3fc29c4c8f55b541	0.14539486883897193
189	0x3faa88bd6e1f636b	0.051824493115140445
190	0xbfc0cc33f0621be5	-0.1312317775484352
191	0x3fb9661d40ef30bf	0.0992143901377771
192	0x3f8329056f3ba086	0.009355585534152288
193	0xbfb128f3908f55e8	-0.06703111914915605
194	0xbfb466bb9ca55451	-0.07969257902489459
195	0xbfbf201bbed72cfe	-0.12158368500893244
196	0x3fc40584eb743d4f	0.15641843315868662
197	0x3fb0ec14fdc50fe7	0.0661023253970253
198	0xbfbf5e10af2676d3	-0.12252907062653699
199	0xbfbd7dedd4be2417	-0.11520277446665293
200	0xbf8b87f569aa1dc5	-0.013442914282918115
201	0xbfa4486b12c1dfe4	-0.039615007438385225
202	0x3fb4c197969c9177	0.0810789816574181
203	0x3fbcad55895e08c4	0.11201986888594023
204	0x3fb3f73ffed6f484	0.0779914853255424
205	0xbfb21abc85e893a4	-0.07072046536684568
206	0xbfa4d92666416b3e	-0.04071922300564389
207	0xbfbd76c9b6d75e7e	-0.11509381021402906
208	0xbfb68a7d3e4edb27	-0.088050677978441
209	0x3fa434178dbcecc7	0.0394599304695134
210	0x3fc41e55cec43ed4	0.15717575641655535
211	0xbfa51357c8a42399	-0.041163199655847645
212	0xbfbe57a0260722d6	-0.11852456024565625
213	0xbfc4ac86350c08c0	-0.16151502218423808
214	0x3fb429e9fb14c91e	0.07876455669319113
215	0x3fc3dcf48c3ac8de	0.15518051955365925
216	0xbfa98211a4f016b8	-0.04982047212983559
217	0xbf94c81d3639a1e5	-0.0202946247431174
218	0x3fc23d775856f0f1	0.1425007993074199
219	0xbfc4029c065ca117	-0.15632963476787928
220	0xbfa2d7fd74f6a371	-0.03680412342811835
221	0xbf93432cc38a721d	-0.018810939249862203
222	0x3f92e8e7e6151750	0.018466590326418342
223	0xbfc2dd722cdf684f	-0.14738299552010622
224	0x3fc0c16716c7dd5a	0.13090218174304874
225	0x3fc437656cf93768	0.1579405576798607
226	0xbfbc9cf16bd5eea9	-0.11176976092059
227	0xbfc4242e8c9c2d8b	-0.1573541819164855
228	0x3fc52558515ccb9a	0.16520217869546344
229	0x3f9431a971a7e7bc	0.019720695077900294
230	0x3fb6cc41775797d8	0.08905419505717249
231	0xbfc05693cb56f10e	-0.12764213017170117
232	0xbfb79af71738bb66	-0.0922083312695868
233	0x3fbfd95e915e4f3b	0.1244105439093887
234	0x3fbd2f432a4fcc76	0.11400241644860096
235	0xbfb2325f13fc1590	-0.07108110654743016
236	0x3fc529d98322238d	0.1653396501826844
237	0xbf77a715507eb9c1	-0.005774577388292846
238	0xbf1023f69a8eaef0	-6.157105111864367e-05
239	0x3fbfc1459dac4b69	0.12404284572066406
240	0x3fb12e7676aee845	0.06711521527805171
241	0xbfbb12b106c69d1a	-0.1057539598028722
242	0xbfc46b1d2d4a48c4	-0.15951885901865215
243	0xbfbc394f102a604b	-0.11024946350733093
244	0x3fbb55ce916f50e6	0.10677805948882088
245	0xbfab3b7e94e07cdf	-0.05318828170151745
246	0xbfb4941b10720e77	-0.08038491393568302
247	0xbfc3d7ba87e06a1c	-0.1550210154972128
248	0x3fa025e085f5d1ba	0.03153897891289455
249	0xbfb9d1b10717770d	-0.10085588858734358
250	0x3fbd549b59014242	0.11457224772426236
251	0x3f9c4244a41391fd	0.027596542848998585
252	0xbfabd6dd4f3fbbb7	-0.05437366096872814
253	0xbfbce6311bf35fba	-0.11288744861974367
254	0x3fbd329090750b6e	0.11405280615603683
255	0xbfb0810b7c7eb4bd	-0.06446906842639329

conv2.2.bias f8 [8]
0	0x3fa2ad4800000000	0.036478281021118164
1	0x3fbb90a140000000	0.10767562687397003
2	0xbfa06bb980000000	-0.03207187354564667
3	0x3faeaf2180000000	0.05992989242076874
4	0xbfae9d90c0000000	-0.05979587882757187
5	0x3f9d2e5700000000	0.028497084975242615
6	0x3fc09b84a0000000	0.12974603474140167
7	0xbfaaf9b400000000	-0.052686333656311035

conv2.3.weight f8 [8]
0	0x3feffe88d4278734	0.9998211043968923
1	0x3feff64e97fe28d9	0.9988167732820116
2	0x3ff00cdd5beb4ad1	1.0031407919492958
3	0x3feffca87c0b561b	0.9995920584430594
4	0x3ff0014431e025e9	1.0003091762795242
5	0x3ff003342c0388d2	1.0007821769036593
6	0x3ff0019431f72f46	1.000385470560063
7	0x3fefe89165720b1b	0.9971396428448743

conv2.3.bias f8 [8]
0	0xbf45689e0b579ae2	-0.0006533405018530304
1	0xbf571524bd926e85	-0.0014088496011827334
2	0x3f562060bf1e9a05	0.0013504929342872407
3	0x3f587905e7bbd5bf	0.0014936978977265617
4	0x3f401b04bc595fc0	0.0004915021060680688
5	0x3f502497be6d8279	0.0009852868913286224
6	0x3f530e60d1bb84bf	0.0011630959988269544
7	0xbf576035b7475e97	-0.0014267468042045478

conv2.3.running_mean f8 [8]
0	0x3fa74f141114cd00	0.045525195202936075
1	0x3fc8214148b49680	0.18851486253804595
2	0x3fd2fd03eb9d0da3	0.2966928292191488
3	0x3fc0688f801de601	0.1281909347124355
4	0x3f910a934b77735f	0.01664190433608625
5	0xbfb0b95a07dc61aa	-0.0653282422248426
6	0x3fb65f7781a8a40a	0.0873942081021967
7	0x3fc89f87e477dd05	0.19236849456476804

conv2.3.running_var f8 [8]
0	0x3fc09a66f7f28db3	0.1297119818383244
1	0x3fc13f41dd77dd6b	0.1347429591548733
2	0x3fcea43301803038	0.23938596318510164
3	0x3fb6a5887d07671e	0.08846333553756522
4	0x3fc0dee7a5e4c46e	0.13180251693987394
5	0x3fbccab5779c6ab6	0.11246809168043623
6	0x3fc1cc6d4eb212ff	0.13905111639555653
7	0x3fca1021b62ec7dd	0.2036172999920031

conv2.5.weight f8 [8, 8, 3, 3]
0	0xbfa35bf45c14c735	-0.037810932388664766
1	0xbfba2252f59d65be	-0.1020862435956564
2	0x3faaad63771c9a60	0.05210409955025308
3	0xbfb8ccac594a6769	-0.09687306575724865
4	0xbfbe686604f2a8cb	-0.11878049488828706
5	0x3f91b6c00b850381	0.01729869909582105
6	0x3fb786623226bab1	0.09189428066631923
7	0xbfad9c3fcddbead8	-0.057832712058333235
8	0x3fb62646b64e3a64	0.08652154875583445
9	0x3f91d5d2dca0d30a	0.017417235103681462
10	0xbfb1eea4c669d2eb	-0.07004766315533188
11	0x3f9bcc75feba2df9	0.027147144005125388
12	0x3fbace52fb77fde4	0.10471075667737001
13	0x3fa83cce326eff97	0.047338908821529184
14	0xbfa807c221610df7	-0.04693419129810288
15	0x3fbc2652d0b37b09	0.10995977015725712
16	0xbfbd68f0ab33c837	-0.1148825090383817
17	0x3fb9bbb85677f8e9	0.1005206309418757
18	0xbfa4d802483b9f73	-0.04071051723241128
19	0x3fbae0ed2a9b31d4	0.1049946049708475
20	0xbfb95a32fc91803c	-0.09903258005351828
21	0xbfafe08cbe59b6c3	-0.06226005385984259
22	0x3f85e64b4efd769d	0.010693157528005865
23	0x3f8757ea40567db6	0.011398153389392412
24	0x3fb46c3dc3e16b63	0.07977663070907463
25	0xbfbd7722bb839ecb	-0.11509911611539818
26	0xbfb532958c6d3fd0	-0.08280310324084827
27	0xbfbae73c5ef7e292	-0.10509087866365466
28	0xbfab5e8062671aeb	-0.05345536423879146
29	0x3f9b8395067903ef	0.026869133491576432
30	0x3fb3fd0a0b902b23	0.07807982237151782
31	0x3fa9dbce8942ad81	0.050505117659976236
32	0xbfbb5b763ab7bc01	-0.10686434682405378
33	0xbf9cf095a8cd19e3	-0.028261507442289512
34	0x3f90cacd79d18a1c	0.016398630676471723
35	0xbfbb94a530b9eada	-0.10773689689259972
36	0xbfb46b70fba418ed	-0.07976442473963959
37	0x3fa25ee7b7333bc9	0.03588031874971127
38	0x3fa24d12c3f9e3cc	0.035744272635333724
39	0x3fa011b40f65a052	0.03138506591750513
40	0x3f92290a2a94f2b5	0.017734679078091193
41	0xbfb9a19f7cf87afa	-0.10012242127457319
42	0x3fb4d62b19d884e1	0.08139294987678937
43	0x3fbd3a45290153eb	0.11417038203337852
44	0x3fb55bded52eb861	0.08343308167124654
45	0x3f8c9158e1d6bd80	0.013949102775625333
46	0x3fb437ebbfea731c	0.07897828517384337
47	0x3f922d5da150c11d	0.017751181574738973
48	0xbfb6d4aad0eec848	-0.08918254471680698
49	0x3fbb6d598415e035	0.1071372935747384
50	0x3fadcadd84895e99	0.05818836443785109
51	0xbfaf957a51996ced	-0.06168730016789845
52	0xbfbbbd37f96539c1	-0.10835599745516956
53	0xbf90749e55b17f04	-0.01606986425429026
54	0xbfbbb541dff80ee2	-0.108234517269064
55	0xbfb64fe2c2fd43f2	-0.08715646038514516
56	0x3f9177eaa8fc5ffb	0.017059008182599183
57	0xbfb845e6f54e3dab	-0.09481662262827821
58	0x3fa1a42b96ae730c	0.03445564474461635
59	0xbfb8bb0a304ac35d	-0.09660400084500283
60	0x3f5edbe6b33cfe84	0.00188348321258039
61	0xbf904af4b2b299a6	-0.015910933882560173
62	0x3fb7b27d42fd7eeb	0.09256728063109747
63	0x3fbb7a5de58f662b	0.10733591894622722
64	0x3faf2340e040fbf7	0.06081583726381006
65	0x3fb27b9c84867a82	0.07219866023522495
66	0x3fb9175d69020951	0.09801276982947128
67	0x3fb01c03bae6f6b8	0.06292746842424435
68	0x3fa97d72049f7260	0.049785197319327734
69	0xbfbe3e52f3a4f077	-0.11813848923060442
70	0xbf9207bedf681eef	-0.017607672105468927
71	0xbfb0b94a39ce672a	-0.06532730017934499
72	0x3faedfa6b956f424	0.0603000737423616
73	0x3f975072dbbd33c3	0.022767824804123437
74	0x3fb6c4974ec36e17	0.08893724129614387
75	0xbfadb4f35b44be4a	-0.05802116860502034
76	0xbfb3c95734e529f7	-0.0772909645212748
77	0x3f9efa4142f661c9	0.030251521789610245
78	0xbf9e7a5eedb66aa6	-0.02976368261225084
79	0x3f8b5387705b062b	0.013342912784881275
80	0x3fb1c787ebf5a93e	0.06945085058911091
81	0xbf9df7a9f43d801e	-0.029265075237503983
82	0x3f9cc0367b664c48	0.028076983720506626
83	0xbfb93d28db1f356f	-0.09858947133689865
84	0x3fb46bb774c806f7	0.07976862526995974
85	0x3fb1c68b064e38ff	0.06943577674812572
86	0xbfa8929e21ea4dbb	-0.04799360431675433
87	0xbfa2147f19a1aa51	-0.03531262576946815
88	0x3fad5a63c8a6f7c8	0.057330244296721455
89	0x3fb817f0bf64a36a	0.09411530182536657
90	0xbfb1b1aff68f9cfe	-0.06911754388385202
91	0x3fae7e4c236812cf	0.059557322809302364
92	0x3fa54bbb574a892e	0.04159341278615823
93	0x3fb63f3510468e5f	0.08690196654657133
94	0xbfb93b653d1dc9ab	-0.09856255285357089
95	0x3f896321eb0f3c2d	0.01239611147494032
96	0xbfb58b719cf9a6d7	-0.08415899355318444
97	0xbfb8379a906c0a31	-0.09459844613960723
98	0xbfa194fd7a350e3a	-0.03433982960498523
99	0xbfbc96bc4acabeff	-0.11167504144645689
100	0x3fabaaf268232390	0.05403859635550312
101	0xbf9364d70b9395f5	-0.018939361650060566
102	0xbfa9480eabde3a54	-0.049377878646840984
103	0x3fb47b646f4c0217	0.0800078174324955
104	0x3fad0b02828f2d95	0.056724623143590204
105	0xbfb2fd50736db581	-0.0741777688796983
106	0xbfbe48cdc15058af	-0.11829839677406782
107	0xbfb8c4dc0a918de9	-0.09675383813878792
108	0x3fb7f40250d22844	0.09356703255812798
109	0xbfb5323435c87f5d	-0.08279730141702886
110	0x3fb2bc6d0b7d4f97	0.0731876519251372
111	0x3f98a22d15197b34	0.02405615273743962
112	0x3fbbe5490648581c	0.10896736529716161
113	0xbfb78cea5b7b0a46	-0.09199394925512036
114	0xbfad14369a12f622	-0.05679484015261617
115	0xbf59436b0716540d	-0.0015419526283484448
116	0xbfb73af7be29b859	-0.09074352638865103
117	0x3fb5cd7ef3da766c	0.08516686871959117
118	0x3f6dac316f06cfd2	0.003622147131148148
119	0xbf92a6a38b97a6bc	-0.01821380176071473
120	0x3f9eac40ed4eef2d	0.02995397041716712
121	0x3fb03741b7553729	0.06334315038585871
122	0x3fa460d49475d505	0.03980125725039766
123	0xbfb5d6067592503f	-0.08529701586150028
124	0xbf7ea8484c0ada22	-0.007484705362620166
125	0x3fa6ceb4c0238f97	0.0445457920593803
126	0xbfbcfc1ab05f8f47	-0.11322180562961846
127	0x3f9bc427cf30c2c3	0.02711546136942179
128	0xbf7b2dc6a5631e29	-0.006635452233417585
129	0xbf930a5104fa3bad	-0.018594041756440017
130	0xbf9642bcd6e09c79	-0.021738958945345808
131	0x3fb01b0ee5606504	0.06291287517560212
132	0xbf310a14fc114398	-0.000260000346377126
133	0x3fb6cb6ebcf45616	0.08904163468499635
134	0xbfb3a9b8ae5e829f	-0.07680849320468973
135	0x3fb5e71471117135	0.08555724869205934
136	0xbfb0b7b3b742395a	-0.06530307029809049
137	0xbfa4ab72c4553d12	-0.04037054678576103
138	0x3fb726591adb98b5	0.09042889505107861
139	0x3fae979222e99232	0.05975014377762412
140	0xbfad9558c6fa8b79	-0.05778005055369468
141	0x3fb9de137ecb7678	0.10104486318183514
142	0x3fb534ecee94edd5	0.08283882927656035
143	0xbf75b1d2a4a44d72	-0.005296538185820198
144	0x3fbc514033ba95e5	0.1106147886553895
145	0xbf945a19649b5653	-0.01987495113902178
146	0xbfb977623ce01f75	-0.09947790132730268
147	0xbf90a5e9ee89db3f	-0.016257910904154512
148	0xbfb46b143003791e	-0.07975889370161268
149	0xbedb0c14b14ae4ae	-6.448552785692412e-06
150	0x3fba6ad20f52aebb	0.10319245218368682
151	0xbfb4ee5a5ba40d7c	-0.0817619775516984
152	0xbfa4b3e8fe496c70	-0.04043510536276862
153	0xbfade2801592b6de	-0.058368685372767834
154	0xbfa0288f2ce9b0aa	-0.03155944274189555
155	0xbfa6398efc619136	-0.04340788679908984
156	0x3fa9267def0ea11f	0.04912179511240055
157	0x3fb1293e91b9ce69	0.06703558976897174
158	0x3faaa4eab2fde7c0	0.052039465283953756
159	0x3fba5714d409d629	0.10289125611037576
160	0x3fba0879a369c639	0.10169182052211391
161	0xbfae0610b6238aac	-0.058640024408096764
162	0xbf9e9581e54a162c	-0.029867200488771825
163	0xbfb303743709e47b	-0.07427145332066402
164	0x3f9d1567c5763bbe	0.028401967455973447
165	0x3faf6d9297f94c9d	0.06138284783505663
166	0x3fa5c71d571ab9a3	0.04253474891935418
167	0x3f9392aa4defc003	0.019114171034686944
168	0x3fb14d09dcd366a8	0.06758176461462517
169	0x3fbd5fbcb7b5383a	0.11474208340698136
170	0xbfb03427ecfc2902	-0.0632958367897665
171	0xbf71020e12042161	-0.00415235038986625
172	0x3f95217cf4c971cd	0.02063555950222611
173	0x3f83622e55df4e79	0.009464609141935686
174	0xbfbd577c366a90b7	-0.11461616829416497
175	0x3fbb3014c6ca811c	0.10620241025253957
176	0x3fb0c8428011d96d	0.06555572153761142
177	0xbfb4c73e63c4793e	-0.081165217740339
178	0x3fb00b8e6d93e9a9	0.06267633605231161
179	0xbfa664410e498edc	-0.04373362826734503
180	0x3fb49a8cb0f82cbd	0.08048323936980047
181	0x3f9b6fe1c68ac665	0.02679398321442363
182	0x3fb83efeebae9fbc	0.09471123937566878
183	0xbf83aa097b2bb750	-0.009601663657544585
184	0xbf9e607ad668344d	-0.0296649163592984
185	0xbfb8ef4e7662fa11	-0.09740152731226483
186	0x3f9ea71440722ff8	0.029934231217836754
187	0x3f9a81d606442338	0.025885910160499764
188	0x3fb37c4942525770	0.07611520642453029
189	0xbfb313521165e59d	-0.07451355862385474
190	0x3f8901da909f9b5a	0.012210567034299725
191	0xbfab5d3595dee166	-0.05344550566173005
192	0x3fb508061dea020e	0.08215368490528638
193	0x3fb0ceb894c2c940	0.06565431243760589
194	0x3fab92636b6783ce	0.05385122953499143
195	0x3f9fa848a2210d25	0.03091538896138703
196	0xbf8923f56296a1c0	-0.012275616713694926
197	0x3f8dff719ec97369	0.014647376688282159
198	0xbf89b902fd6d0041	-0.01255991302389259
199	0x3fa120f26f68a778	0.033454490756709754
200	0xbf7e6d713fcf6743	-0.007428591136852183
201	0xbf83a705bf8479a7	-0.009595913798474976
202	0x3fb6e53d727eb477	0.08943542523657465
203	0xbfbb34e23b621f09	-0.10627569150721795
204	0x3fb3e0eb5220af7d	0.07765074496336229
205	0xbfba6565a9389fbc	-0.10310969716431279
206	0x3fa117fb23790dbb	0.033386085586723145
207	0xbfb381fe93798eb8	-0.07620230770549596
208	0xbfb5cae3b234792b	-0.08512709713656778
209	0x3f6113120484346b	0.002084288778979861
210	0x3fb79f5c9acabb35	0.09227541712855898
211	0xbfafe31abc55dc56	-0.062279544344101254
212	0xbfa70aea7d033a76	-0.04500515724213454
213	0x3f72a41318e6cc17	0.004551004980771565
214	0x3fbb5b43dfb9ddd7	0.10686134540616564
215	0x3fbe3e50279fa557	0.1181383225190492
216	0x3fb582c38938ecf3	0.0840265474334279
217	0xbf99bf0ca9ccda60	-0.02514285837534158
218	0xbfb595ce92af2ae6	-0.08431712227972418
219	0xbfb7f6aad19c222a	-0.09360759370259389
220	0xbfbd3cac4a2f1831	-0.1142070466149512
221	0xbfbe15d4a6980f71	-0.11752060954318978
222	0x3fa0711ce3505178	0.032112982509860666
223	0x3fbb1a896ab18f88	0.10587366919349794
224	0xbfac1c0500725f74	-0.054901272110497695
225	0xbfb80b06b402eb0d	-0.09391824621972607
226	0x3fba41e4c959535c	0.10256795802827184
227	0xbfaa1a71b9e7fd2d	-0.050983003562573216
228	0x3fa0a3661a51082f	0.032496634209124735
229	0x3fa57071ed4bf071	0.041873512474894244
230	0xbf6967af9814b1a8	-0.0031011991092297526
231	0xbfb7c07f3e031b02	-0.09278102172821082
232	0x3fb0b298496a968b	0.06522514145270912
233	0x3fa92fb6960fc28a	0.049192148035108366
234	0x3fa110b34b197012	0.033330538670924295
235	0x3f95471b0ab8cce7	0.020779058961306964
236	0xbf94ac38502e8a49	-0.02018821706190924
237	0xbfa1e5e359026e3e	-0.034957031836907224
238	0xbfb931c0ab9c4634	-0.09841541471203002
239	0x3fb6b67946ea5dd3	0.08872182828269297
240	0x3fb75840033430fe	0.09119033888072534
241	0x3fa4a8719634500f	0.04034762342976716
242	0xbfb9de8c1f38689a	-0.10105205309119683
243	0xbf99fa80bfdf9f4d	-0.025369655333548114
244	0xbfb18e4401f39364	-0.06857705161708122
245	0x3fab73492809eba4	0.05361393560175223
246	0x3f79bee6e476c7f5	0.006285573886474429
247	0x3fa6328a0a122dac	0.0433543336194718
248	0xbfbcc579a1785923	-0.11238823120251999
249	0x3fb9fc20b7b61369	0.1015034149659876
250	0xbfa6fb64b3140655	-0.04488672910703132
251	0xbfbc049184e41b68	-0.10944470877084955
252	0xbfb429c010c8ceb2	-0.07876205835128294
253	0x3fa47e7dee8dad9b	0.04002755677251032
254	0x3fb9ab6a4593a5a1	0.10027183722163226
255	0xbfb7246d293c7605	-0.09039957291357588

conv2.5.bias f8 [8]
0	0x3fb58022e0000000	0.08398645371198654
1	0xbfb1706740000000	-0.06812138855457306
2	0xbf8fa2c800000000	-0.01544719934463501
3	0x3fb082bd20000000	0.06449491530656815
4	0x3fb84c2f60000000	0.09491249173879623
5	0xbf979aba80000000	-0.023051179945468903
6	0xbf9b5e0d00000000	-0.02672596275806427
7	0xbfae17d000000000	-0.05877542495727539

conv3.0.weight f8 [8]
0	0x3feff95c68984c3b	0.9991895716542624
1	0x3ff007cd0b061997	1.0019045286768227
2	0x3feffc0e1a983b8a	0.9995184440066265
3	0x3ff004a3fe0948ed	1.0011329577724226
4	0x3feff9ea3342d665	0.9992571831887288
5	0x3feff385caa236e3	0.9984768827141263
6	0x3ff0031a1c90c97a	1.0007573238222833
7	0x3feffe085a769327	0.9997598425730744

conv3.0.bias f8 [8]
0	0xbf382dbb0219f56d	-0.00036893668775646906
1	0x3f4ece06540b1daa	0.0009400874042392777
2	0x3eb68b78985c5725	1.3437753251846542e-06
3	0x3f4a3117a6d19dd6	0.0007993093000892525
4	0xbf4f9bfe871bd615	-0.0009646408854837052
5	0xbf414143ebfb1815	-0.0005265790604986909
6	0x3f3a49e234b3d7a6	0.00040113232235172225
7	0xbf5100ea4aee6a64	-0.001037815858330981

conv3.0.running_mean f8 [8]
0	0x3fcc805d59a0bad7	0.22266737820014867
1	0x3fc2566eb40a3523	0.14326270857819975
2	0x3fd599ebec4759ab	0.33751962732403723
3	0x3fc67919c06b7bb8	0.17557069678784187
4	0x3fd3d8d10e16c4ce	0.31010843635438057
5	0x3fd201f695839970	0.2813698253725283
6	0x3fd2b9b52eaf816a	0.2925847011483912
7	0x3f9c748b4f82f67b	0.027788330772401153

conv3.0.running_var f8 [8]
0	0x3fbe44240be3e323	0.11822724619186124
1	0x3fc537e43aef54dc	0.16576817395858867
2	0x3fd083cf030ed756	0.25804496096258356
3	0x3fbb4a0947ab81b1	0.10659845351938803
4	0x3fbecb8839e9f3b5	0.12029315389550173
5	0x3fc36c211680e439	0.15173734282305576
6	0x3fd0edbc3d65483d	0.2645102119032606
7	0x3fbf5be5e6ee9947	0.1224960030363934

conv3.2.weight f8 [16, 8, 3, 3]
0	0x3fb0cfedc9849128	0.06567274255627764
1	0x3fb10f74510e9849	0.06664206484728753
2	0x3fa5fea94fef5cc8	0.042958537109080874
3	0x3fb951189947e582	0.09889367811401509
4	0x3f9acc624962964f	0.026170287827559865
5	0x3f6f2fc7bc340927	0.0038069630696792203
6	0x3fbd08fdc75f5c13	0.11341844670765537
7	0x3fb802a41ff92c9a	0.09379030018424075
8	0xbfb17e0651c3618f	-0.06832923408672385
9	0x3fb768bbc57d6c41	0.09144185611278123
10	0x3fb6dba17bb8215e	0.08928879995813108
11	0x3fb44e10aa10ba9a	0.07931617881761568
12	0xbf6381e87604bf6b	-0.0023812809232807617
13	0xbf8becc7efe52e1f	-0.013635217674752785
14	0xbfa5958ecdda633c	-0.042156660679387475
15	0x3f98886e99946a51	0.023957946895374175
16	0x3fb4d3df38373469	0.08135790941669686
17	0xbfb80a5389b63695	-0.09390756713966149
18	0x3fb786f0fa8c7180	0.0919027911845145
19	0x3fb868d4e048e56d	0.09534960246755526
20	0x3fa399f04357e284	0.03828383276044625
21	0x3fb129f33fa4c37b	0.06704635909842509
22	0x3f8c3ef91883caa6	0.01379198652327791
23	0xbfb3b3c6f7163504	-0.07696193249121924
24	0xbfbe6f50e80bce80	-0.11888604798496694
25	0x3fa71c945eb66d18	0.04513991981658644
26	0x3fbabcaf2a9555bf	0.10444159307129207
27	0x3fb0d1a2288e4d36	0.06569875230916442
28	0xbfb06b42501e94ff	-0.06413664299050835
29	0xbfb6b25dbb372184	-0.08865915127456075
30	0xbfbaafaa41ac6ec5	-0.10424293616636778
31	0x3f966b6a0f130bd5	0.021894128007953945
32	0x3fbba5b8433628cb	0.10799743309886194
33	0xbfb1086af178304c	-0.06653469462634226
34	0xbfb85befd2e9fc1c	-0.09515284442203192
35	0xbfb31a8250d364de	-0.07462324593815903
36	0xbfbba25ba52e1d58	-0.10794613630979677
37	0xbfb22bf64660ec34	-0.07098330705859796
38	0xbfb22946d39a8a2c	-0.07094233194451566
39	0xbfb05c53816f4df2	-0.06390878591565022
40	0xbfb7ea0828c1da4d	-0.09341479296731699
41	0x3faa3a96f4bb80ba	0.0512282537217756
42	0xbfbe62186b3aa9d9	-0.1186843168058326
43	0x3f9a97d2d49900f6	0.025969785905773222
44	0x3fbcfcb5fe5fa3af	0.11323106251042135
45	0xbfbd50c7314abb11	-0.11451382592597904
46	0x3fa09005754d2e9b	0.032348795479802926
47	0xbfa05a9154b8cb18	-0.03194097670748003
48	0xbf8902b2120824ea	-0.012212172675406714
49	0xbfa985a80910c101	-0.04984784231817408
50	0x3f41167b088ff684	0.0005214787244082896
51	0xbfb1a477d9f51b85	-0.06891583510615192
52	0x3fab57034ee18cf7	0.05339823091414957
53	0x3f79ece358cf20b4	0.006329429696912015
54	0xbf93fcc9a4e42770	-0.01951899594227008
55	0xbfbbc017b6501117	-0.10839985085482727
56	0x3f76d7a67401c98e	0.0055767538143406525
57	0xbfac9c033761c75d	-0.0558777814011495
58	0xbfbba7c260bb1a51	-0.10802855359643472
59	0xbfbdb0de1b5424fd	-0.11598003546909648
60	0x3fa41a431e7e1e0e	0.039262864563223684
61	0xbfb4339083992cd8	-0.07891181195116148
62	0xbfb9b30cdf6c4a22	-0.10038834051764714
63	0x3f92288e1f088b44	0.017732830661894697
64	0xbfa57840c10d1239	-0.04193308216648401
65	0xbfa96827dbf9ba38	-0.04962276993034148
66	0xbfbd2d15461200f3	-0.11396916351987212
67	0x3f9749c1a07e11f7	0.022742295666391823
68	0xbfbde754ece48c11	-0.11681109221949294
69	0x3f9e6942dc523b6f	0.02969841451391225
70	0x3fbd964c78fdc515	0.1155746264828575
71	0xbfac3707c0a2ba28	-0.055107347741217005
72	0x3fb551453c35080a	0.0832713386526224
73	0xbfb49c734e36c5d4	-0.08051224383850492
74	0xbfb422293ef074e2	-0.07864625727275468
75	0x3fbd9c0d5dd96d35	0.11566241780513027
76	0x3f9db861ccbcb7a0	0.029023674126782972
77	0xbfb056008ef658c8	-0.06381228914537751
78	0x3facb020aba905b4	0.05603124709569887
79	0xbfa7ee5e8ec16e0c	-0.046740488935679364
80	0x3fb07a8ddcadbbf1	0.06437002790129022
81	0xbfa436dd52aebb60	-0.039481083243450454
82	0xbf5655c17fbde341	-0.0013632192267023088
83	0xbfaf5fd7e7040508	-0.06127810187354937
84	0x3fb6358b87d9fea0	0.08675453249633813
85	0x3fb1719f8adf6587	0.06814000263638863
86	0xbfb0139353352562	-0.06279869824824894
87	0x3faddddd2897a8b9	0.058333312230233365
88	0xbfa78d7e6b73edbf	-0.0460013872306848
89	0xbfb7fd9feec311c5	-0.09371375636243957
90	0x3f9c80865b3b530a	0.02783403331598592
91	0x3fb15b6dd6cbf5f9	0.06780134672222705
92	0xbfb0aab17e325dc9	-0.06510457354521927
93	0x3fb1c1745932cf08	0.06935813119599399
94	0xbfadaea27f1e21e7	-0.05797298242311282
95	0xbfbca119481873d1	-0.11183317194122756
96	0xbfa7d21c25d159ff	-0.046524886719158325
97	0x3fafdcd856e4e444	0.062231789214316297
98	0x3fb2d66ffe2c481e	0.07358455615420254
99	0xbfab29d1088693bd	-0.053053409853681434
100	0xbfa8449b46f52d08	-0.04739842644866071
101	0xbfb38d3d38fffe6f	-0.07637388841248492
102	0x3f8123104dfe220d	0.008367659931324512
103	0x3fa24a00cd100037	0.035720849067729814
104	0x3fadd93670fb0e2b	0.05829782609137298
105	0xbf89c0a5fe2c6232	-0.012574478930717257
106	0x3f61e3ee43cec13b	0.0021838811503231115
107	0x3fb97326477251b0	0.09941329235363727
108	0xbf9b65c7f89682af	-0.02675545172462773
109	0x3fbbdceec0b6dfb3	0.1088399143690129
110	0xbf475b8e159dc77e	-0.0007128185054467854
111	0xbfa4a69ce0d831bf	-0.040333654829825864
112	0x3fb6ce978fb70917	0.08908984430948795
113	0x3fb69bf760731ad2	0.08831735710837599
114	0xbfbdfbdea92b44ce	-0.11712447767355913
115	0x3fa1d9132e29bd0e	0.03485927523149189
116	0x3f52536e7af28e35	0.0011185244473289728
117	0xbf89cbc7c0a585cd	-0.01259571129475292
118	0xbfb9ccdfed59b752	-0.10078239006699377
119	0xbfb08e5e09cf7051	-0.06467235316762411
120	0x3fa546492806ac84	0.04155186284636961
121	0x3face21af4b7a11c	0.05641254651328806
122	0xbfa72998ffb66f9c	-0.04523923989765352
123	0x3fb4b6e2e085ee9d	0.08091562253496894
124	0x3f9567bd9ba236bc	0.020903551696895603
125	0xbfa2eeb0001e54c2	-0.036977291120970715
126	0x3fb6f3c58b01536e	0.08965716022187362
127	0xbfb0f9854748c335	-0.06630738249147046
128	0xbfbd1c48885488b3	-0.11371281937002457
129	0xbf8a7632b5e6713e	-0.012920757461693296
130	0x3faed1d8251204ea	0.06019473507422808
131	0x3fa4cce9fe6ecc17	0.04062587004536782
132	0xbfb1e1826e9a556b	-0.06984725189461975
133	0x3fb96cb837823d71	0.09931517939752667
134	0xbfaf6db26273a647	-0.06138379527858411
135	0xbfb0bec39fef57ec	-0.06541083006536014
136	0x3f92ff922a12c434	0.018553050821257425
137	0x3f8163c83137400f	0.008491100313136738
138	0x3fb38b5d01f5e13f	0.07634526536810869
139	0xbf98fd1a632ce4ac	-0.02440301161116014
140	0x3fa67d064324fbfb	0.04392261094698565
141	0xbf7610c477ab2ea3	-0.005387084437369491
142	0xbfa9b7dd002dc76f	-0.05023089053328433
143	0x3fb0f698e0abd6b1	0.06626277432573137
144	0x3f7f7dabe49beef4	0.0076882090158922785
145	0x3f9c21768a49bb83	0.027471401396208527
146	0xbfaed0767b899de1	-0.06018419511820717
147	0x3fb72fdcad4447af	0.09057406644958975
148	0xbf8ef33f6cacea94	-0.015112395767223043
149	0xbfb74c0d7703cdcf	-0.09100422053943834
150	0xbfba80fd956e3ef5	-0.10353073976716216
151	0x3fb3d3d1a2994a44	0.07745084972092636
152	0x3fb2e10bc0f8b904	0.0737464281198506
153	0xbfbaf2af3a2f0286	-0.10526557131289324
154	0xbfa114207a2add2c	-0.03335668078710294
155	0xbf93cac9a9f6156b	-0.019328261374103855
156	0x3fa74cc66c89ad26	0.04550762247967048
157	0xbfb787bf82ac88f7	-0.09191510143549296
158	0x3f933344326037b2	0.018750253271768443
159	0xbf9bf98f0173363c	-0.02731917806959515
160	0xbf8c80aa94604f48	-0.013917286542017529
161	0x3f7ef569e10a2228	0.0075582633877578145
162	0xbf927ccf5dc87d6a	-0.018054237460203217
163	0x3f9ecefaa209ee15	0.030086437358916102
164	0xbf7ff4b980b574dd	-0.007801746959868097
165	0x3fb16740d6b41820	0.06798176996025562
166	0x3f79fae234497ee8	0.006342776880586355
167	0xbfbaf923268ca4c1	-0.10536403361460868
168	0x3fb859add692e847	0.09511839378947783
169	0x3f7ae6a5db73eec5	0.006567619209132129
170	0xbf6098a2bc118973	-0.002025907364939511
171	0xbfb590a71690a67b	-0.08423847485451035
172	0xbfb6f8bfe4c4e91e	-0.08973311743912801
173	0x3fba318a67ac6472	0.10231843024338774
174	0x3f5d359e1894026f	0.001782802954324005
175	0x3f9e861a40d4052a	0.029808435637282894
176	0x3f958472f6f820dc	0.02101306564694104
177	0xbfbd570ff9cb172f	-0.11460971687764919
178	0x3f9a0676d87fc818	0.025415284122523557
179	0x3fa849454c3e9739	0.04743401103705342
180	0x3fb821fb7b1ea26f	0.09426852947093221
181	0x3fba79895fab70f7	0.1034170015877328
182	0x3fa1dd8a888c6daa	0.03489334980823895
183	0x3f93e8eddb88b72b	0.019443241619391188
184	0xbfbd1874196f6636	-0.11365438099837707
185	0xbfbb3c2390f1a198	-0.10638639725369214
186	0xbfa0f348eaa906be	-0.03310611595635525
187	0xbfb28bdfd9b1983b	-0.07244681420124348
188	0xbfb41578672b34be	-0.0784526111485375
189	0x3fa48c772900bae5	0.04013416648409932
190	0x3fb249f6f60ac036	0.0714411116302934
191	0x3fb20d195a4b9ad8	0.07051237539745203
192	0xbfaa027791c802bb	-0.05080007223660262
193	0x3fb518f7c7367694	0.0824122296675916
194	0xbfbc6b0f2b05c852	-0.11100859451633596
195	0x3fb4d8c6537d7d56	0.08143271959624107
196	0x3fac2c90c2517c19	0.05502750751542624
197	0xbf9ddcd9e1414ecb	-0.02916279256198954
198	0x3fb22b4d1072481a	0.07097322131656406
199	0x3fbc75bb3f19cc5e	0.11117143908067947
200	0xbf88b583b3e3cbbb	-0.012064961364080298
201	0x3fbc135741c0c5e7	0.10967011790560087
202	0x3fb3c4aabac5b35b	0.07721964893216919
203	0x3fb59c0ce290adb5	0.08441238910079714
204	0xbfa0467360e351ef	-0.03178749616350617
205	0xbfbac40792c941e3	-0.10455367406507991
206	0x3f9c91442c781edf	0.027897896970926147
207	0x3f9ec11178e12436	0.03003337192811647
208	0x3fab0191d05398b8	0.05274634998367972
209	0x3fadf7d10db2b547	0.058531315729264004
210	0xbf8abb042b6f5025	-0.013052017760777865
211	0x3fbac9aee7855adf	0.10463994171491774
212	0x3fa43ddf5a087cc8	0.039534549465537305
213	0x3fb92fb605244b70	0.09838426232844966
214	0xbfb14fd87bf5ea5c	-0.06762459780103697
215	0xbf93e8f3f4f151d5	-0.019443332505334105
216	0x3fb654722374385c	0.08722604146552854
217	0x3fb66cbb54b0b88a	0.08759661500582375
218	0x3f9d838536fd9f86	0.02882202289711657
219	0xbfa90a66e85328fb	-0.048907485828367535
220	0x3fb1f5073d4315c7	0.0701450848165087
221	0xbfb4d4448bcf48a4	-0.08136394894907767
222	0xbfae136e57445b0d	-0.058741996910773954
223	0x3f8ad0c4fe0bdcd9	0.013093508723143564
224	0xbfbd119c87f9b4e7	-0.11354997939789123
225	0x3fb4b7ad86030699	0.08092770120404182
226	0xbfb1c49406f16336	-0.06940579576020131
227	0xbfbae37975f2460d	-0.10503348474073722
228	0x3facaa4dd8cb7395	0.055986817087364894
229	0x3fba02256b190bae	0.10159524788563942
230	0xbfb0ed985e3164e3	-0.06612541484482252
231	0xbf86f2878e0308b6	-0.011204775830610064
232	0xbfa19cd7e85bd44a	-0.03439974509630213
233	0x3fb341a19a251941	0.07522020352653148
234	0xbf70b18276bc9cf5	-0.0040755363695901175
235	0xbfb2c105845428c9	-0.07325777512247379
236	0xbfaa26b141ee7383	-0.0510764496786811
237	0xbfbbefa61e338201	-0.10912550198873562
238	0xbfa20d4eb5cbc27f	-0.03525777787388495
239	0x3fb1f00b0033e75e	0.07006901507329874
240	0x3fb01197769a3e49	0.062768427329723
241	0xbf9a8823c46754c5	-0.025909956800963103
242	0x3fb2a2c55e2d0839	0.07279618787018273
243	0x3f914b30c491934a	0.01688839149246072
244	0x3fae93885f416388	0.05971933520112943
245	0xbf98c5f68591c3ef	-0.02419266882174392
246	0x3f9877896146e426	0.023893496095954835
247	0xbfa022c42fdcaef8	-0.03151524624112584
248	0x3fad0fb80fcae6b8	0.05676055138378672
249	0xbfa1c3dc03024cb0	-0.03469741379481073
250	0x3fba6fcee5df32c9	0.10326855766397637
251	0xbfb03ae0de9d05fd	-0.06339841303726952
252	0x3fb6965d02390d0d	0.08823186210888796
253	0x3fa369824647aeba	0.03791434390936162
254	0x3fb693d21d4a2399	0.08819306578710807
255	0x3fb4b20dfae3afe1	0.08084189772824814
