Coursework2/networks/Weights/Unet_Mid_clsk4lr005ep5v1.pt (torch, 318875 bytes, 100 tensors)

conv1.0.weight f8 [3]
00000000: ac88 9554 0aa9 ee3f 1542 f85c 9532 ef3f
00000010: da58 0698 8721 ee3f
0.9581348087342767 0.9749247375312416 0.9415929764971012

conv1.0.bias f8 [3]
00000000: c16e 8937 a406 c73f 0d0b 5099 2e7d d93f
00000010: 1470 ed50 79cf cf3f
0.17989018165359563 0.39826550456943793 0.24851910068071048

conv1.0.running_mean f8 [3]
00000000: eacd aee5 9ed7 5640 e7de ac33 302a 5540
00000010: 019a 1eb1 7c74 5240
91.36907331534135 84.65919200784593 73.82011058796344

conv1.0.running_var f8 [3]
00000000: c9dd 51ae f4f5 b740 c8f3 9ebb 42f7 b540
00000010: 6c0a cb7f 1a30 b440
6133.9557849089115 5623.260675367848 5168.10351246838

conv1.2.weight f8 [4, 3, 3, 3]
00000000: 7d6e 2c74 3fef c83f 3136 9469 d576 c53f
00000010: 66d3 e661 ac00 94bf aa08 4f89 f039 c4bf
00000020: 254b 78bc 998f c83f 2bf2 c5c6 becf c2bf
00000030: a675 6dc0 f903 913f 3f8b 5c82 b69a c03f
00000040: 52d9 45d1 8df5 49bf 221f eeee b4a9 c1bf
00000050: 33eb 957c 0e37 a93f 54a0 7795 67e6 c43f
00000060: 6ac0 2cde dd68 bcbf c4c9 7ea9 856c 97bf
00000070: b2b2 c649 c6f7 843f 0c23 92c0 4bd1 a9bf
00000080: d492 5294 2207 ab3f 8f6f acbe bccc 9e3f
00000090: dbdd 2b29 ae1f 9dbf 1a55 6433 eb5b a03f
000000a0: 7ef5 98ab 47bf a03f 6e72 043f dec3 b43f
000000b0: aecf 2096 36e6 bb3f 7a15 a3d0 2102 babf
000000c0: f3b6 1d17 6c9f c83f 8ae6 1d75 4b2c bbbf
000000d0: 7d5c e599 a680 b93f 1f0e faf0 e71e b73f
000000e0: 95b3 5c04 8ce3 c33f ccc2 f7a3 555f ad3f
000000f0: c1b7 04fc 0bc8 c43f 8a12 9aab 1077 c6bf
00000100: ccdf a3f5 ad29 92bf 30f1 0a5e 679b 853f
00000110: e329 a082 a103 733f 5d06 8bd2 4fb9 803f
00000120: 34d9 b06b 2c58 b3bf bc5c 0b5d 0379 ad3f
00000130: 9364 9fb9 6c6e a23f 8f78 046a 6ba7 98bf
00000140: 6f93 7ae9 cadd b63f f4e1 2e28 19ca 963f
00000150: e645 fe10 52e3 c5bf 1cea a0d2 3930 54bf
00000160: 73c5 7cfc f853 8dbf 3514 e0f1 624d c53f
00000170: 225f 2d2f e379 c83f 0715 f726 99c5 c33f
00000180: 2ff6 a370 88b9 9f3f 5ad8 01ff c38d 893f
00000190: 2293 bd86 a387 b1bf a4be b10e 848d ab3f
000001a0: 408b 599a 1483 cabf ca08 07d0 6f33 c03f
000001b0: 2d17 f703 af0c 8abf 3446 f211 d39d cabf
000001c0: 62ec d13f 6b67 a73f 40b4 7068 bf14 bbbf
000001d0: 13e7 2a74 f9f1 c0bf 182c 7973 c47b ca3f
000001e0: 9670 9c55 9620 abbf 9f42 2f81 a4fc a1bf
000001f0: 06e6 a121 8916 72bf 1bc6 fbc9 3eb5 babf
00000200: 0ff6 e670 5676 67bf 081f a7b4 fbae cc3f
00000210: 06da 68b0 14d4 d63f e8f4 1ce6 505e a53f
00000220: 05c5 93b7 e833 d43f ff20 2114 5679 c6bf
00000230: c5fb 2120 2ae0 b9bf ff23 e0b1 ffdb b5bf
00000240: 5d6f b07a 8dde b1bf be72 4cef 4e38 483f
00000250: a6ac ebf0 21af c33f 4be7 446b ac18 c3bf
00000260: 3b10 1bbb e901 bebf 1a98 66c4 44cd 873f
00000270: a242 2625 5a04 013f b5e6 e162 bede c2bf
00000280: 735d fd57 2b9e bdbf 9c42 1ebb 5601 b2bf
00000290: a46e ad40 e9bc c4bf 0e53 3154 ed21 c8bf
000002a0: a9bd 8515 aeeb b6bf ff00 b2bc 21db c4bf
000002b0: f947 0ae3 aa42 c6bf 52a0 b457 a5f5 c33f
000002c0: 7e1b 8807 2fc7 9fbf 9d2d 1770 f91f c73f
000002d0: 85a7 415f 100a c4bf 618e 1946 c71d c73f
000002e0: 45fb fb36 d40d c63f afb1 d6d7 c46e bf3f
000002f0: 6023 788a 27e2 b73f 6701 ff05 c13f c63f
00000300: a2f4 aecf d7f9 4ebf e9b9 cd95 d7c9 b53f
00000310: 5665 fc85 82ac be3f f48f a63e 6898 65bf
00000320: d853 1654 597a c53f 0acd 3444 9516 af3f
00000330: 679a c542 d7ba c8bf 074e 5bc4 c192 853f
00000340: 1c1a dc58 b9bf c63f 94d9 21be 65c9 b7bf
00000350: 7894 5014 a325 5e3f 4b6f 4acd 3b9e c33f
0.19480126545464663 0.16768901496145497 -0.019533818698352155 -0.15801817612197527 0.19188234045631095 -0.14696488099788615 0.016616728181693262 0.12972146382625202
-0.0007922117679715435 -0.1379915396357712 0.04924817343540724 0.16328139112670448 -0.11097513841809961 -0.022874916525049263 0.010238217474431852 -0.05042492604940749
0.052788811307697664 0.030077885759154873 -0.028441163313770317 0.03195128443091218 0.03270935029693599 0.0811137107707027 0.10898152508963108 -0.1015950331085004
0.19236518028940672 -0.10614463433548785 0.09961930520272406 0.09031533845159644 0.1553816815661803 0.057367969766237786 0.16235494428241107 -0.17550857905384404
-0.017737119786914765 0.01055031543489146 0.0046421345705404985 0.008165954220547162 -0.07556417111559172 0.05756388197704029 0.035998723658573394 -0.024076155038635746
0.08932178688207924 0.02225531871565241 -0.17099977330921873 -0.00123220106844591 -0.014320321278861603 0.16642414865796842 0.191219709430464 0.15446772005649498
0.030981189608601575 0.012477427692129495 -0.06847593345225936 0.05381405524610486 -0.20712525879488375 0.12656972558585827 -0.012719504650600644 -0.20794142128265636
0.045710898914841605 -0.10578533458529282 -0.1323844735359719 0.20690208090158602 -0.05298299593980109 -0.035130635041814566 -0.004416022939147895 -0.10432808333623493
-0.0028640449811223666 0.22409006424845068 0.35669438579080326 0.0417351990604205 0.3156682770487154 -0.17557788832551322 -0.10107672962656895 -0.08538816540398385
-0.06980213399259357 0.0007391343520769184 0.15378212226582838 -0.1491904758238952 -0.11721669023523955 0.011621987575221527 3.2457352648345277e-05 -0.1474225981544827
-0.1156947221583005 -0.07033292835536503 -0.16201511056975904 -0.1885353718850173 -0.08953369164895854 -0.16293737138403938 -0.17390953145928714 0.1559340170144901
-0.03103326304883635 0.18066328023119818 -0.15655712748712972 0.18059626505702212 0.172297026489071 0.12278394956110249 0.0932945931491651 0.173820617606917
-0.0009453109517988565 0.08511111647906201 0.11981979151859909 -0.002636149981485753 0.16779629331418167 0.060719170165976236 -0.1932019306215864 0.010533822827176754
0.17772595251899836 -0.09291683093929343 0.0018400280544111063 0.1532664062877934

conv1.2.bias f8 [4]
00000000: e8ff ff9f 121e b6bf 0000 00a0 9935 c33f
00000010: f7ff ff1f d458 c13f 0000 0000 eda0 9dbf
-0.08639637380838361 0.15007324516773224 0.1355233341455457 -0.028934195637702942

conv1.3.weight f8 [4]
00000000: 8740 a709 2281 ef3f cd32 9567 18bd ee3f
00000010: 2913 08de 0351 f13f 4585 e274 22c8 ee3f
0.9845133007566041 0.9605829260923088 1.0822790787799 0.9619304926783704

conv1.3.bias f8 [4]
00000000: 8a03 538e 2d12 9cbf c649 aea1 c929 a63f
00000010: 3689 0f55 2144 be3f 58b4 e292 3fc4 923f
-0.02741309338739798 0.04328756426470508 0.11822708441426219 0.018326752987082834

conv1.3.running_mean f8 [4]
00000000: 2763 37e3 bb96 d03f b23a f814 37d5 de3f
00000010: 2d72 c87f e631 953f dd7b 5288 bb99 d53f
0.2592000693235143 0.48176362083260493 0.02069816737103929 0.3375080901404866

conv1.3.running_var f8 [4]
00000000: c19d ecad 0217 c83f c137 f2e4 6c15 c93f
00000010: 538f 131e e839 b13f 88b7 aed3 4993 cd3f
0.18820222370525921 0.19596635035526158 0.06728983625685929 0.23105738483485205

conv1.5.weight f8 [4, 4, 3, 3]
00000000: 7bb2 da83 025b c33f 2b65 a398 9f6b a43f
00000010: 0cf7 ad01 d24c aabf 7301 2f29 a1bd b8bf
00000020: 5c24 e79f 5f32 a83f 24fb 39d6 7914 9bbf
00000030: d3ec 3a26 9756 bd3f 5777 74e1 aa1f 5a3f
00000040: 96cf dd0a 9e70 bd3f 3edc fa23 b36e bb3f
00000050: 7210 f343 fc7b 963f 4e5b a3c8 fb80 b7bf
00000060: d8e5 0c8e a74b 2c3f 7ccb 0e87 78e8 b33f
00000070: a35c fb9b b8b5 a8bf fee9 a3f2 145d c13f
00000080: ff69 7ce7 ec02 b83f 8442 a557 dfd8 c53f
00000090: 0de2 452d d8fa be3f b5af 90cf 57ad c53f
000000a0: b717 5ebc 4327 9fbf 49bf d709 52bd 9bbf
000000b0: 25f5 b339 26c3 c13f 5c70 d5b6 663a 8e3f
000000c0: 533f b6e1 25bb 6f3f 97a8 f567 8363 ae3f
000000d0: def6 8b60 e01a 9dbf 88ce 5119 a05a 89bf
000000e0: 4c90 ccd9 f4b1 8dbf 11e4 173e e664 bb3f
000000f0: 80ce 6d74 6e91 abbf 45bf edb2 81d6 b6bf
00000100: e72c c43b 34d6 b63f 6356 b353 84f8 b33f
00000110: 94c7 c6b2 415b c03f c2e1 2c31 032a 823f
00000120: 4a14 b492 df7e 8abf de47 06e2 3e47 b63f
00000130: 79b4 9358 6ad8 ae3f 9416 9a19 c264 8bbf
00000140: b3b6 411a 7dec 93bf 9834 7a3e e97a adbf
00000150: f29e e886 844d 87bf b520 56d7 ea91 a23f
00000160: edfd e4c9 7aad b03f fa84 1348 8a23 bebf
00000170: 0662 7c59 69f1 c1bf a379 6f39 7113 b33f
00000180: 20f7 c2ce c1f0 b23f 0961 ea76 c78d a63f
00000190: 23c4 c1b3 bb47 c43f 8b7f 039d 86fb c13f
000001a0: ec45 6827 05a8 bb3f 967e 0ba2 38dd c13f
000001b0: 8a1f 27d5 5bca c5bf cefd 2ff5 0271 a53f
000001c0: c780 6229 3d08 c4bf 32e1 4376 a45f c2bf
000001d0: 3baf e5cf b874 c2bf 42b6 9dd1 ecef c1bf
000001e0: 8069 783f c247 c03f 481f 11a6 b24f bdbf
000001f0: 67ca cd62 7205 b83f faa8 7d87 122f b43f
00000200: 9e99 860f 97cb bb3f e0b0 bef2 88d6 bdbf
00000210: ed7b f3c5 bf36 96bf e556 dbcc ca6c b1bf
00000220: 9148 e162 d821 b33f 7438 f6f9 624b c0bf
00000230: 0bd1 3ada 31be bb3f 5922 b1ce bd6a b33f
00000240: 1393 6ce1 57e7 c0bf e311 160d fd94 75bf
00000250: ac5c 16cb 8a50 c2bf ccf7 2c73 fe87 c1bf
00000260: b478 c8e0 217b 9bbf b60c e520 4741 b73f
00000270: 8262 c6dd 11d7 c4bf 4875 6a40 32ee b3bf
00000280: a16c ec5e 9de7 b03f 3949 59e4 e7e9 b33f
00000290: 8012 f1b9 35c4 c13f c677 34a6 4a9d a93f
000002a0: 0912 88b3 2a30 b2bf 52fc 0f0c 564e bd3f
000002b0: 75bd 3859 f893 c03f ff7e dd4d e30e c2bf
000002c0: bcdb 7132 731e b8bf 1334 7940 f875 b03f
000002d0: 6939 c7bd f9e3 c6bf b7e8 7d0d f878 a73f
000002e0: 0021 eab0 e996 b93f 0ac0 feb3 5f9a bd3f
000002f0: 9195 22c3 9e52 b0bf 277f 854c f4f2 b63f
00000300: cf7f f35b e36a a0bf 1787 ca7a 8002 ca3f
00000310: a23e 3075 c046 bc3f 88a4 fa73 58bd b33f
00000320: ff25 9442 dae7 853f 73aa a07e 683c bebf
00000330: 25aa a108 7ed8 c0bf 3264 bfa6 35a6 bd3f
00000340: 9860 bf57 cbfb c2bf cd1d 3e06 138e 7bbf
00000350: 4daa 4b5a 8e82 9d3f 1a85 27a3 858c c1bf
00000360: a3f7 529f 5940 a5bf 22b5 c11f f7c9 c1bf
00000370: 6f4a 2562 f5db a6bf 05cd 089d a3e5 93bf
00000380: 856e bc37 69a6 c03f 08cb 512d f894 943f
00000390: 1b5b 1116 9f65 b8bf 611d 822b 3204 bcbf
000003a0: f6fd 0e2d be69 c5bf 4dfb 15f9 8ea2 bc3f
000003b0: dba3 eb06 3fdb c8bf 5da0 8957 b726 abbf
000003c0: 5cfd 547b a9f8 b93f 4064 1aa5 c317 c33f
000003d0: 7195 6e2b a863 ac3f 7732 a8eb 7fce 883f
000003e0: 402a acea deae 76bf 2a8d fde7 509a c13f
000003f0: 3fe8 a017 76d8 b63f e9aa 32cc 2e4b b0bf
00000400: cd32 b86f f66c c5bf f605 d251 84c1 c7bf
00000410: 9d7d 095b 8d16 cd3f 48e5 ab0f 8f49 d0bf
00000420: 39b1 aa20 7f05 c33f 6db2 f144 66ab cd3f
00000430: b6eb 09a1 c1fe c43f 16c7 d664 0d19 953f
00000440: 78d3 0fe3 cfdb b5bf 29a6 0e0a 260c 92bf
00000450: 8fd0 a2f9 b157 91bf 042e 8c96 d5d2 bd3f
00000460: 6d6c 5954 bf5a b13f d272 f361 a836 b23f
00000470: a01b e89e aeec c2bf 173f 1304 684c b33f
0.1512148994273906 0.03988360155353584 -0.05136734266760187 -0.09664351706942913 0.04725931956233673 -0.026445296955439748 0.1146025150618926 0.0015944641834901485
0.11499965443891677 0.10715789440551846 0.021957341811472415 -0.09181188248053937 0.00021587772700985722 0.07776597306546579 -0.04826142219615661 0.13565313193960543
0.09379463817132459 0.1706809213597077 0.12101508240983368 0.16935250887888534 -0.030423220035593803 -0.027089387751345204 0.13876798455741227 0.014759829001086348
0.0038734187962247506 0.05935297626531726 -0.028422838108773323 -0.012379885456744746 -0.014499581238460867 0.10700835243177688 -0.05384392901660551 -0.08921061151863537
0.08920599421633178 0.07801081698866023 0.12778493146248293 0.008869194925510086 -0.012937304176839377 0.08702462213685133 0.06024486857663986 -0.013375774771030614
-0.019456820228177473 -0.05757836234725139 -0.01137832199772457 0.036269511018930535 0.06514708928170139 -0.11772979983972567 -0.1401797949736336 0.07451541568977986
0.07398616121187418 0.044050439134652626 0.15843912388985001 0.14048845926936013 0.10803253376095484 0.13956363594387672 -0.170237998083618 0.041877834730253846
-0.15650143166295136 -0.14354377531686563 -0.14418707038145748 -0.1401344321742944 0.1271899042047373 -0.11449734262816691 0.09383311187938546 0.07884326751596751
0.10857528809592629 -0.1165547936095126 -0.021693226296402846 -0.06806628705393399 0.07473518766463118 -0.12730061726728403 0.10837089136004267 0.07584749504270273
-0.13206003672635144 -0.005269039612703061 -0.14308295170187557 -0.13696270583926518 -0.026836900086089258 0.0908398108777416 -0.1628134091268017 -0.07785333702709807
0.06603416030377442 0.07778786969109754 0.13880034999069224 0.050028164662065985 -0.07104746707052113 0.11447656435483225 0.12951568943524774 -0.14107934286129617
-0.09421462995110991 0.06430007528361185 -0.17883226171984326 0.045844794890358136 0.09995899743273995 0.11563680786525779 -0.06376068367042921 0.08964468830299364
-0.03206549165201943 0.20320135112438528 0.11045458661123544 0.07710793334503496 0.010696129948445153 -0.11810925570959245 -0.13160682126483994 0.1158174068545044
-0.14830915245579912 -0.006727289499287759 0.02881834436531454 -0.13710089174768642 -0.04150657720445785 -0.13897599268549593 -0.04464690039698815 -0.01943069120370657
0.13007846089827893 0.02009952332123091 -0.09530061997189103 -0.10943902551854513 -0.16728951645016793 0.11185544568250556 -0.1941908630172112 -0.0530297560079027
0.10145053158793388 0.14916272699045585 0.05544782190490139 0.012112616900617141 -0.005537863510435559 0.13752185180337878 0.08924043728703256 -0.0636471985368804
-0.1673877759461874 -0.1855931663049401 0.22725073762101725 -0.2544896748582528 0.14860524268204658 0.23179319731152095 0.1640245472261463 0.020603379516337027
-0.08538531583310582 -0.017624468196720287 -0.016936093198368026 0.11649832654455144 0.0677909451418814 0.07114651099568484 -0.14784796485056706 0.07538461780063375

conv1.5.bias f8 [4]
00000000: 0000 00e0 dcd4 c4bf 0000 0000 4801 aa3f
00000010: 5e00 0000 5414 7c3f d1ff ffff 59ac 86bf
-0.16274605691432953 0.050791025161743164 0.006855323910713277 -0.011070922017097392

conv2.0.weight f8 [4]
00000000: 02b9 bc4c 425c ef3f d27c e504 a7a3 ef3f
00000010: de07 1c18 f216 f03f a5d4 4b0c f34e f03f
0.980012082936611 0.9887271018632424 1.0056019727494383 1.0192747574158514

conv2.0.bias f8 [4]
00000000: 4868 0b4a 15e7 a03f b857 46d2 199c a03f
00000010: 90f5 0b15 0549 a0bf 9266 2c9f b453 bb3f
0.03301302460541017 0.03244095508414041 -0.031807097262553374 0.10674599538870158

conv2.0.running_mean f8 [4]
00000000: d6af 260f 7958 e03f 88f0 66d9 6677 c23f
00000010: ebdc 4dca 2272 983f 4498 ccaf 361c c13f
0.5107999130173038 0.14426885238015452 0.023872893903413333 0.13367351135201677

conv2.0.running_var f8 [4]
00000000: ee5c 1e68 e2f8 d83f 5aa0 dc81 8c19 dd3f
00000010: a363 a581 ea91 cf3f 0279 e8af 1685 b83f
0.3901906983168847 0.4546843784505704 0.24664050417302716 0.09578077120429287

conv2.2.weight f8 [8, 4, 3, 3]
00000000: 6f2a 218a 08b5 863f 15f6 e8dc 7a52 97bf
00000010: 35f6 2eeb ad56 a2bf d792 6e80 450e ba3f
00000020: 4eb0 434c d0af 79bf 45a1 2854 35ee b0bf
00000030: 4f94 207f a018 a0bf d8ac af91 c3a2 bf3f
00000040: 57bd 79d0 6ae7 bbbf 34e2 59a5 5b5e b5bf
00000050: c4ef 47f1 5de2 b5bf beb6 7a5d fcc7 be3f
00000060: cf7d c0d1 7c77 bfbf e180 0de9 b629 b1bf
00000070: 1341 9ae7 fe6b bc3f 1823 8fe9 72d3 a4bf
00000080: 88de ae5d 0ae6 babf 45c8 828a 71f9 c0bf
00000090: 0883 0b71 248d 533f 78af 970e 250c b93f
000000a0: 52e4 dd8d bbcc b33f 6097 037c 3372 c33f
000000b0: e77f 2d02 499f 4cbf 6702 bf90 0abd c0bf
000000c0: 3306 69d9 62ac c23f e258 a6b2 bb4f 2abf
000000d0: a346 8f18 11ae b4bf eec3 a591 1217 be3f
000000e0: 2c39 01d7 5252 c2bf ea07 93de 82bd 6dbf
000000f0: 541c c779 df42 bb3f 7e41 12af 1a77 a73f
00000100: 7bd2 697e d880 af3f c24c fa34 77ba bebf
00000110: 5e49 e8d0 44d9 92bf a2ee 7cf4 0790 c63f
00000120: 86fd bdff f119 c43f 7bc2 de52 93f6 bc3f
00000130: f013 f28a 829b 9cbf 3c50 e1dd c9b1 b7bf
00000140: cd58 34ac 1de8 c03f 4371 e98c 3490 a9bf
00000150: a0dc 9864 a11c b9bf 06d2 0510 e743 c4bf
00000160: df0c 7579 7f90 b3bf 7b35 347e e284 c23f
00000170: 5738 c66b fc9c b9bf 4b46 55fe 72e4 90bf
00000180: 9339 de16 c280 c0bf 8677 ee2a c77e c2bf
00000190: 44ca 4fbe 94f5 483f bf77 affb bcf4 b53f
000001a0: fb50 d161 5bce c43f 3642 56db fba7 bb3f
000001b0: aadc b9b4 2cbf 93bf 22df 1a9d a06c c7bf
000001c0: 4ed5 a5ea 653f c53f 76c3 f4a0 4cbb aebf
000001d0: 7797 1a75 7d0c c23f bc8f 08c1 783a c2bf
000001e0: 3f73 7d7b 4911 b23f 2d0e da08 05bc 97bf
000001f0: 9fbc b5a7 da16 bd3f 9526 a9b0 8d34 c43f
00000200: bf03 c8f5 4818 c2bf 9df9 8a03 d0e0 93bf
00000210: 2d48 305b 96e4 c13f a8bb 5a98 fffe bc3f
00000220: f5c4 eaee 0ac6 bf3f 520d 8ee3 ecba bebf
00000230: 2f59 9f84 99ea bb3f a774 b1a2 ec41 bcbf
00000240: a5ad 0eff 55b7 c13f 9541 cff5 c228 b5bf
00000250: 9e56 5ec2 443c b13f 1f8f 345e dc8e b7bf
00000260: 9705 289b 0085 b53f 3aeb cebf 4150 c1bf
00000270: c318 585f 7e10 bfbf 0170 4eb7 2f3f bebf
00000280: e115 1c61 8dff a93f a333 d6cb 4e03 c43f
00000290: 70a0 ef72 45fa b53f 9095 c0d2 d4d9 a1bf
000002a0: 5e66 8349 8dc6 9fbf 0763 3a0a 7067 b1bf
000002b0: 83b5 f1e4 cfa4 b4bf 4517 7458 9242 9ebf
000002c0: b8de b279 75cb 9bbf 9f82 0601 9bdb c13f
000002d0: 9aea bb72 9cfc b03f 2719 292d 57f8 a93f
000002e0: cff8 c18f 75fa b5bf 058a c840 ec38 b53f
000002f0: 5dad 41fb 2c90 92bf 2e5b 72ac 7a23 88bf
00000300: c718 0183 fceb a8bf b8f1 9339 dc34 acbf
00000310: 98a4 3030 376b 993f 57cc 7792 a07c c0bf
00000320: b479 9acf 078c c63f 8c1e 2577 1c41 86bf
00000330: c94f 540e fb4f a33f 7196 1d96 738d c33f
00000340: c04a c69a 04c8 a83f 0246 a0da bfb0 5b3f
00000350: f5e6 8822 ea7e b3bf 1e95 b2b9 b4b9 c53f
00000360: 7a81 cfd8 5814 913f 4a74 ec3e 12a2 c9bf
00000370: 9da6 efa3 d913 c8bf 51bb d046 dcdd b43f
00000380: 2dcc 6d09 3ec2 96bf a41a ea12 f323 9a3f
00000390: 4c0d 5717 6679 9bbf 88b9 3303 41a0 c23f
000003a0: 8ff0 4ea8 71e2 c03f 9cbc a8aa 3c71 82bf
000003b0: b0ff 0ad5 e2cf 933f 0cfc d691 55ae c7bf
000003c0: f622 5580 e543 c53f a047 3bbb e493 a73f
000003d0: 1b02 351a 1ff2 983f 9cc4 a30a f3af b1bf
000003e0: 049d 3712 b3c7 b63f 1156 d657 af48 bd3f
000003f0: 8764 6e5c d575 7d3f b1ed 3461 265a ab3f
00000400: 3640 d739 c861 b4bf 1dd8 b56b 2fc5 8cbf
00000410: 5a4d 65f5 bf50 adbf 5127 900c 3a17 b93f
00000420: 3f0a f007 08e4 9e3f 4c68 ac4b 43dc c0bf
00000430: 8870 716a f76c c2bf ad03 d0f7 a96c 9abf
00000440: 5216 8749 ab4f b33f bd2e 72ca 2c72 af3f
00000450: c019 98e1 2c72 88bf eb43 5e2d 8e05 7ebf
00000460: 5f40 0231 aa8c 96bf 092e 852b 585f 7a3f
00000470: 722b 86fb 70f7 b6bf f663 326b 1357 a13f
00000480: 489d 9683 5749 c23f ff73 e0b6 26f3 babf
00000490: 94ed c5e3 7c71 813f 8d63 3b4c 5539 c43f
000004a0: bb3d 597c e4ef c1bf 9504 b891 2968 8bbf
000004b0: 30e5 bd17 d019 ae3f 9330 e31f 8119 b93f
000004c0: 551c 51d9 faab c8bf 9c88 54b6 8848 bd3f
000004d0: 60ba 3577 df18 c1bf 1905 69ad e491 bb3f
000004e0: e7bf d5a9 e7fc b6bf 23fd 61dc d829 c63f
000004f0: 96ef 2453 9a6d 81bf 2fdd bacd d424 b5bf
00000500: 7261 323a 5b0c b43f aa0c 364a 46b9 c4bf
00000510: b7cf 73d8 e77b afbf 7b81 a970 75d8 a83f
00000520: 670f 9bf5 37e9 a03f 1d46 fd53 1807 ad3f
00000530: b0dc 2b49 0f5f 9fbf c3ea ce6d 2b11 a6bf
00000540: c3d8 ac08 7f2c b6bf ff7b a50e 2229 8ebf
00000550: 3021 05af 7eb6 c8bf cf9a f1b8 47e2 c43f
00000560: 6f3a 3c7d 38f2 a6bf e8fa 15bf c3ad 86bf
00000570: 083d f938 618f c03f e8ac 0f16 7f96 b13f
00000580: 10b1 3e22 b57b 863f 81da 0db9 d313 803f
00000590: f74d ada4 5207 cbbf cc70 ca2b 1db9 a2bf
000005a0: d1e3 e8b2 4a8e b3bf 2959 6fb0 0809 c1bf
000005b0: 695c 21d6 98b3 9a3f 4564 81a1 1c8e b4bf
000005c0: a421 6f6a 12fa b63f 8403 1225 6608 903f
000005d0: 7817 83bf d9e3 b7bf c58a fa6f 8b68 be3f
000005e0: be14 8b11 36d4 a23f 2381 2361 9648 c4bf
000005f0: 5e98 f339 014c b63f ed3c 58b8 dc4d ac3f
00000600: 6274 dd63 e6d3 b6bf 1ae8 25bf 6b07 b43f
00000610: bce9 e1ae 469e b93f 1a8f 7b33 011a 933f
00000620: c486 e9ca da52 93bf 53e6 cf17 438a 9f3f
00000630: 5973 d329 3d6f bb3f 3d68 46fd 5b3f ae3f
00000640: 6f22 fcbd 6df6 bb3f 9ef3 14b1 675a a0bf
00000650: b85b a78f b1ae b23f e00e 594f afe1 a93f
00000660: bb72 4f57 0263 a93f 854a ea5b 5b79 c1bf
00000670: 4ee7 a511 5cb4 90bf f767 f382 57b2 c13f
00000680: d567 70c3 8b6b 8b3f 53ce 40b2 f6f1 c63f
00000690: 9126 445d bdbf acbf d864 5b6a b3c7 babf
000006a0: ee96 ab0b 80d8 c33f 5c2f b91f 6a3d c5bf
000006b0: b727 b929 9486 be3f db20 29f4 657b bbbf
000006c0: 7402 6899 02ec c5bf c836 9057 5068 c5bf
000006d0: c71e c3f3 e48a aabf d116 2717 2df7 b8bf
000006e0: 5c48 cb9e 5b56 af3f 5040 6a8b 877f c4bf
000006f0: 894c 2187 8cf1 bb3f 7964 4b46 1377 a33f
00000700: 947a 58e6 e7cf b53f 255f 7a19 6a7f a3bf
00000710: 7074 6c10 9cc0 74bf 8de6 0ead 6936 c23f
00000720: 3abf ed5f a3e3 b6bf 6e5f dada 210c 8ebf
00000730: 0e2e 0221 e741 c33f c485 e7aa e485 be3f
00000740: addf e1f2 d1fe c5bf c058 b545 ab76 bdbf
00000750: 8c64 eb16 43cb 78bf 54c1 c352 3375 b2bf
00000760: ba98 83f7 d097 c63f 8a14 bb8c 9ec2 9a3f
00000770: dc82 14dc fc8d b23f 65fd 472a 5a37 aa3f
00000780: 10fa 2279 8996 bcbf 35ed e0bf 026d ba3f
00000790: 94b2 75ce 7675 bebf 6970 8761 5f1c c53f
000007a0: 4187 8f94 7134 84bf d184 77e0 0114 c5bf
000007b0: bdc8 02d1 fc95 c1bf 1f26 ca3b 99e6 913f
000007c0: 8770 48d6 0942 b6bf 7612 84f4 c6b8 b7bf
000007d0: 809a 885b 0c90 b9bf 8ed5 bf71 42d1 c03f
000007e0: 3aff bfea f3cb bbbf 20a8 1d40 0c0f 90bf
000007f0: 1a0a 6009 262a c63f d1f5 4493 665d bdbf
0.01108748122728295 -0.022775573476101558 -0.03581756111041693 0.10178026567025299 -0.006271184600546388 -0.0661347704377749 -0.03143788863989327 0.12357733065407517
-0.1089998969052791 -0.08347103869335443 -0.08548533573770017 0.12023904115877834 -0.12291698571106412 -0.0670427626587329 0.11102288393363251 -0.04067572690070714
-0.10507263934311528 -0.1326124121019935 0.0011933189272712048 0.09784156423819279 0.07734272206825324 0.15192264132854927 -0.0008734804617738207 -0.13076908176118993
0.14588580718741326 -0.00020074049218683 -0.08078104829408032 0.1175395589432495 -0.14313731668739516 -0.003630405048711251 0.10648915026750788 0.04583056819058394
0.06152988951808865 -0.12003274005319312 -0.018406939745611132 0.17627047956363123 0.1570417879811254 0.11313744328686852 -0.02793697331482642 -0.09255658785815596
0.1320836153833568 -0.04992832393756654 -0.09809311586365022 -0.15832222254142908 -0.07642361369385096 0.14468032038022813 -0.10005166655739238 -0.016496464513073666
-0.1289293872509459 -0.14449395748391342 0.0007616974149853924 0.08576565880454633 0.16254751468898818 0.10803197960763886 -0.019283960848465988 -0.1830025450815294
0.16599725682650973 -0.06002273049160227 0.1410061666294344 -0.14240941453419775 0.07057627930539655 -0.02317817560698481 0.11362997621994218 0.15785380483639658
-0.14136611939468754 -0.01941227933525057 0.1397884316689341 0.11326596707907177 0.12411564190803744 -0.12003975444354367 0.1090484570298471 -0.11038092586518876
0.13840746835681475 -0.08265322209559252 0.06732587571453982 -0.09202363300260828 0.08406070507046191 -0.13526174417150988 -0.12134542300927635 -0.11815164780858824
0.05077783403798342 0.15635094597783192 0.0858500867467471 -0.03486504624042219 -0.0310308529013582 -0.06798458337506129 -0.08063983287293834 -0.029550825737735726
-0.027143321564578854 0.1395143275267587 0.06635453988193732 0.05072281290317653 -0.08585295448026219 0.08289982396721747 -0.018128111682398685 -0.011786421191840892
-0.04867543315099137 -0.055090791729500876 0.024823057476315386 -0.12880332137828773 0.17614839207540245 -0.01086637724496533 0.03771957921904307 0.15275425748693608
0.04840101613367187 0.0016900895666406295 -0.07615531294950613 0.16972979609742195 0.016679180367533665 -0.2002585227245695 -0.18810577873891968 0.08151032189264852
-0.022225350690359292 0.025527761487433978 -0.026830287146151918 0.1455155625948914 0.13191052168065595 -0.009005044897177954 0.019347709897146792 -0.1850077592953031
0.16613453642118942 0.04605021272222065 0.024361120199730118 -0.06909102449187049 0.08898467249638392 0.11439033407653933 0.007192452851904402 0.05342216431241854
-0.07961703693513375 -0.014047975992735268 -0.057256697373896784 0.09801066214290911 0.03016674564788446 -0.1317218894481037 -0.14395039269846088 -0.025805145025518495
0.07543440384969216 0.06141796084656679 -0.011936522135340577 -0.00732951677299896 -0.02202096866727776 0.00643858376890761 -0.08971315518117054 0.033867461047698486
0.14286321568691052 -0.10527269329800502 0.008517242146573158 0.15799967024102238 -0.14013343879422088 -0.013382267722592803 0.05879068651024466 0.09804541615011635
-0.1927484093778015 0.11438803149624949 -0.13357156105799373 0.1076949046482877 -0.08979652305947604 0.1731520725333918 -0.00850983206020554 -0.08259325049117615
0.07831354304142282 -0.16190413116064423 -0.06149220006218974 0.04852644920606771 0.03302931664577962 0.05669475579510339 -0.030636061516784607 -0.043099743990258975
-0.0866164585284848 -0.014726892539952628 -0.19306930108928944 0.1631555226369614 -0.04481674698592008 -0.011073617238023428 0.12937560350335553 0.06870264328579234
0.010978140933581432 0.007850317082312987 -0.21116097489230842 -0.036568557353548664 -0.07638995044625509 -0.13308819403636932 0.026075733251073183 -0.08029345458034338
0.08975329493035261 0.015657039654346075 -0.09332047391498388 0.11878272518019191 0.036775293008341134 -0.1584651922521597 0.08709724106629 0.05528154135037675
-0.08917083681213137 0.0782382337255573 0.10007135171500797 0.018653887526752212 -0.018870752939966776 0.03080086548650336 0.10716612120763837 0.05907714335189993
0.10922895324996217 -0.031939735762058094 0.07297811276599375 0.05054996341325846 0.04958350482750037 -0.13651601779982428 -0.016313017441894666 0.1382550610931614
0.013388721372439885 0.17925914481894498 -0.05615035785201628 -0.10460969301802281 0.15504456109845627 -0.16593672322266684 0.11924100893625576 -0.10735165797189287
-0.1712649582914484 -0.16724590564301978 -0.0518409297524705 -0.09752160849810855 0.06120573342708788 -0.16014189059615314 0.10915449427675318 0.03801784737670117
0.08520364164039967 -0.03808147011767308 -0.005066499353032147 0.14228554678065955 -0.08941098300942665 -0.014671577922214598 0.15044869529479893 0.11923054859609922
-0.17183899268615957 -0.11509199573387985 -0.00605322081420313 -0.07210083742734713 0.17650806508681233 0.026133038844609525 0.0724790608696923 0.05120355383041434
-0.11167201240002833 0.10322587189232453 -0.1189798597385539 0.16492836248551448 -0.009865653368197893 -0.16467307529732136 -0.13738975720986515 0.017481226228971743
-0.08694516641156912 -0.09266322583796147 -0.09985425219256605 0.1313860946099052 -0.10858082276535877 -0.01568240300495216 0.17316127259989927 -0.11470643134540316

conv2.2.bias f8 [8]
00000000: 0000 00e0 d495 c4bf 0000 0060 8f0f b1bf
00000010: 0000 0000 550b c5bf dcff ffff 7f59 7ebf
00000020: 0000 0060 920c c0bf 0000 0080 0e62 c2bf
00000030: 0000 0040 5d23 b83f 0000 00a0 8d46 c03f
-0.16082249581813812 -0.06664367765188217 -0.16440832614898682 -0.007409572601318328 -0.125383660197258 -0.1436174511909485 0.0942896157503128 0.12715311348438263

conv2.3.weight f8 [8]
00000000: bfd5 f19a 59e8 ef3f 81bf 95b3 a0c8 ef3f
00000010: 7d1e 75a3 3343 f03f c297 ab74 5cce ee3f
00000020: 4c8b 4cec f067 ef3f c80f 13f9 c81b f03f
00000030: 7501 bfb0 f6a5 f03f f8c8 7ff8 93fc ef3f
0.9971130396140139 0.9932406909483548 1.0164066681917625 0.962690570708894 0.9814381232466558 1.006783459612949 1.040518465437427 0.9995822766780114

conv2.3.bias f8 [8]
00000000: f94e 7182 089e 813f 459c 7cea 1575 9d3f
00000010: cf90 7c6b 1d4d a23f 33ad c392 a84d 99bf
00000020: 7c48 b192 f05d 99bf 633e f282 1fe3 7cbf
00000030: 15a9 2cd1 e672 9d3f 6e60 223d ecde 41bf
0.008602205735008793 0.02876695865338898 0.03574459015934083 -0.024710306127343883 -0.02477241416301766 -0.007052538959342411 0.028758627430911583 -0.0005453732976716927

conv2.3.running_mean f8 [8]
00000000: ce5b d7ce 4967 c7bf fc2d 188a 3e90 a63f
00000010: eba8 8fed 876a b6bf 92ff 3cb4 89cd 92bf
00000020: 22f9 79fa c827 c8bf 8817 ebc7 ce26 663f
00000030: b12a b13c 8c4e b9bf 8fe0 21cb 825a 543f
-0.18283960914297243 0.04406924663279807 -0.08756303357919008 -0.01836218988978506 -0.1887141440419749 0.0027040518465097398 -0.0988547943281144 0.0012422826080449622

conv2.3.running_var f8 [8]
00000000: e893 ecda 0ca9 ca3f c64f 08aa a309 b53f
00000010: 1d28 a7a9 5c20 b83f 0d7e e6a2 90cb ad3f
00000020: 1679 7092 4a55 bb3f 78c3 2cfe f1f7 bd3f
00000030: 606e 851c 9982 c33f 002d 5cff 78ce b03f
0.20828400315909268 0.08217833424742968 0.09424380437772624 0.058193702588365516 0.10677019190959344 0.11706459479752407 0.15242303745877717 0.06565052255989556

conv2.5.weight f8 [8, 8, 3, 3]
00000000: 1bf6 a6f1 4f6a af3f 7d71 f1aa 48ab b33f
00000010: 08a1 be32 a3f9 bc3f 153e 9cc9 22aa b1bf
00000020: e9bc 2c93 b228 7d3f 6422 7c09 3d86 b43f
00000030: 9237 f26d a5b8 ab3f 7840 3999 7a71 bcbf
00000040: 5128 eb95 4dca b53f 4167 6a8e acc7 6e3f
00000050: e347 449a 513c b13f 502d 4bbd f01c a13f
00000060: fb73 000d 23ea b93f 4e93 3c2c ecb1 b1bf
00000070: c4bb 558d 65f9 903f f8d9 5ddc 7989 ae3f
00000080: c884 363d 3bd1 823f 5185 5cb6 acae 8ebf
00000090: 9f52 c8fe 320d b1bf 4ce8 2e09 2e81 a6bf
000000a0: 6702 21d0 4ec6 a6bf a449 2b31 df0e a7bf
000000b0: 2bd2 0da5 e4da b93f 857f c4d7 fb51 9a3f
000000c0: 9f8f 6ab3 d41c ba3f 8d2b 1300 b03f 73bf
000000d0: 1445 215f 8b03 a9bf 0e8b 0cdb 531f a4bf
000000e0: 21a6 5630 7193 ad3f d694 b563 2692 a1bf
000000f0: 99a9 03ea 1b59 b23f 45c6 e927 2f0c 65bf
00000100: 7afe be70 ba4f b33f 45f5 6a11 3b81 babf
00000110: 4d68 5e70 0a82 bebf 9b2b 4c72 2ab6 bb3f
00000120: 7ab4 b670 548a a2bf e0e5 bcfb 2181 bf3f
00000130: 0d30 cf8f 4b51 993f 927e 542f 48df 9e3f
00000140: 4151 bbd0 9d89 b0bf 96ca 72e9 f94b ad3f
00000150: 5799 2d26 9b50 bd3f e3bd 6b48 2b9f b93f
00000160: 8bd3 0d6a 9f74 b9bf 3829 7e4c 8d7a b63f
00000170: 7e6a 6c74 fe40 b63f 91e3 a92b 8705 c23f
00000180: a7b5 babe 3409 acbf f401 d505 2dc1 803f
00000190: ef0c 5593 9f99 643f da99 0d2b d180 b1bf
000001a0: 25a3 2a2f 3c95 a43f ce21 d65e ec1f c13f
000001b0: 34c1 cf33 6390 993f c20d 0948 ce6f b7bf
000001c0: 1fa8 d0c8 ef8c a53f f831 b279 d796 b5bf
000001d0: ba88 c595 fff6 a03f b824 b878 1ac3 babf
000001e0: b99d 06f9 fcff b9bf ece9 e8bd 4f61 b23f
000001f0: c811 fd14 f674 a9bf 4ea5 749e 84d7 8e3f
00000200: 8e3f 52c5 5455 94bf 3dea c6a5 fafe a1bf
00000210: f051 4d1d 1f8f b73f 3d76 bcb9 2721 ab3f
00000220: 02db b95d 9785 ba3f d79f 9e8f ee5f 993f
00000230: 5b4a a39d 2e13 863f 30c1 c9bf 4028 b9bf
00000240: 2cf2 3c3f 3166 b9bf 3f97 5573 7a02 a13f
00000250: 8394 6a61 bbb5 9cbf d914 9e09 8491 b6bf
00000260: dff4 21cf 9517 b2bf 7570 04a6 4e44 b2bf
00000270: 829d 1bac c9b4 b7bf c8fd 1670 92f0 943f
00000280: 3b26 e3ae 5b37 a53f e0c3 5c6e 9bd2 bb3f
00000290: 479a abe7 e7bd b63f c77d a2bd 7c21 bbbf
000002a0: e85b 03d4 e349 bb3f b30e e9a8 b3b6 a4bf
000002b0: 9945 682b d468 acbf 7f87 44e5 f01e b13f
000002c0: f9da 714f c5cb a4bf c282 b6e0 d9f3 6abf
000002d0: 6e7c 5eb1 2d7d 7c3f 9ca3 aecc 992d 9dbf
000002e0: a9e8 1c1e 19fc b1bf 0f46 4ba3 e073 8b3f
000002f0: 726b e583 bbd8 bcbf a3a5 dc21 364a 72bf
00000300: abf5 8689 de5b b63f 0c2c 7225 b3df b7bf
00000310: 85de 0792 2911 b5bf 46c5 c98c 3e02 ab3f
00000320: 18f9 a661 2d08 b4bf e5d1 f774 5ca4 af3f
00000330: 5849 a409 d196 9c3f 4a40 4ac2 f07d b8bf
00000340: f989 dc17 cae9 b6bf 3d7d e1e1 cf18 bb3f
00000350: 9c5c 208d 86b9 b5bf f786 9051 b04f b3bf
00000360: 6689 e2f8 f3d7 7bbf 8bb6 2355 e428 b1bf
00000370: efbb 7563 2f01 babf 6a14 5731 a5b4 b43f
00000380: 4bc7 1647 1fd4 b5bf 148f 6849 e048 963f
00000390: a5fa dd41 2dc6 8c3f ad4d c56b 418f 993f
000003a0: 5868 478f 591b b9bf 9b97 a743 dc88 5fbf
000003b0: 05bf 1f4a 3c56 b73f 3bc0 29ed 992b b4bf
000003c0: b6b1 a8bf 49c6 b3bf 9f98 d343 3279 923f
000003d0: e7fb a98d 2a1d b8bf 54ce 81e0 6beb 83bf
000003e0: 7be7 0bf1 d48f b33f 5ac5 5cc7 d1cb 903f
000003f0: e0db 98d5 d993 c0bf e792 bb45 1177 a0bf
00000400: 79b0 bdd6 ed5d a53f c33a d093 757e b7bf
00000410: 2cf1 f9f9 b7de bf3f 3d7a 4850 9a52 b53f
00000420: b192 2a0c 8126 b0bf 62ae 4c42 b70c aa3f
00000430: 1427 babe dc23 b43f 65d5 1b70 3abd b3bf
00000440: 2d95 af7e 9cd7 a03f ffe1 4f00 5480 bcbf
00000450: ec9d 8d6f 95aa 79bf dd2d 15e1 9c5c 673f
00000460: 1f67 e5cb 8375 b0bf 2cbf b21c 259b bbbf
00000470: d22d e7d2 a828 bf3f 72b6 d520 437f acbf
00000480: cdf6 ef6f 8d53 aebf 1b3a c5a8 518b a33f
00000490: f439 9675 3285 b13f c4d0 b1a2 48ac 9f3f
000004a0: 6475 7665 5906 92bf 8b41 e6cc 5dcd 9f3f
000004b0: 66a0 3f8a 715b bfbf 416c cf7a d545 c0bf
000004c0: 6db2 fd82 9c5b 7bbf 1d72 5e0b 7127 b4bf
000004d0: 1e09 1da1 483b a3bf 31ee cbb3 3dbc b83f
000004e0: da88 cad6 91e5 873f 992a 0a0f cde1 b4bf
000004f0: 7dd8 aaeb 6edd c0bf aeb1 fdd8 91e4 bebf
00000500: d7c1 2edc 7ca5 b5bf 1cdb 1678 ca01 9d3f
00000510: 07b0 fd83 5a7d 91bf b971 5bc4 762d afbf
00000520: c44e 92ed ac35 93bf bb2f 3589 1a26 b8bf
00000530: 3020 9515 2d34 b6bf 8fe9 ce14 677d b33f
00000540: 0fa9 617e 527c adbf c8c7 bc5b 21ae af3f
00000550: 6b46 1ce1 44d9 953f 6f29 31c9 158d 7cbf
00000560: 459a 58d7 2213 b53f 427c d439 7bbd c3bf
00000570: 9e39 19de 6412 a9bf 12af 7985 24b8 bd3f
00000580: a09f 1607 1e2d a6bf 6c4e 4658 f288 81bf
00000590: c539 2778 adfc a33f 970d 18a9 107b 873f
000005a0: ccc8 cdc0 7558 a73f 4e2f 1d49 8cba a23f
000005b0: 1006 c2ab 1159 b5bf ecff 7248 1c08 c1bf
000005c0: 3359 c17e 8d45 a33f bb1d 248a cca0 b83f
000005d0: db55 5e1a ba08 a13f 6ddc da65 924e adbf
000005e0: 06b6 8755 67bb b73f 78bd 33df e5eb 71bf
000005f0: d1b9 a681 a526 babf 4e78 0257 7cc5 c1bf
00000600: 6792 721b 79df 92bf 3116 832e fa35 b8bf
00000610: 7d2f 32c1 192a 94bf 7244 a2d3 fe97 643f
00000620: a270 c160 eddb b1bf 23a8 1239 1204 b03f
00000630: 5639 6c13 1c7b bebf 7b01 2ac2 fb1f a23f
00000640: 13ca f5d5 7a55 ca3f 172a aaf7 5ffd b1bf
00000650: 680d c1b4 9244 90bf 51be 7173 fe43 bb3f
00000660: 3da2 a80c b2cb b73f f3d2 41bc a5db 9bbf
00000670: 3864 6bf3 2c1e b8bf 4a04 b4c6 fd66 90bf
00000680: d330 182e 37c0 9fbf e2e1 2f9b 69a8 b2bf
00000690: cda7 33c4 a12e aabf e9be 352d 1d46 b5bf
000006a0: 4e4d a7f5 de6c 83bf 5bc0 70e9 d1ca 863f
000006b0: c741 d152 ed33 b5bf 6625 ed0f c6be a4bf
000006c0: d13a 8129 3041 79bf 4459 79e5 9a2e bd3f
000006d0: d60e 9006 ee74 b5bf 9034 d8bc f9d4 b53f
000006e0: 9ec2 bc52 0efd b23f 04b8 a1e2 e397 913f
000006f0: 4d1c e0a9 5a62 b5bf 3481 8527 6a3b ab3f
00000700: fe43 d973 4a09 b93f 6b60 601b bf70 94bf
00000710: 43c7 8c94 e58f a23f 99fb f083 9615 a9bf
00000720: 15cf bda5 9ac7 b23f 44b2 d247 c277 6d3f
00000730: 2ec1 9279 f5fe b13f 1260 0b91 d4de 62bf
00000740: 712a 3bb4 233b a13f 41f0 eaba c2c9 b9bf
00000750: ebf8 c16e a36b 91bf 207a fd7b e43c b23f
00000760: f475 a0c1 63ed a73f cc68 4436 53c5 bb3f
00000770: 9d4d 977a 7ae9 29bf 6e43 a205 7a2d b3bf
00000780: 843a a8ea 69b6 b03f 0249 9a29 a2c1 abbf
00000790: 4882 f701 8a4d b5bf 2e71 5ae5 b327 b73f
000007a0: 9498 918b df6a b63f ccda e3c6 0f50 62bf
000007b0: 0fca 33e0 0977 b4bf d8ca a6b4 3ae6 bb3f
000007c0: 7e60 b4c2 b358 ab3f 0657 7a1e bc57 ac3f
000007d0: 56c0 1ed4 4299 4abf 088f 082b 84ee 733f
000007e0: e09b f39b dd03 853f e792 d828 5eec b5bf
000007f0: aee6 db51 766e ba3f 7bb3 30cd b066 bc3f
0.06135797333579892 0.07683233426491216 0.11318416584856916 -0.06900231763960847 0.007118890341003972 0.08017331582608161 0.05414311377636162 -0.11110655060588381
0.0851181498539131 0.0037573213806582355 0.06732664123799696 0.033423922640930415 0.10122889583040255 -0.06912113265987083 0.016576372863194924 0.05964260878583966
0.009188139730044745 -0.014981602969387582 -0.06660765381122723 -0.04395431387043 -0.04448171892773161 -0.045035338165365674 0.10099629430426009 0.025703368229300878
0.10200242405204428 -0.004699409009115818 -0.04885516678099058 -0.03930151032388639 0.057765519285862384 -0.03431816069750375 0.07167219603767307 -0.002569286443127069
0.07543530705060589 -0.103534404518503 -0.1191717647874679 0.10824837961642546 -0.03621162296199372 0.12306415935463333 0.024724178936409703 0.0301486281288122
-0.0645998606299303 0.057220277545089335 0.11451120073397668 0.10008497732245973 -0.0994357713623925 0.08780749433041002 0.08692922918673138 0.14079370147717588
-0.054757736475362244 0.00818095373199499 0.0025146595677668564 -0.06837184239484576 0.04020107341540883 0.13378672247587392 0.024964857137036847 -0.0915497709148019
0.04209088636737612 -0.08433291169257717 0.03313444808260742 -0.10453954169510637 -0.10156231956226848 0.07179735552282523 -0.049720468580321475 0.015059505544359777
-0.019856762450728697 -0.03514846109051859 0.0920276114023364 0.05298732893264144 0.10360094106895804 0.02478001357636103 0.010778774438596253 -0.09827046091391334
-0.0992155818357296 0.033222033099078 -0.028037002392597998 -0.08815789446642287 -0.07067238146733555 -0.07135478547246683 -0.0926023526368365 0.020448959437769948
0.04143797407011759 0.10868236011880539 0.088835233745706 -0.10597972516779129 0.10659622121907797 -0.04045640408415121 -0.055487280176872385 0.06687837216716551
-0.040617147395939975 -0.0032901053834425162 0.006955317008674118 -0.028494265668686944 -0.07025296197108112 0.013404612525309138 -0.11268207521554333 -0.004465304807845713
0.0873393140563709 -0.09325713791092499 -0.08229312720492928 0.05275149792295024 -0.0782497752579484 0.06180085113365744 0.027919069493756637 -0.09567169898423447
-0.08950484354549094 0.10584735169094457 -0.084862145857516 -0.07543470374414683 -0.006797745720321968 -0.06703021124459434 -0.10158058336467922 0.08088142828553804
-0.08526797757693065 0.02176237533616561 0.014049867222408816 0.024960539057543297 -0.09807357547779938 -0.0019247199076004365 0.09115959939640213 -0.0787903026591729
-0.07724438599752301 0.018040452375225 -0.09419504126161336 -0.00972637442485006 0.07641344914364183 0.016402509492029572 -0.1295120518641104 -0.03215841270665525
0.04173224684095173 -0.091773365580802 0.12449216702402016 0.0832916685107898 -0.06308752581623868 0.050878264277653754 0.07867221504616523 -0.07710614430455605
0.032894983734687556 -0.11133313186281411 -0.006266196950356111 0.0028517784163903785 -0.06429313400203938 -0.10783607435837145 0.1217141642475135 -0.0556584336835443
-0.05923120490477416 0.038172294475419664 0.06843867655536667 0.030930647783365087 -0.017602345292848112 0.03105684817416114 -0.12248906731804396 -0.12713116165727636
-0.006679164289249512 -0.07872683074533211 -0.03756167380062635 0.09662233008924016 0.01166833817234585 -0.0815704499929474 -0.13175760752864454 -0.12067519710189487
-0.08455639243653167 0.02832714422194292 -0.017079748445596035 -0.0608937372869351 -0.018759443283285618 -0.09433141565131013 -0.08673364426533747 0.07613224275602291
-0.05758912842505214 0.061875383804717965 0.02133662818875452 -0.0069704867374390375 0.08232324368928186 -0.15422001193744178 -0.04896846018947375 0.11609104403185835
-0.043312967648773126 -0.00856198627369694 0.039037152211324457 0.011465196762407355 0.045596771035791045 0.036579498219536974 -0.08339033549602726 -0.13306001222190333
0.037640020106368154 0.09620359776101044 0.03326970645791124 -0.057240080769980085 0.09270330274713254 -0.004375360428851997 -0.10215219893755224 -0.1388392853595541
-0.018430607128396306 -0.0945736278109386 -0.019691851059675514 0.002513883312595549 -0.06976207363317369 0.06256212132817089 -0.11906600450695257 0.035400264217062515
0.20573363730689262 -0.07027244373799878 -0.015886585504870793 0.10650625532593351 0.09295189675379674 -0.02720507585077576 -0.0942104429517635 -0.016017880680923725
-0.031006681621918396 -0.07288227118249993 -0.051137023163235186 -0.08310110429533392 -0.009484998580694761 0.011129035889183727 -0.08282359382543013 -0.040517987674841646
-0.006165683873475118 0.1139923868407538 -0.08381545696471035 0.08528099880659767 0.07417382736162856 0.017180977542402345 -0.08353201529836092 0.053187672924425305
0.0977980168184018 -0.01996134380905838 0.03625409544328175 -0.048992827993507855 0.07335821672841931 0.0035971445600664637 0.07029661386582539 -0.0023035194102298895
0.03365432334029073 -0.10073487342282396 -0.017012170443643376 0.071241646071464 0.04673301447494885 0.10847969126590157 -0.00019769306281479114 -0.07491266858620602
0.06528341273245003 -0.05421168096394703 -0.08321440265673019 0.09044956540532631 0.08756825597228818 -0.0022354419844491154 -0.07994138454140674 0.1089817706149846
0.05341111900105576 0.05535686370892105 -0.0008117271720404866 0.004866138726842946 0.010261279412999202 -0.08563793656555739 0.10324801920423951 0.1109419346764308

conv2.5.bias f8 [8]
00000000: 0000 0020 9942 b53f 0000 00e0 1843 ba3f
00000010: 0000 0040 5222 b0bf 0000 0000 7b71 aebf
00000020: 0000 0080 03c6 aabf 1400 0000 60f2 73bf
00000030: 010b 0000 00b2 f2be 0000 0000 7513 833f
0.08304745703935623 0.10258632153272629 -0.06302370131015778 -0.059459537267684937 -0.05229197442531586 -0.004869818687438982 -1.7829239368448265e-05 0.009314455091953278

conv3.0.weight f8 [8]
00000000: 8413 9374 406f ef3f 7067 acb9 4767 f03f
00000010: 96cc cad2 6158 f03f 4e85 f707 f2a3 ee3f
00000020: a1e1 fbc4 600a f03f 8579 158f fe46 f03f
00000030: 0e3f 0e1c d017 ef3f af51 b972 844c f03f
0.9823305394025827 1.0252148869389792 1.0215776666707703 0.9575128703692515 1.0025336928066297 1.0173326100553777 0.971656851574126 1.0186809998896071

conv3.0.bias f8 [8]
00000000: df7e 48e1 efeb a03f cc25 e3ba 6a17 8bbf
00000010: 611e 2a7d 8cb8 923f 8010 d876 7833 4cbf
00000020: bc71 b445 cebe 973f a23f 5f45 71d0 993f
00000030: a10e 44b8 fec8 a23f 3bbf f728 d8b1 a73f
0.033050056696309 -0.013228257969234124 0.01828212274497643 -0.0008606279567975467 0.023188803677031564 0.025209207400450524 0.0366897201475045 0.046278719902942154

conv3.0.running_mean f8 [8]
00000000: d900 14a3 efb3 df3f bfb8 8977 9815 b9bf
00000010: 95cb f10c 6a76 d1bf 9539 6e22 8c62 e03f
00000020: d803 fed8 0518 9fbf 4e73 9ae0 a8e0 b83f
00000030: 7b51 fdac 5f49 c63f 7e41 b847 b1dd bebf
0.49535742688750656 -0.09798577230842208 -0.27285243286240163 0.5120297119590754 -0.030365077370792054 0.09717803462485827 0.174114188640157 -0.12057025910349314

conv3.0.running_var f8 [8]
00000000: 7482 9218 4307 d83f cd75 3bb8 0b69 b33f
00000010: 9670 e0eb 40ed ca3f 25bc ec66 1e54 cf3f
00000020: 7f62 297b 2d44 d03f 7ef5 2bd9 2606 d03f
00000030: b020 d43f 1140 d43f 4112 f03e 2113 d23f
0.37544324302329035 0.07582162139757216 0.21036540524881236 0.24475460076925618 0.2541612341642931 0.2503754731004263 0.31641036256088295 0.2824175943972343
